trafficRecognitionModel.pt (torch, 102799 bytes, 8 tensors)

weight f4 [4, 3, 3, 3]
0	0x3e419145	0.18903072
1	0x3d6b5a1e	0.05745899
2	0xbe69afbb	-0.22820942
3	0x3d92bb66	0.0716465
4	0xbd8f1352	-0.06986107
5	0x3d0ebebb	0.034849863
6	0x3e428e0c	0.18999499
7	0xbdd387a2	-0.10328604
8	0x3da77c6e	0.0817803
9	0x3e8dccb8	0.2769525
10	0xbaa413e9	-0.0012518141
11	0xbec797e0	-0.3898306
12	0xbdc22026	-0.09478788
13	0xbe8ef87b	-0.2792395
14	0xbe821f26	-0.2541439
15	0xbcf91124	-0.030403681
16	0xbe059a29	-0.13047089
17	0x3ebab45c	0.36465728
18	0xbd2628c1	-0.04056621
19	0xbc8f5b2e	-0.017499533
20	0xbe2e8614	-0.17043334
21	0x3e161ca8	0.14659369
22	0x3e01657f	0.12636374
23	0x3d86bdca	0.06579168
24	0xbd694649	-0.056951795
25	0xbdfe9073	-0.12429895
26	0x3e20620d	0.15662403
27	0xbce783ef	-0.028261153
28	0xbe8615dd	-0.26188555
29	0x3d8a9bcc	0.06767997
30	0xbe8c8f8f	-0.27453277
31	0xbe52f1f1	-0.20600106
32	0x3e5235f6	0.20528397
33	0x3e655429	0.22395386
34	0x3e41353b	0.18867962
35	0x3e92c818	0.28668284
36	0x3e4ef104	0.20209128
37	0xbea6fd47	-0.3261511
38	0x3d44542d	0.04793184
39	0xbe9dc1c0	-0.30811882
40	0xbe9e956c	-0.30973375
41	0x3cd585ce	0.02606478
42	0x3d66a195	0.05630644
43	0xbdabb57e	-0.08384226
44	0x3e139064	0.1441055
45	0x3eab53b3	0.33462295
46	0xbe085ec5	-0.13317402
47	0x3c49093e	0.01227027
48	0xbe0c6bea	-0.13713041
49	0xbdc17887	-0.09446817
50	0xbc353d9a	-0.01106205
51	0xbc759d0e	-0.014991058
52	0xbca239de	-0.019802984
53	0x3dcc6710	0.09980595
54	0x3c405d3c	0.011740979
55	0x3e73039f	0.2373185
56	0x3e66fd97	0.22557674
57	0x3e1676dd	0.1469378
58	0xbe2aff3e	-0.1669893
59	0x3d8bd91c	0.0682852
60	0xbd1dfaee	-0.038569383
61	0xbd96d819	-0.07365436
62	0x3e30ab0e	0.17252752
63	0xbe8d69f4	-0.27619898
64	0x3ca77ffd	0.020446772
65	0x3e4e6824	0.20156914
66	0x3e2a1ece	0.16613314
67	0xbe0981b1	-0.1342838
68	0x3c0a1591	0.008427993
69	0xbc875e5b	-0.016524484
70	0x3dac9464	0.08426741
71	0x3e89614c	0.26832044
72	0xbdb44304	-0.08801845
73	0xbe4b607f	-0.19861029
74	0xbd7e31a1	-0.06205905
75	0xbdc79aee	-0.09746347
76	0xbea707d9	-0.32623175
77	0xbd6c49b4	-0.057687476
78	0xbe9e0bba	-0.30868322
79	0xbda1d6fb	-0.079023324
80	0x3dc7417b	0.09729286
81	0x3dce5297	0.100743465
82	0x3df19c66	0.11797409
83	0x3e152a94	0.14567024
84	0x3d56d190	0.052445948
85	0xbd6f9b2e	-0.0584976
86	0xbbe193b1	-0.0068840613
87	0xbdcb2036	-0.09918253
88	0x3c7f20c3	0.015571776
89	0x3ebf27b6	0.37334985
90	0xbe666033	-0.22497635
91	0x3d5d73c1	0.05406547
92	0x3db758e8	0.089525044
93	0x3c573e56	0.013137421
94	0x3dd5e23f	0.10443544
95	0x3e083824	0.13302666
96	0x3da8eeca	0.082486704
97	0xbd0000c5	-0.031250734
98	0x3e9d16d6	0.30681485
99	0xbd0023d6	-0.031284176
100	0xbdb72a13	-0.08943572
101	0xbdd212af	-0.1025747
102	0x3d74e13c	0.059785113
103	0xbeac1bb3	-0.33614883
104	0xbe757088	-0.23968709
105	0xbe1dd880	-0.1541462
106	0xbd1721e4	-0.036897555
107	0x3ca3dd05	0.020002851

bias f4 [4]
0	0x3dfd15d0	0.12357676
1	0x3e83a8cd	0.25714722
2	0x3e71a999	0.23599853
3	0xbdd216cc	-0.102582544

weight f4 [4, 4, 3, 3]
0	0xbe482a2a	-0.19547334
1	0x3d5956bd	0.053061236
2	0x3f22b020	0.63549995
3	0xbbdb0ef9	-0.0066851345
4	0x3e84d3c7	0.25942823
5	0x3ddf22e4	0.10895327
6	0x3ec2e9df	0.38069054
7	0x3ece8811	0.40338185
8	0xbf3e523c	-0.7434423
9	0xbf50db0f	-0.81584257
10	0xbf560a2a	-0.8360926
11	0xbd6887a7	-0.056769993
12	0xbee55abd	-0.4479579
13	0x3e1fc5f0	0.15602851
14	0x3e941ce5	0.28928295
15	0x3e78a8c2	0.24283126
16	0x3ea79a91	0.32735112
17	0xbea1d780	-0.31609726
18	0xbe15ca83	-0.14628033
19	0x3e82c1f8	0.2553861
20	0x3ed5c75c	0.41753662
21	0x3efdb488	0.49551797
22	0x3f0913a9	0.53545624
23	0x3d26db16	0.04073628
24	0x3ea3f83a	0.3202532
25	0x3e79a851	0.24380614
26	0xbedace00	-0.4273529
27	0x3e07f002	0.1327515
28	0xbf0962f2	-0.53666604
29	0xbed891d1	-0.4229875
30	0xbf1e70cc	-0.61890864
31	0xbf1f4205	-0.6221011
32	0x3f473ea8	0.7782998
33	0xbf81b5ee	-1.0133646
34	0xbebb69a3	-0.36604032
35	0x3fac8262	1.347729
36	0x3f21d27d	0.63211805
37	0x3d118b7f	0.035533424
38	0xbe9fd4ee	-0.3121714
39	0x3c795a11	0.015219227
40	0xbf0ecd7d	-0.557823
41	0xbeee6092	-0.46558052
42	0xbf1b475d	-0.60655767
43	0xbf735248	-0.95047426
44	0x3db2ebd3	0.08736386
45	0x3e5bba77	0.2145785
46	0x3f1ff77a	0.62486994
47	0x3e9e6387	0.30935308
48	0x3e8e211b	0.27759632
49	0x3ef8f665	0.48625484
50	0xbe69742b	-0.22798221
51	0x3f142682	0.5787126
52	0xbf08bae7	-0.5341019
53	0x3e06171f	0.13094757
54	0x3e81de1e	0.25364774
55	0x3dcb2a50	0.0992018
56	0xbcc1d1b6	-0.023659568
57	0x3e0156b6	0.12630734
58	0xbf1ab571	-0.6043311
59	0xbe88e3d9	-0.26736334
60	0xbe613976	-0.21994576
61	0xbf788eea	-0.9709307
62	0x3e68e0aa	0.22741953
63	0xbddc0353	-0.107428215
64	0x3e6a3ab3	0.22873954
65	0xbf1fa738	-0.6236453
66	0x3de9274d	0.11384449
67	0x3f49180f	0.78552336
68	0xbea89a1b	-0.32930073
69	0x3e6ad605	0.22933204
70	0x3f3c1c37	0.7348055
71	0xbcd981a7	-0.02655108
72	0xbeefb592	-0.46818215
73	0xbeb61122	-0.35559946
74	0x3c8bda69	0.01707192
75	0xbcd16b67	-0.025563909
76	0xbe979ed1	-0.29613355
77	0x3edd30c8	0.4320128
78	0xbe47dbad	-0.19517393
79	0xbe2794ca	-0.16365352
80	0x3e99d75c	0.3004712
81	0xbe3a6532	-0.18202665
82	0x3df1199e	0.11772464
83	0xbe91672f	-0.28399035
84	0x3c4b0c66	0.012393093
85	0x3e6ae58b	0.22939126
86	0xbddf9365	-0.10916785
87	0x3c60cc87	0.013720638
88	0xbe6426a6	-0.22280368
89	0x3e5237dd	0.20529123
90	0xbd99cacf	-0.07509386
91	0xbebc261f	-0.36747834
92	0xbe8c6513	-0.27420864
93	0xbe0326a8	-0.12807715
94	0xbe7a67bf	-0.24453638
95	0x3e8927d1	0.2678819
96	0x3da92c5a	0.082604125
97	0xbd589b4a	-0.05288247
98	0x3e8d60c3	0.27612886
99	0xbeb5242a	-0.35379153
100	0x3e893814	0.26800597
101	0x3d88bf00	0.06677055
102	0xbcc91d67	-0.024550153
103	0x3edbac4c	0.4290489
104	0x3da4e373	0.08051195
105	0xbddde426	-0.108345315
106	0x3eb86e90	0.36021852
107	0xbda4645c	-0.080269545
108	0xbe1bb60a	-0.15206161
109	0xbd0b6013	-0.03402717
110	0xbe620912	-0.22073773
111	0xbeb37820	-0.35052586
112	0xbf061c7a	-0.523872
113	0xbdd95370	-0.106116176
114	0xbe82e098	-0.25561976
115	0xbf223f1d	-0.63377553
116	0xbe0e02dc	-0.13868278
117	0x3ebec811	0.37262014
118	0x3e61dfc5	0.22058018
119	0xbea5891b	-0.32331166
120	0x3ed37f9a	0.4130829
121	0x3f33e60c	0.702729
122	0xbf23b6a4	-0.6395056
123	0xbe4748a6	-0.19461307
124	0x3ecc8e03	0.39952096
125	0xbe87a64d	-0.26494065
126	0xbe016c67	-0.12639008
127	0xbe9cddcb	-0.30637965
128	0xbf09c3e5	-0.53814536
129	0xbe892a5c	-0.2679013
130	0xbf3b3a68	-0.73135996
131	0xbf05e8ce	-0.52308357
132	0x3d23d196	0.0399948
133	0x3dcbeaf9	0.09956927
134	0x3e659f2c	0.22424
135	0x3e8f7ce5	0.28024974
136	0x3e749b91	0.23887469
137	0x3f17315b	0.59059685
138	0x3ee1487c	0.44000614
139	0x3f2f0f1e	0.6838244
140	0x3f5df0c6	0.86695516
141	0xbe3f8584	-0.18703276
142	0xbecd5968	-0.40107274
143	0x3b8fa0a3	0.004383163

bias f4 [4]
0	0xbe258b67	-0.16166459
1	0x3e8c715b	0.27430233
2	0x3f0fa1f4	0.56106496
3	0x3f149074	0.5803292

weight f4 [4, 4, 3, 3]
0	0x3e375af5	0.17905791
1	0x3eded844	0.43524373
2	0x3e9e5c9c	0.3093003
3	0x3dbd5c18	0.09246081
4	0x3f1b1a43	0.6058695
5	0x3dfb4957	0.12269848
6	0x3e97abfe	0.29623407
7	0xbd97141f	-0.07376885
8	0xbf115c6f	-0.5678167
9	0xbc26be93	-0.010177272
10	0xbe897736	-0.26848763
11	0x3e83ab71	0.25716737
12	0x3dd0fe89	0.10204799
13	0x3d0e141c	0.034687147
14	0x3eb6743d	0.35635558
15	0xbedeb1b5	-0.43494955
16	0x3e4888be	0.19583413
17	0x3dc28f9b	0.09500047
18	0x3e9075f9	0.28215006
19	0xbe58e374	-0.21180516
20	0xbf1b2ccb	-0.60615224
21	0x3d701774	0.058616117
22	0xbd9f670f	-0.07783329
23	0xbef1eb86	-0.47250003
24	0xbf18a019	-0.5961929
25	0xbf01caeb	-0.50700253
26	0xbe6dd59e	-0.2322602
27	0xbc360e0c	-0.0111117475
28	0xbe789472	-0.24275377
29	0x399ab815	0.0002951032
30	0xbe602079	-0.21887387
31	0x3d75f74f	0.060050305
32	0x3cf35ecd	0.02970829
33	0x3e81678c	0.25274312
34	0x3e240dc1	0.16020872
35	0x3eb322fb	0.34987625
36	0x3ed1fff4	0.4101559
37	0xbf198221	-0.59964186
38	0x3b1ee9c4	0.0024248222
39	0x3f1e2bab	0.6178538
40	0xbf17c498	-0.59284353
41	0x3f01de9a	0.5073029
42	0x3f55cd1d	0.83516103
43	0xbe9188ce	-0.28424686
44	0x3ed7f389	0.4217799
45	0xbf080323	-0.53129786
46	0x3f69d296	0.91336954
47	0xbee627e2	-0.44952303
48	0x3d8c1f0c	0.06841859
49	0x3f878a15	1.0589014
50	0xbf009eb6	-0.50242174
51	0x3e7559ec	0.23960084
52	0x3f2db79a	0.6785828
53	0xbeddba2f	-0.4330611
54	0xbf0e9f78	-0.5571208
55	0x3ecfcaaa	0.40584308
56	0x3e6f9564	0.23396832
57	0xbe85d781	-0.2614098
58	0x3d42664a	0.04746083
59	0xbe8aa104	-0.2707597
60	0xbdb7d19e	-0.08975528
61	0xbd85cbb0	-0.06532991
62	0xbea7be67	-0.32762453
63	0x3eb41fb8	0.3518045
64	0xbda59bb3	-0.08086338
65	0xbeea62f8	-0.45778632
66	0x3ee206a0	0.4414568
67	0xbe6489f6	-0.22318253
68	0xbedcad68	-0.43101048
69	0x3ef655a8	0.48112226
70	0x3d4c40a6	0.04986634
71	0xbed60597	-0.4180114
72	0xbf08f282	-0.5349504
73	0xbf1d0a48	-0.6134381
74	0xbe1bfc5b	-0.15232985
75	0xbebcdbce	-0.36886448
76	0x3e8a0c3c	0.2696246
77	0x3f5ea2d3	0.869672
78	0x3ea94654	0.3306147
79	0x3e8ceb81	0.27523425
80	0xbe278d4e	-0.16362497
81	0xbce0bead	-0.027434671
82	0x3f323aae	0.6962079
83	0xbf0f782c	-0.5604274
84	0xbef386e3	-0.47563848
85	0x3dcbf8d0	0.099595666
86	0x3d9805c2	0.07422973
87	0xbe523117	-0.20526539
88	0x3f5cc94e	0.86244667
89	0x3f820aa0	1.0159492
90	0x3c98c61b	0.018649152
91	0x3f749cea	0.9555193
92	0x3ee1475f	0.43999764
93	0x3f2fc566	0.6866058
94	0x3f2dadd7	0.67843384
95	0xbe7af0d5	-0.24505933
96	0x3e6dc928	0.23221266
97	0x3df14e88	0.11782557
98	0x3e3102b7	0.17286192
99	0xbe053f44	-0.13012415
100	0x3e9077d8	0.28216434
101	0xbd97e145	-0.07416014
102	0x3d936657	0.07197254
103	0xbe47b464	-0.19502407
104	0xbf1c7902	-0.61122143
105	0xbf765c21	-0.9623433
106	0xbeac9063	-0.33703908
107	0x3c0b808d	0.008514536
108	0xbee79782	-0.4523278
109	0x3eba5b83	0.36397943
110	0x3f8b3d90	1.0878162
111	0xbf2eef76	-0.6833414
112	0x3c3f7c3a	0.011687333
113	0x3f5d38b0	0.86414623
114	0xbec51cef	-0.38498637
115	0xbee180e0	-0.44043636
116	0xbd2bd1f3	-0.04194827
117	0x3ec536e3	0.38518438
118	0x3f0b5091	0.5441981
119	0x3e2b85cf	0.16750263
120	0xbead2b69	-0.33822182
121	0x3d5b4ce9	0.053540144
122	0x3eb70021	0.35742286
123	0xbd28aeb4	-0.041182235
124	0x3c5bff58	0.013427578
125	0xbf404c25	-0.7511619
126	0xbed717f4	-0.42010462
127	0xbdba68d9	-0.09102029
128	0xbe37b971	-0.17941834
129	0x3e6611a7	0.22467671
130	0x3d2faad4	0.042887524
131	0xbe12d26c	-0.14338082
132	0x3eeecb52	0.46639496
133	0x3e38cebd	0.18047614
134	0xbe80d394	-0.2516142
135	0xbd236337	-0.03988954
136	0x3f42757e	0.7596053
137	0x3eff07ce	0.49810642
138	0xbe5b9b4d	-0.21445961
139	0xbdb60707	-0.08888059
140	0x3f281173	0.65651625
141	0xbf13cb63	-0.5773222
142	0xbf67984e	-0.90466774
143	0xbe43ddd0	-0.19127584

bias f4 [4]
0	0x3e86f3f1	0.26357988
1	0xbeba72bb	-0.36415657
2	0xbfc3b890	-1.5290699
3	0xbe6f4d05	-0.23369224

weight f4 [42, 576]
0	0xbfa0a8de	-1.2551534
1	0x3eb17afd	0.34664145
2	0x3f128769	0.5723787
3	0xbf97e916	-1.1868007
4	0xc01fe549	-2.4983695
5	0xbf2ec867	-0.6827454
6	0xbf93995b	-1.1531175
7	0x3eba80fa	0.36426526
8	0xbfa5a232	-1.2940123
9	0xbfdf2c12	-1.7435324
10	0xbf2c5f5e	-0.6733302
11	0x3e92c5c9	0.28666523
12	0x3dea9f73	0.11456194
13	0x3f301c6d	0.68793374
14	0x3fa036ab	1.2516683
15	0xbfac8574	-1.3478227
16	0xbf934ac6	-1.1507194
17	0xbd35faa0	-0.044428468
18	0xbde32689	-0.110913344
19	0xbeee9f93	-0.4660612
20	0xbd1c27a7	-0.038123753
21	0x3f8f2cae	1.118551
22	0x3ff3a0de	1.9033468
23	0x3fae50e8	1.3618441
24	0xbd0d84a6	-0.03455033
25	0x3e191205	0.1494828
26	0xbfb46624	-1.4093671
27	0xbf0e1da8	-0.55514
28	0xbe124a8f	-0.14286254
29	0xbf404b86	-0.7511524
30	0xbf4a5648	-0.79037905
31	0xbe2db4c1	-0.16963483
32	0x3e88ced8	0.2672031
33	0x3f01b88f	0.5067224
34	0x3f87ef80	1.0619965
35	0x3f9d81c2	1.2305224
36	0xbf9ec9da	-1.240535
37	0xbf9cef6f	-1.2260569
38	0xbf24bf88	-0.64354753
39	0xbeee68ef	-0.46564433
40	0xbf0a7347	-0.5408215
41	0xbf69936b	-0.91240567
42	0xbde49b82	-0.11162473
43	0xbfcf3e5e	-1.6190908
44	0xbfbfefcd	-1.4995056
45	0xbed9e588	-0.4255793
46	0xbf0d198d	-0.5511711
47	0xbc93f334	-0.018060304
48	0xbfa6222e	-1.2979181
49	0xbf4b5a1c	-0.7943437
50	0xbf00eafe	-0.5035857
51	0x3d8c7439	0.06858105
52	0x3e03574c	0.1282627
53	0xc02efa81	-2.7340395
54	0xbffd8753	-1.9806923
55	0x3e1a4607	0.15065776
56	0xbf05a7b2	-0.5220901
57	0xbf03170e	-0.51207054
58	0xbe7885d6	-0.24269804
59	0x3d70281a	0.058631994
60	0xbebeb483	-0.37247095
61	0x3f0c9f28	0.54930353
62	0xbed970c1	-0.42468837
63	0xbd93be16	-0.072139904
64	0x3ed92c0e	0.42416424
65	0xc0250025	-2.5781338
66	0xbf5292cc	-0.82255244
67	0x40260a27	2.5943696
68	0x3f2673c2	0.6502038
69	0x3ea82590	0.32841158
70	0xbcdd0695	-0.026980678
71	0x3ebc3cd2	0.36765152
72	0x3ce2ab2d	0.027669514
73	0x3f10d78f	0.56578916
74	0xbf8b1320	-1.0865211
75	0x3e872f5e	0.26403326
76	0x3f34d787	0.7064137
77	0x40a09307	5.0179477
78	0x40013902	2.0191045
79	0x3e6664f8	0.22499454
80	0x3ddcd2f2	0.10782422
81	0xbeb9b628	-0.36271787
82	0x3de14cd7	0.11000984
83	0xbdfbd7f3	-0.122970484
84	0x3f111bb1	0.5668288
85	0x3e884fad	0.26623288
86	0xbf8f303b	-1.1186594
87	0x3f54e8cb	0.83167714
88	0x401932ea	2.3937325
89	0x3f9bd150	1.2173252
90	0xc06858b7	-3.6304147
91	0xbfba0cf2	-1.45352
92	0x400883c5	2.1330426
93	0x3e1f8f49	0.15582003
94	0x3e5aaa29	0.21353973
95	0x3d4ccd48	0.05000046
96	0xbf06cf8c	-0.5266044
97	0xbf274969	-0.6534639
98	0xbfbed357	-1.4908246
99	0x3f3b1aba	0.73087656
100	0x3f48591b	0.78260964
101	0xbfc945e9	-1.572446
102	0x3ee11278	0.43959403
103	0x3ea983a6	0.33108252
104	0x3f22318c	0.6335685
105	0xbdb0c8ad	-0.08632026
106	0x3e80c6e1	0.25151733
107	0xbc10e8b0	-0.0088445395
108	0x3c4f5edd	0.0126568945
109	0xbf97a82e	-1.1848199
110	0xbf8875c7	-1.0660943
111	0x3f0786a5	0.52939826
112	0xbd50099a	-0.050790407
113	0xbe83a797	-0.25713798
114	0xbfd4ca4d	-1.6624237
115	0xbf1c013c	-0.60939384
116	0xbe31b580	-0.17354393
117	0x3f8be4fb	1.0929254
118	0xbee3f6be	-0.44524187
119	0xbf5c91ff	-0.8616027
120	0xbf9e9596	-1.23894
121	0xbf029288	-0.5100484
122	0xbd6374cb	-0.055531304
123	0xbee39689	-0.44450787
124	0xbf875a41	-1.0574418
125	0xbeafd68a	-0.34343368
126	0x3ef13354	0.47109473
127	0x3ed3f723	0.41399488
128	0x3f893819	1.0720245
129	0x3ee0fe3b	0.43943962
130	0xbef87b3f	-0.4853153
131	0xbf00eb29	-0.50358826
132	0x3fb62d63	1.4232601
133	0xbf56d41e	-0.83917415
134	0xbfec0cd5	-1.8441416
135	0xbfbd93f5	-1.4810778
136	0xbf77dd3b	-0.96821946
137	0xbe8fcc17	-0.28085396
138	0xbe7832d8	-0.24238145
139	0x3eed9c05	0.46408096
140	0x3f8d7277	1.1050557
141	0xbe3cd99b	-0.18442385
142	0xbf7dc026	-0.9912132
143	0xbf727322	-0.9470693
144	0xbf6874a5	-0.90802985
145	0x3f5a0241	0.8515969
146	0xbe22fc1d	-0.15916486
147	0xbe80c4c7	-0.2515013
148	0x3dff342c	0.12461123
149	0x3dc530ec	0.09628472
150	0x3eb6c5e6	0.3569786
151	0xbf6f18fe	-0.9339751
152	0xbf1990e1	-0.5998669
153	0x3f0c9c19	0.54925686
154	0xbfb7a494	-1.43471
155	0xbf38f901	-0.7225495
156	0x3f5966d8	0.8492255
157	0x3ebaaaaf	0.36458346
158	0x3f1dd699	0.61655575
159	0x3f25f1f1	0.648223
160	0xbe00b113	-0.12567548
161	0x3f9178f1	1.1365033
162	0xbf4418e0	-0.76600456
163	0x3eca17ea	0.3947137
164	0xbec76b64	-0.3894912
165	0xbf073bc2	-0.5282556
166	0x3ed9c9bd	0.42536727
167	0x3ed1bb38	0.4096315
168	0xbe370d2e	-0.17876121
169	0x3e3bfc9c	0.18358082
170	0x3ea1380c	0.31488073
171	0xbe740db5	-0.23833354
172	0xbf62e9fc	-0.8863828
173	0xbf2a82fb	-0.6660611
174	0xbd8aec71	-0.06783379
175	0x3f316a4f	0.6930284
176	0x3f520ba8	0.82049036
177	0xbf3b40d5	-0.731458
178	0xbe68a29f	-0.22718285
179	0xbe95ca69	-0.2925599
180	0xbf68ef66	-0.90990293
181	0xbe4efc3d	-0.20213409
182	0xbf505747	-0.81383175
183	0x3d0e892b	0.034798782
184	0xbef0e0d1	-0.4704652
185	0xbf2fea58	-0.68716955
186	0xbf963741	-1.1735612
187	0xbedb8e1c	-0.42881858
188	0xbf520584	-0.82039666
189	0xbeea190c	-0.45722234
190	0xbcbe1bb7	-0.023206575
191	0xbebf1c46	-0.37326258
192	0xbf15f8a2	-0.5858251
193	0xbe9991d7	-0.2999408
194	0xbf1e190f	-0.61756986
195	0x3f72025f	0.9453487
196	0x3eab11d6	0.33412045
197	0xc0209c88	-2.509554
198	0x3ed1dc3b	0.40988335
199	0x3f0a738f	0.5408258
200	0xbf405462	-0.7512876
201	0x3f35313d	0.70778257
202	0xbf05a85f	-0.5221004
203	0x3e2001ef	0.15625738
204	0xbe3352ff	-0.17512129
205	0xbd861113	-0.065462254
206	0x3f59b275	0.8503793
207	0x3e1a5250	0.15070462
208	0x3f3ebad9	0.74503857
209	0xbe2feaa0	-0.17179346
210	0x3d677dae	0.056516342
211	0x3fde29d4	1.7356515
212	0x3e4accb5	0.19804652
213	0x4005e220	2.0919266
214	0xbe68d754	-0.22738391
215	0x3e52fb3b	0.2060365
216	0xbab7b5e2	-0.0014015997
217	0xbf2269ba	-0.63442576
218	0x3f5deddb	0.86691064
219	0xc00f02e8	-2.2345524
220	0x3f19e159	0.6010948
221	0x3efd4c27	0.49472162
222	0x4049ea15	3.1549122
223	0x400e9bf6	2.228269
224	0x3fa572c8	1.2925653
225	0x40221d28	2.5330296
226	0xbec48ee6	-0.38390273
227	0x3e8256cc	0.25456846
228	0x3db93424	0.09043148
229	0xbdf84cbd	-0.12124012
230	0x3f2af2e2	0.6677686
231	0x3f01dd5c	0.5072839
232	0x40174c99	2.3640501
233	0xbf66b612	-0.9012157
234	0x400c4580	2.191742
235	0x3fdce06c	1.7255988
236	0x400a6954	2.1626787
237	0x4025002b	2.5781353
238	0xbe69efb5	-0.22845347
239	0x3e8a4e1b	0.27012715
240	0xbea07e3f	-0.31346318
241	0x3f54c473	0.8311226
242	0x3f86a5bf	1.0519332
243	0x3ff24851	1.8928319
244	0x4014eda6	2.327005
245	0xbfbebd3e	-1.4901502
246	0xbfaab1fe	-1.3335569
247	0xbe74a8bd	-0.23892494
248	0x3f53f29a	0.82792056
249	0x3fb63c9b	1.4237245
250	0x3eb5a966	0.35480803
251	0x3eb80740	0.3594303
252	0x3edef8f6	0.43549317
253	0x3ef50128	0.47852445
254	0x3d01b842	0.031669863
255	0x3f05f005	0.52319366

bias f4 [42]
0	0xc0613a00	-3.519165
1	0x402951c1	2.6456149
2	0x40147847	2.3198411
3	0x3f7193a2	0.94365895
4	0xbeeabacb	-0.45845637
5	0x3fab4fd1	1.3383733
6	0xbe585475	-0.21125968
7	0x3fe04cb8	1.7523413
8	0xbf6fb337	-0.93632835
9	0x3fbde1df	1.4834555
10	0xbffbef94	-1.9682488
11	0x4029e4eb	2.654597
12	0x404e52e1	3.2238085
13	0x3fa181dc	1.2617755
14	0xc0037d5d	-2.0545266
15	0xc0410d3a	-3.0164323
16	0xc0728ea4	-3.789956
17	0xbef82aff	-0.48470303
18	0xbe9355a1	-0.28776267
19	0xc00f2456	-2.2365928
20	0x3faee76d	1.3664376
21	0xbf53a0c7	-0.826672
22	0xbf9f9cae	-1.246969
23	0xbfd7cf5c	-1.6860156
24	0xbf7c83ea	-0.98638785
25	0x40bd61e9	5.918202
26	0xbe8366e4	-0.25664437
27	0xbf596c23	-0.8493063
28	0xbf6dc7ad	-0.92882806
29	0xbf9dda39	-1.2332221
30	0xbfa5029a	-1.2891419
31	0x3f2d910f	0.67799467
32	0xbf7dac9d	-0.9909151
33	0xbf2ec213	-0.68264884
34	0xc017f163	-2.374108
35	0x40117713	2.2728927
36	0xbf4e20b1	-0.80518633
37	0xbfd6ea35	-1.6790224
38	0x3fc3814b	1.5273832
39	0xc00680d4	-2.101613
40	0x3ff622cc	1.9229369
41	0xc0329dd0	-2.790882
