trafficRecognitionModel.pt (torch, 37911 bytes, 6 tensors)

weight f4 [4, 1, 3, 3]
000000 ab 84 27 be cb 8b 91 be 68 5f 29 3d 08 85 0c bd
       -0.16359203 -0.28426966 0.041350752 -0.034306556
000010 68 01 2c be 20 7a f7 3d be 5d 25 be 9c 42 d4 bd
       -0.16797411 0.1208384 -0.16149041 -0.10364267
000020 12 08 2f 3e 9f 67 d5 be be f5 39 bf 8f 7b 9f be
       0.17092922 -0.4168062 -0.726406 -0.31148955
000030 c2 00 3a bf cf 1f 9e be 96 c6 06 bf 81 c4 2c bf
       -0.72657406 -0.30883643 -0.5264677 -0.6748734
000040 a3 71 c3 be 4e 41 25 bf 10 cd f2 bd c4 bd 84 be
       -0.38172635 -0.6455277 -0.11855519 -0.2592603
000050 35 cc 00 bf 7c 09 39 bf 11 8e 8d be 95 da 41 be
       -0.50311595 -0.72280097 -0.2764745 -0.18931039
000060 d3 3e 11 bf 56 5f d9 be f3 48 c7 be f3 9e 0a be
       -0.5673649 -0.42455548 -0.38922843 -0.13537197
000070 86 a9 1c be b0 43 e2 3c 90 94 e3 bc de fd 95 be
       -0.15299043 0.027620167 -0.027780801 -0.29295248
000080 2c 77 f5 bd 41 9b 8a 3e 61 05 a3 3e b7 3a 9a be
       -0.11985621 0.27071574 0.3184004 -0.3012292

bias f4 [4]
000000 23 06 08 be 30 b7 60 be d6 5a 2b bf 46 1b 8e be
       -0.13283591 -0.2194488 -0.6693548 -0.27755183

weight f4 [4, 4, 3, 3]
000000 6f 5e 1e be fb 98 10 3e 98 95 ad bd ce b9 08 be
       -0.15465711 0.14120857 -0.08475798 -0.13352129
000010 7a 87 e3 3d 80 03 85 bb 80 47 1c be 86 21 f9 bd
       0.111098245 -0.004059255 -0.1526165 -0.12164597
000020 48 ea ef 3c 2c 34 83 be 74 73 b8 be f2 ae e8 be
       0.029286519 -0.2562574 -0.36025584 -0.45445973
000030 a3 9d cf be 80 44 21 bf a8 64 a3 be 5f f7 83 be
       -0.40549955 -0.6299515 -0.31912732 -0.25774667
000040 3a 9f cf be 73 a0 c7 be 9c 36 41 bf d0 29 c1 be
       -0.40551168 -0.389896 -0.7547395 -0.37727213
000050 f2 08 45 be 0b 65 d8 be 3e 10 d1 be 5e 9c e9 be
       -0.19241694 -0.4226459 -0.40832704 -0.4562711
000060 b1 19 de be b4 bf cc be 43 84 30 bf 5c 8f 16 3d
       -0.43378976 -0.39990008 -0.68951815 0.036757812
000070 b0 4b d2 bd 26 f4 e4 3d f0 07 7e 3d 38 7c f7 bc
       -0.102683425 0.1117938 0.06201929 -0.0302106
000080 12 3d 14 be d0 a3 74 bc 6a d9 1f be 80 c2 c6 3a
       -0.14476421 -0.014931634 -0.1561028 0.0015164167
000090 06 01 fa 3d d4 a5 1d 3d c4 20 37 3d 27 84 12 be
       0.122072265 0.038488224 0.044708982 -0.14308225
0000a0 b2 ed 84 3d ce 1e 91 3d 1b cd b5 bd 99 2f 24 3e
       0.06490649 0.07085954 -0.088770114 0.16033782
0000b0 80 13 81 bc e6 03 53 be dd e2 6d be 51 45 2e be
       -0.015756369 -0.20606956 -0.23231073 -0.1701863
0000c0 93 5b db be 3c 84 77 be c6 2a b5 be 61 05 9d be
       -0.42843303 -0.24171537 -0.35384196 -0.30668166
0000d0 8d 08 d0 be 9a 0b 97 be c3 73 03 bf 32 0d 0e bf
       -0.40631524 -0.2950104 -0.51348513 -0.55488884
0000e0 72 4b e8 be 9f cc b5 be 39 67 d0 be be eb 8c be
       -0.4537006 -0.35507676 -0.40703753 -0.27523607
0000f0 ac 54 a3 be ac bd 99 be 4c 78 04 bf 00 9c 43 b9
       -0.31900537 -0.3002752 -0.5174606 -0.00018654764
000100 24 31 7e 3d a8 91 bf bd fa f5 d6 3d 84 f8 60 3d
       0.062058583 -0.093539536 0.10496135 0.054924503
000110 4d cf 21 3e a4 6c 28 be a0 4a 65 bd 40 f1 2e bc
       0.15801735 -0.16447693 -0.05597937 -0.010677636
000120 00 73 4f bd a7 94 10 3e e0 aa cb 3c ad 98 1b 3e
       -0.050646782 0.14119206 0.024861753 0.1519496
000130 2b c6 b5 bd 86 12 90 3d db 96 0d 3e 88 7b 9d 3c
       -0.08875688 0.07034783 0.13827078 0.019223943
000140 80 74 98 3b f1 0c 14 bf 4e e8 b7 be 82 f7 b0 be
       0.0046525598 -0.57832247 -0.35919422 -0.34563833
000150 65 83 08 bf 7c 30 25 bf d8 01 07 bf ea bb c4 be
       -0.5332549 -0.64527106 -0.5273719 -0.38424617
000160 9f 4b 22 bf 5a 04 0f bf 1a 03 dd 3e 0f b2 0a bf
       -0.6339664 -0.55866015 0.4316643 -0.54177946
000170 4c 1e a5 3e cf 1e ca be 30 db 15 bf 67 c5 d7 be
       0.32249677 -0.3947663 -0.5853758 -0.42142794
000180 e2 ae 10 bf 12 0f 08 bf 42 18 05 bf 20 9c 0e bd
       -0.5651685 -0.53147995 -0.5199014 -0.03481686
000190 f2 78 af 3d 2a 22 98 3d 82 ec a5 3d 06 1d d6 3d
       0.0856799 0.07428391 0.08101751 0.104547545
0001a0 d3 ab e4 bd a0 7f 93 3d ae 71 80 bd 0f ec 12 be
       -0.11165585 0.07202077 -0.06271683 -0.14347862
0001b0 40 57 bd bc 86 41 14 be 1d 49 03 3e bf 3a 21 be
       -0.023112893 -0.1447812 0.12820859 -0.15745066
0001c0 e8 b0 97 bc 76 3a a0 3d f4 af 05 bd 87 af 00 3e
       -0.018516973 0.078236505 -0.032638505 0.12566958
0001d0 5a 58 8e 3d 7d f2 a7 be ac d8 7c be 78 53 84 be
       0.069504455 -0.3280219 -0.24692029 -0.25844932
0001e0 ac cb 0c be 40 40 dc be 61 1b ce be 6d f1 28 be
       -0.1374957 -0.4301777 -0.40255263 -0.16498347
0001f0 33 dd cb be fb 59 bb be 00 22 17 bf 72 c1 fa be
       -0.398172 -0.36592087 -0.59036255 -0.48975712
000200 3a c9 f3 be b5 cd dc be 26 59 c6 be 51 82 fa be
       -0.4761446 -0.43125692 -0.3873989 -0.4892755
000210 27 ce 9d be dc db 97 be 67 ed 27 bf 83 d2 0c be
       -0.30821344 -0.29659927 -0.6559662 -0.13752179
000220 70 67 13 3d b8 19 fc bd 78 bf 91 3d 96 7f 13 be
       0.035987318 -0.12309593 0.07116598 -0.14404139
000230 cc be 15 bd 86 03 36 bd 08 01 b7 bc 24 99 07 bd
       -0.03655891 -0.044436954 -0.022339359 -0.03310503

bias f4 [4]
000000 9f 3a c1 be f8 1c 0f bf f7 83 f2 be 77 4a 11 bf
       -0.37740037 -0.5590358 -0.47366306 -0.5675425

weight f4 [42, 196]
000000 e5 f0 c1 be 34 89 f5 be 1f e5 b8 be bd 0f b7 be
       -0.378791 -0.4795624 -0.36112306 -0.35754195
000010 28 49 dc be 75 a9 f0 be f4 ba ea be 3b f4 d4 be
       -0.43024564 -0.47004285 -0.4584576 -0.41592583
000020 4d 2b c4 be cd ad ea be a2 2c d1 be 5c 7b ed be
       -0.38314286 -0.45835724 -0.40854365 -0.46383178
000030 01 7f d0 be 47 2a d7 be 5c 1b d1 be 79 d4 ce be
       -0.40721896 -0.42024443 -0.40841186 -0.4039648
000040 97 23 c2 be 63 fc f2 be 1e 43 c3 be 01 de f0 be
       -0.37917778 -0.4745818 -0.38137144 -0.47044376
000050 01 13 b6 be 3b 5c c4 be 22 ba b8 be e5 f5 be be
       -0.35561374 -0.38351616 -0.36079508 -0.37296978
000060 47 0a d2 be 0e 66 e4 be 6c 6c ed be 58 6f c5 be
       -0.41023466 -0.44609112 -0.46371782 -0.3856151
000070 30 17 c6 be 3c 73 be be 32 23 e7 be 87 8d e5 be
       -0.38689566 -0.37197292 -0.4514404 -0.4483454
000080 1e 4d cd be bb cf d2 be 5f e1 d6 be c0 d0 c2 be
       -0.40097898 -0.4117411 -0.4196882 -0.3804989
000090 71 b8 f2 be d3 7f c7 be cc 57 e3 be 81 57 cb be
       -0.47406343 -0.3896471 -0.4440292 -0.39715198
0000a0 c2 12 d5 be da f7 b6 be e2 e2 ee be 4a 7d ef be
       -0.41615874 -0.3573597 -0.46657473 -0.46775275
0000b0 7f 81 ae be 72 70 db be 17 b9 f2 be 71 e3 bb be
       -0.34083173 -0.42859226 -0.47406837 -0.36696962
0000c0 28 5b cb be a6 ae d3 be 27 5a b5 be 64 16 cc be
       -0.39717984 -0.41344184 -0.35420343 -0.39860833
0000d0 68 15 c1 be 55 05 b8 be 4e 9a ae be bc c5 bd be
       -0.37711644 -0.35941568 -0.341021 -0.37064922
0000e0 18 e3 c1 be d7 d9 b2 be 55 a5 9f be 0b b4 ec be
       -0.3786857 -0.34931824 -0.31180826 -0.46231112
0000f0 2a 82 ac be f9 76 c5 be 28 f7 b9 be 37 11 ba be
       -0.33693057 -0.3856733 -0.36321378 -0.3634126
000100 ad 45 ad be 94 78 c9 be fe bd ba be d3 cb eb be
       -0.3384222 -0.39349806 -0.36473078 -0.46053943
000110 60 54 c4 be 75 26 b1 be d1 75 db be 41 0b c4 be
       -0.38345623 -0.34599653 -0.42863324 -0.38289836
000120 2e 23 f9 be 00 09 c2 be 97 da bb be 71 cb de be
       -0.48659652 -0.3789749 -0.36690208 -0.43514588
000130 7a a6 b9 be d7 61 fc be d5 36 cb be 13 8d f9 be
       -0.36259824 -0.49293396 -0.3969027 -0.48740444
000140 9d 99 a8 be db a0 b5 be 5d 3e d4 be 11 bd da be
       -0.32929698 -0.35474285 -0.4145383 -0.4272237
000150 d1 b2 d9 be 94 d8 d8 be ff a6 df be 1c d6 ed be
       -0.4251924 -0.42352736 -0.43682095 -0.46452415
000160 b5 fc d3 be 46 48 a5 be 2b 66 c1 be c5 80 fd be
       -0.41403738 -0.32281703 -0.3777326 -0.49512306
000170 1b 11 d8 be e1 96 c9 be 71 cb f2 be d8 8a bc be
       -0.4220055 -0.39372924 -0.47420838 -0.3682468
000180 08 8b ec be 0d df c2 be 51 59 db be bf fc f5 be
       -0.46199822 -0.380608 -0.4284158 -0.48044392
000190 b0 b0 e3 be 9e 45 f4 be 6e af e6 be b9 0f b7 be
       -0.4447074 -0.47709364 -0.45055717 -0.35754183
0001a0 5a c0 b6 be 47 c0 f3 be 36 b4 ea be 90 8c c6 be
       -0.35693628 -0.47607633 -0.45840615 -0.38779116
0001b0 c7 80 ed be 7b de ef be ff fe ed be dd 66 fb be
       -0.46387312 -0.46849427 -0.4648361 -0.49101916
0001c0 78 cb e3 be b2 28 c8 be db b3 c2 be c5 78 c1 be
       -0.44491172 -0.39093548 -0.38027844 -0.37787452
0001d0 41 8c c2 be 1e 42 f9 be 7c 96 f2 be 98 85 e6 be
       -0.3799763 -0.48683256 -0.47380435 -0.450238
0001e0 c5 c7 d7 be f8 f0 f8 be 47 b1 df be 9e a0 e9 be
       -0.421446 -0.48621345 -0.4368994 -0.45630354
0001f0 ff 27 cc be 8c 53 e5 be 02 f9 f7 be e0 76 d0 be
       -0.39874265 -0.44790304 -0.48432165 -0.40715694
000200 36 1a e0 be eb 89 cc be 0e 70 bf be 31 d1 e3 be
       -0.43769997 -0.39948973 -0.37390178 -0.44495538
000210 b9 42 e9 be 78 14 f1 be a5 fb e3 be 33 44 c6 be
       -0.45558718 -0.4708593 -0.44527927 -0.38723907
000220 f6 9f b3 be e4 40 cb be e4 02 dd be 38 71 e8 be
       -0.35082978 -0.39697945 -0.43166268 -0.4539888
000230 78 ba ae be 67 1b c4 be 28 f4 f6 be 41 18 b7 be
       -0.3412664 -0.38302156 -0.4823315 -0.35760692
000240 e7 c3 e8 be 18 68 cb be 38 26 f4 be eb 24 0d bf
       -0.45461962 -0.39727855 -0.4768541 -0.5513446
000250 ec 17 0f bf 17 fe eb be 18 3b 19 bf 65 a0 f5 be
       -0.55895877 -0.46092293 -0.59855795 -0.47973934
000260 0f 18 f5 be fb b3 0e bf d3 7a 01 bf 48 f5 07 bf
       -0.47869918 -0.5574338 -0.5057804 -0.53108644
000270 2c 7d 0d bf 3b 2a f8 be ed 69 fa be e5 88 08 bf
       -0.5526912 -0.4846972 -0.4890894 -0.53333884
000280 d3 cb 04 bf 02 dc 08 bf 1d 9f 01 bf 90 4a 10 bf
       -0.5187351 -0.53460705 -0.5063341 -0.56363773
000290 29 0c 06 bf 9a a8 e7 be df 3d 08 bf 3c 2b 00 bf
       -0.52362305 -0.4524582 -0.5321941 -0.5006597
0002a0 04 21 f5 be 1a d4 08 bf 42 21 0e bf ee 36 07 bf
       -0.4787675 -0.5344864 -0.555195 -0.5281819
0002b0 f1 07 03 bf 89 0c e3 be 61 d2 07 bf 7c 36 04 bf
       -0.5118399 -0.443455 -0.5305539 -0.51645637
0002c0 84 28 18 bf b7 7e e2 be b6 71 f0 be 6e 28 e9 be
       -0.5943682 -0.442373 -0.46961755 -0.45538658
0002d0 b8 01 f9 be 49 55 05 bf a4 bd 04 bf e8 7c 0f bf
       -0.48634124 -0.5208326 -0.5185187 -0.56049967
0002e0 4d 91 0d bf 8b 3c 01 bf a9 cd 18 bf 35 48 0a bf
       -0.55299836 -0.50483006 -0.5968881 -0.5401643
0002f0 5d 01 0b bf 7b c1 0d bf 2c ef 00 bf df a5 fd be
       -0.54298955 -0.5537335 -0.5036495 -0.49540612
000300 61 6a f0 be 7b af 13 bf e8 84 0e bf 62 d7 0d bf
       -0.4695616 -0.57689637 -0.5567155 -0.55406773
000310 ef 8d e6 be 77 5f db be 68 75 dc be 36 73 b5 be
       -0.45030162 -0.4284627 -0.43058324 -0.3543946
000320 cf 3c b2 be 2d bd e8 be 2a db d7 be af 03 dd be
       -0.34812018 -0.4545683 -0.42159396 -0.43166873
000330 ad 05 ea be 40 1d e8 be 87 ac f0 be 6e bb cc be
       -0.45707455 -0.45334816 -0.47006628 -0.39986748
000340 af 4d ce be 48 46 c4 be f6 b6 d9 be 87 05 ec be
       -0.40293643 -0.3833487 -0.425224 -0.46097967
000350 c1 70 f3 be 6c 73 f5 be 1b 24 f2 be 67 54 f0 be
       -0.47546962 -0.47939622 -0.4729317 -0.46939394
000360 03 4a bf be 2f 18 ef be f8 b2 b4 be 33 67 ab be
       -0.37361154 -0.46698138 -0.35292792 -0.33477172
000370 41 12 bf be da 73 da be 16 3e c7 be 24 8a ed be
       -0.37318614 -0.42666513 -0.38914555 -0.46394455
000380 9b f4 e3 be c8 f2 d3 be 43 f7 db be a1 5a e9 be
       -0.44522557 -0.41396165 -0.42962083 -0.45576957
000390 01 a3 cd be 54 05 ef be 07 b7 d5 be 11 17 f2 be
       -0.40163425 -0.46683753 -0.417412 -0.47283223
0003a0 70 c6 ed be 6a 7f d1 be 6e 49 bc be d1 e4 bf be
       -0.46440458 -0.40917522 -0.36774772 -0.3747926
0003b0 42 51 cc be 98 ba e8 be de 9f cb be d5 e7 ce be
       -0.39905745 -0.4545486 -0.39770406 -0.4041125
0003c0 c1 38 bd be 36 0f c4 be 23 b7 ba be 23 5b ed be
       -0.36957362 -0.38292855 -0.36467847 -0.46358594
0003d0 24 3d b4 be 87 70 ea be 19 10 cb be 19 c1 b4 be
       -0.35202897 -0.45788977 -0.3966072 -0.35303572
0003e0 9e 1b fb be bf 2a aa be 96 cf d2 be 53 5d 9d be
       -0.49044508 -0.33235738 -0.41174 -0.30735263
0003f0 a3 50 e5 be 01 78 d6 be 49 8a d3 be 56 8d cd be
       -0.44788083 -0.4188843 -0.4131644 -0.40146893

bias f4 [42]
000000 9e c7 3b c1 0c 8a 4a 41 68 16 37 41 55 9a 03 c1
       -11.736235 12.658703 11.44297 -8.225179
000010 c0 29 49 41 99 e8 6b 3f ff 37 33 c1 09 3a f0 c0
       12.572693 0.9215179 -11.201171 -7.5070844
000020 c7 68 0a c1 4f 58 e5 c0 91 e0 7a 41 4c b4 20 c1
       -8.65058 -7.16703 15.679826 -10.044018
000030 43 6b 3d 41 05 b8 32 41 a0 44 33 c1 65 f6 20 c1
       11.838687 11.169927 -11.204254 -10.060155
000040 30 82 38 c1 1a f3 0e c1 1e 8c 28 c1 ee 6a 37 c1
       -11.531784 -8.934351 -10.534208 -11.463606
000050 24 f7 3a c1 ee e7 39 c1 1f b2 3a c1 50 63 34 c1
       -11.685337 -11.619123 -11.668487 -11.274246
000060 87 39 3b c1 63 f7 04 c1 a4 b1 2f c1 ee 51 3b c1
       -11.701545 -8.310397 -10.980869 -11.707502
000070 36 be 2c c1 94 6e 25 c1 74 a9 2e c1 f6 de 1c c1
       -10.796438 -10.339497 -10.91637 -9.804434
000080 eb fe 37 c1 15 2e 21 c1 38 39 38 c1 13 0c 18 c1
       -11.499736 -10.0737505 -11.513969 -9.502948
000090 f7 6a 37 c1 3b cf 3b c1 1f 6b 35 41 a4 91 3b c1
       -11.463614 -11.738093 11.338653 -11.723057
0000a0 89 50 30 c1 ae 52 3b c1
       -11.019662 -11.707685
