trafficRecognitionModel.pt (torch, 38103 bytes, 6 tensors)

weight f4 [4, 1, 3, 3]
00000000: d86d f1be 72c2 9cbe e3c5 db3c 88e6 47bf
00000010: e0bb 80be 64a7 263a b3be c3be 7e2b acbe
00000020: 3aa2 473e 6cbc b4bd a0c1 88be 70dc df3c
00000030: d870 313d 707c 9a3c c967 813e 78f3 25be
00000040: 3e49 1abe 4a7a 513e bb4e a33e 9042 d4bc
00000050: f6c9 debd 781b 51be 3c36 a03d 56d8 7d3e
00000060: 1bc4 69be 409e bcbb 164c 00be 3e6e 19bf
00000070: 0188 11bf 0fa0 93be 794b 34bf 0500 7bbe
00000080: fda5 51bf a82e c3be a4b0 fcbe 699c 30bf
-0.47154117 -0.306171 0.026827758 -0.7808614 -0.25143337 0.00063573406 -0.3823143 -0.33626932
0.19495478 -0.08825001 -0.26710224 0.027326792 0.043320507 0.018858165 0.25274494 -0.16206157
-0.15067002 0.20456806 0.31896004 -0.025910646 -0.10878365 -0.20420635 0.078228444 0.24789557
-0.22828715 -0.0057561696 -0.12529024 -0.5993384 -0.5684815 -0.28833053 -0.7042766 -0.24511726
-0.81893903 -0.38121533 -0.49353516 -0.6898866

bias f4 [4]
00000000: 6462 93bd aecb 7bbe a09d a2be 6fe4 e9bd
-0.07196501 -0.24589416 -0.31760883 -0.114205234

weight f4 [4, 4, 3, 3]
00000000: ace9 23be c06a 343c 6e80 b7bd 2f65 6fbe
00000010: 7f50 a3be 5747 b8be 68bd a5be 521b c4be
00000020: df6b 97be 5cc9 5b3d 80d7 e3ba ca6a fb3d
00000030: 125c ac3d 081d 9d3c 1b6f 003e f39e b1bd
00000040: 68ea 923c b4c7 673d 7efc e93d 5c44 403d
00000050: 4073 553b 75f2 1f3e d5b8 023e e4b1 0cbd
00000060: c2a9 873d aa6d 9d3d a674 49bd 4e8e 993d
00000070: 108a f0bd 5cb1 65bd 2049 e3bb 808b f6bc
00000080: 3873 9dbc 2672 4cbd 5765 023e 3e82 90bd
00000090: be99 b4bd 0d6e 00bf 87c8 7b3e d024 d0be
000000a0: ba69 abbe ba02 1b3d e038 52be d43a 033e
000000b0: 16db 043e 72e9 f03d 23e2 e5bd e6d1 7abd
000000c0: 6f96 003e 267f a53d 61d9 083e 141d 0dbd
000000d0: 005c 263b 1693 71bd e023 973d d3bb d6bd
000000e0: 36bb 82bd 603d aa3b 8620 843d 1832 04be
000000f0: 6876 a83c a296 b13d e1b2 0e3e df3a 9abe
00000100: d2e7 09bf d468 7cbe f6d2 f1be f6b8 66be
00000110: d9a0 dbbe 4f27 65be 923e debe eb6c 9ebe
00000120: 78f4 9f3d 8060 f9bb 8c89 5bbd 82dc c63d
00000130: ac05 463d 7c87 4c3d aa24 ab3d 94b7 393d
00000140: 8071 a7ba 13da 123e 72e3 c93d 48e5 b63c
00000150: d023 913d 8103 0e3e 904f 9f3d 70b2 5d3d
00000160: c954 183e 7cf7 5abd f8d8 ecbd 86c0 01be
00000170: 9078 213c 308e 863d d699 be3d eac1 823d
00000180: d86b 93bc 78c5 a73d 1272 b73d 80aa bbbe
00000190: f38f 84be c603 a3be a478 fcbe a844 d5be
000001a0: 5fdb f2be 230d 9bbd a0fe 0fbf fbca b3be
000001b0: 9c80 843e 1e74 ccbe f518 01bf ed31 523e
000001c0: f869 bdbe b19b c1be f765 16bf 44dd b23e
000001d0: c23b b4be c85b dd3c 821c fb3d 7087 6f3d
000001e0: 6e8b df3d aacf b43d 8b25 0fbe 98bb 953c
000001f0: 55bc 093e 926f f63d 229c c33d e858 debd
00000200: a097 fdbc de94 c6bd a68c 6bbd 2945 243e
00000210: f0a8 07be 2add fc3d 187f 9dbc 505a 91be
00000220: c2c4 ddbe 814b 7ebe a54a d3be 5d9d b5be
00000230: 3a6d e3be 01a6 a8be 530c c1be 77a5 9bbe
-0.16007107 0.011011779 -0.08960043 -0.23378442 -0.3189735 -0.35991928 -0.32371068 -0.38302094
-0.29574487 0.05365883 -0.001738295 0.12276228 0.084159985 0.019178882 0.12542383 -0.08672895
0.01793404 0.056586936 0.11425112 0.046940193 0.0032569915 0.15619834 0.1276582 -0.034349337
0.066241756 0.076869324 -0.04918351 0.074978456 -0.11745083 -0.056077346 -0.0069362074 -0.030095816
-0.01921998 -0.049913548 0.1273397 -0.07056092 -0.088183865 -0.50167924 0.24588214 -0.40653086
-0.334791 0.037844397 -0.20529509 0.1281541 0.129742 0.11763276 -0.11224773 -0.06123533
0.12557386 0.08080892 0.13364173 -0.03445156 0.0025384426 -0.058978163 0.073798895 -0.104850434
-0.06383364 0.0051953048 0.06451516 -0.12909734 0.020564273 0.08671309 0.13935424 -0.3012304
-0.53869355 -0.24649364 -0.47231263 -0.22531494 -0.42896155 -0.22378276 -0.43407112 -0.30942473
0.078103006 -0.0076103806 -0.05359797 0.09710027 0.048345253 0.049933895 0.083566025 0.04534109
-0.0012774915 0.14341001 0.09857835 0.022326127 0.07086909 0.13868524 0.07778847 0.05412525
0.14876093 -0.053458676 -0.11564821 -0.12671098 0.0098554045 0.06570089 0.093066856 0.063846424
-0.01799576 0.08191961 0.08957304 -0.3665352 -0.25891075 -0.31838816 -0.49310791 -0.41653943
-0.47432992 -0.07570865 -0.562479 -0.351158 0.2587937 -0.3993234 -0.50428706 0.20526858
-0.3699491 -0.37814096 -0.58749336 0.34934437 -0.35201842 0.027021304 0.12261297 0.058478773
0.10915266 0.08828671 -0.13979165 0.018277928 0.13450749 0.12032999 0.09551264 -0.10856801
-0.03095609 -0.09696363 -0.05750718 0.16042008 -0.13248038 0.12346871 -0.019225642 -0.28389215
-0.43314177 -0.2483349 -0.41267887 -0.3547162 -0.4441927 -0.3293915 -0.37704715 -0.30399677

bias f4 [4]
00000000: 8ba3 e3be 84b3 00be a8b2 e7be ed01 77be
-0.4446071 -0.1256848 -0.4525349 -0.24121828

weight f4 [42, 196]
00000000: 9041 4d3d a885 0c3d 4e5c 65bd e099 d4bb
00000010: 188b 9bbc 06d7 513d e998 8d3d b0a3 c5bb
00000020: c5e7 17bd 9f65 8d3d dccf 133d a86c 42bd
00000030: f17c 893d 08c0 65bc e050 1d3d ee33 5cbd
00000040: 0097 0dbb 4cc6 203d d09f 13bd 58ff f73c
00000050: 0006 0eb9 d8b0 5a3d 7c04 f2bc c82d 3bbc
00000060: a0ac 4bbb c1e8 68bd 300a 4cbc 884f 5a3c
00000070: 5cf1 3f3d 1008 bc3b 358b 8b3d 4891 03bc
00000080: b2b4 7f3d aba3 913d c0c9 4abb c988 813d
00000090: 9502 5ebd c704 803d 16ba 593d c8b4 803c
000000a0: 8c5e 61bd f8af 88bd 853d 4fbd a86a f43c
000000b0: c017 0e3b 18e6 3d3d 2063 ffbc de64 7d3d
000000c0: c014 c23c d4a7 c63c 7a95 11bd 622e 073d
000000d0: ece2 2cbd 057a 0bbd 27c0 833d 9aa2 08bd
000000e0: b01d ec3b 64ef 12bc e02e 813b e3cd 833d
000000f0: 93db 2ebd 43bc 6bbd 6828 0c3d 25ff 68bd
00000100: b0a5 e9bb d848 8ebd e8ec 4a3c 307b 26bc
00000110: 4361 54bd bef2 583d 86aa 133d 38be d5bc
00000120: 22ef 603d 7cbc e5bc 9570 6bbd 3240 93bc
00000130: 80f7 543d 242c a83c 8009 4d3d f476 ef3c
00000140: d52f 26bd cab9 033d f03d 46bd d417 63bc
00000150: ca55 b5bc 8e4a 97bc 0a04 333d 5851 95bc
00000160: a08e 92bb ce53 123d 4872 0a3c 387e 6abd
00000170: ba43 3bbd d468 b23c 5ba9 8dbd 48bd 6abd
00000180: 80d2 4f3d d86b f83c 9054 bbbb 6e50 17bd
00000190: 901a cebb 40d1 e4ba 7083 59bc a281 703d
000001a0: 5070 91bb 48a0 76bd 0e02 6b3d aeb8 8bbc
000001b0: fc54 f53c 00d4 463d 3087 043c 901b ed3b
000001c0: 4635 a1bc 6591 07bd 40a8 58bd 7c23 b83c
000001d0: 60ca 52bb 6003 1b3b 1e98 473d 90a0 5c3c
000001e0: 9c80 65bd a607 6e3d 827c 87bd 0082 10bb
000001f0: 4608 6a3d 4246 703d 1705 8e3d 0027 e0bc
00000200: 9c5a fabc 2854 a03c 0875 333c 80da ac3a
00000210: 4778 893d 5039 583d 208b f1bc 3db6 8f3d
00000220: 008c d63a 2ff0 853d 2e0c 783d 32d8 b4bc
00000230: 65a9 47bd 6348 44bd 30ad cd3b 0615 6a3d
00000240: 40a5 ddba 1476 5cbc 4003 ffbc 5e52 8ebd
00000250: b4af 91bd 4c99 1abd 752b 4dbd 4d6e 80bd
00000260: d4b9 a13c 4681 493d 18b5 53bd 20ce 8abd
00000270: 6e2c e6bc b897 f43c 7c7d 813c b338 87bd
00000280: eae0 1c3d 7346 78bd c0bc 42bc c09b 9b3a
00000290: d21f 463d 70b0 b5bb ee17 d4bc b5c5 0bbd
000002a0: 0160 8f3d b7b1 8c3d da77 543d 071c 17bd
000002b0: 7c3d 1dbd eea6 4b3d 82e1 213d 9cae 81bd
000002c0: 5c9e 19bd a085 8ebc 00b6 3abb 1b05 81bd
000002d0: 8055 9e3a c6b9 aebc 30e1 db3b fc3d a83c
000002e0: 1717 10bd 4efb 80bc 887c 79bc d280 6e3d
000002f0: 006e 0939 3a78 63bd 54f9 43bc 7ef4 313d
00000300: 0014 f63c 5cc1 d0bc 3fa4 8a3d 8003 2cbc
00000310: f0ad 2cbd 06b3 a7bc 0c13 463d 9c57 17bd
00000320: 3c46 82bd 0efe 63bd 6ec1 81bd cef4 d3bc
00000330: a359 13bd 3543 0cbd 0016 a7b9 c82d 243c
00000340: 1341 4bbd 808d 00ba 987f 183d 8025 363d
00000350: 0016 143c 3056 8b3c 546e ed3c 204c d9bc
00000360: da47 573d d397 2fbd b0c5 2abd 7434 d53c
00000370: 467d a6bc 1d60 8fbd d6a0 193d 2cd1 79bd
00000380: 9207 90bd 709a bd3c cae7 2dbd b08c c73b
00000390: 0ab0 88bd 523a d0bc ae21 123d c00d 65bb
000003a0: 5095 94bb 28d2 033d 3225 93bc f86a 5c3c
000003b0: f3f3 3dbd 808b 543a 85f9 73bd 78e6 f03c
000003c0: b544 4fbd 0f70 823d 60c0 c5bc 25d9 8e3d
000003d0: 80b1 d0ba 6468 cbbe 79d7 bbbe cffd e3be
000003e0: 47ff b7be 3e40 f9be ad43 dfbe 9ef7 c3be
000003f0: 2d41 c5be ec2e eebe fcb0 ecbe 8f16 f0be
0.050111353 0.034307152 -0.05599623 -0.00648807 -0.018987224 0.051230453 0.06913931 -0.006031476
-0.037086267 0.06904148 0.036086902 -0.047466904 0.06713284 -0.014022835 0.038407207 -0.05376046
-0.0021604896 0.03925161 -0.03604108 0.030273125 -0.0001354441 0.053391308 -0.029543154 -0.011424489
-0.0031078234 -0.056862596 -0.012453601 0.013324626 0.046861038 0.005738266 0.06813661 -0.008030243
0.062428184 0.07111295 -0.0030943006 0.06324918 -0.05420168 0.06250911 0.05315598 0.015711203
-0.055021808 -0.066741884 -0.05059578 0.029836014 0.0021681637 0.046362013 -0.031175196 0.061863773
0.023691535 0.024249949 -0.035542943 0.03300322 -0.042208597 -0.034051914 0.064331345 -0.033358194
0.0072056875 -0.008968208 0.0039423555 0.06435754 -0.04268987 -0.057552587 0.034218222 -0.05688395
-0.007130347 -0.069474876 0.012385584 -0.010161206 -0.05185057 0.052965872 0.036051296 -0.02609168
0.054915555 -0.028043978 -0.057480413 -0.017974947 0.051993847 0.02052886 0.050057888 0.029231526
-0.04057296 0.032159604 -0.048398912 -0.013860662 -0.022135634 -0.018468168 0.043705024 -0.018227264
-0.0044725686 0.035724454 0.008450098 -0.057249278 -0.045718886 0.021778502 -0.069170676 -0.05730942
0.050737858 0.030324861 -0.0057168677 -0.036941938 -0.0062897876 -0.0017457381 -0.013275966 0.058717377
-0.0044384375 -0.06021145 0.057375006 -0.017055836 0.02994775 0.048542023 0.008088872 0.0072359517
-0.019678723 -0.033097643 -0.05289483 0.022477858 -0.0032164082 0.0023653135 0.048729055 0.013466015
-0.056030855 0.058112763 -0.06615545 -0.0022050142 0.057136796 0.058660753 0.069345646 -0.027362347
-0.030560784 0.019571379 0.010953195 0.0013187677 0.06712394 0.052789032 -0.029485285 0.07017181
0.0016368628 0.06539952 0.06055849 -0.022075746 -0.04874553 -0.047920596 0.006276749 0.057148956
-0.001691021 -0.013455886 -0.03112948 -0.06949304 -0.07113591 -0.03774385 -0.050090272 -0.06271038
0.01974193 0.04919555 -0.051686376 -0.067775965 -0.028097358 0.029857501 0.015806906 -0.066026114
0.038300432 -0.06061406 -0.011885822 0.0011871979 0.04837019 -0.0055447146 -0.025890317 -0.034124095
0.07000733 0.06869834 0.05187211 -0.036891963 -0.038388714 0.049719743 0.0395217 -0.06332132
-0.03750454 -0.017397702 -0.0028489828 -0.06299802 0.0012079924 -0.021328818 0.006710194 0.020537369
-0.03517827 -0.015744831 -0.0152274445 0.05822832 0.00013106316 -0.05553458 -0.0119613 0.043446057
0.030038834 -0.025482826 0.06769609 -0.010498881 -0.042158067 -0.020471107 0.04835801 -0.036948785
-0.063610524 -0.055662207 -0.06335722 -0.025873568 -0.035974156 -0.03424378 -0.00031869113 0.010020681
-0.049622606 -0.00049038976 0.037231058 0.044469357 0.009038448 0.01700887 0.028983273 -0.026525557
0.052558757 -0.0428694 -0.041692436 0.026025988 -0.020323407 -0.07000754 0.0375069 -0.060990497
-0.07032694 0.02314493 -0.04245738 0.0060897693 -0.06674202 -0.025418434 0.03567665 -0.0034950823
-0.004534401 0.032182842 -0.017962072 0.013453238 -0.046375226 0.00081079453 -0.059564132 0.029406771
-0.050602634 0.0636903 -0.024139583 0.06975011 -0.001592204 -0.3972808 -0.3668783 -0.44529578
-0.3593695 -0.48681825 -0.4360632 -0.38274854 -0.38526288 -0.46520174 -0.46228778 -0.4689221

bias f4 [42]
00000000: c7f3 84bd 98ff d8be ee93 c1be 51b1 67bd
00000010: e7f8 b5be cf23 cbbe a9e4 d3be 9251 bbbe
00000020: 3a77 acbe 2d01 b9be c3d8 d8be 783d 8ebc
00000030: 1335 bfbe 63a9 21bd 1ccb a0bc d21e c3be
00000040: d0c1 49bd 3365 a9be 7073 bebe 5f25 bbbe
00000050: fe52 c2be 13f1 c2be 781f 49bd 485d 36bc
00000060: c5fc 73bd 3ec9 40bd b20d d7be e5ec d9be
00000070: 8f7e b5be faa4 21bd 5aeb afbe e1c8 d7be
00000080: c292 bcbe 9ddc c1be 5427 c3be 7faa 81bd
00000090: fb73 8ebd 688f d2be 6ced e4be eec4 f9be
000000a0: 098b cfbe 404a e1be
-0.06491809 -0.42382503 -0.37808174 -0.056565586 -0.3554146 -0.39675757 -0.4138539 -0.3658567
-0.33684713 -0.3613371 -0.42352876 -0.017363295 -0.3734518 -0.03946818 -0.0196281 -0.38109452
-0.0492571 -0.3308502 -0.37197447 -0.3655195 -0.37953943 -0.3807455 -0.049102277 -0.011130638
-0.05956723 -0.04706692 -0.42002636 -0.4256355 -0.3544812 -0.039463975 -0.34359246 -0.42145446
-0.36830717 -0.37863627 -0.38115942 -0.06331348 -0.06955715 -0.41125035 -0.4471239 -0.48783058
-0.40535763 -0.4400196
