trafficRecognitionModel.pt (torch, 38735 bytes, 8 tensors)

weight f4 [4, 1, 3, 3]
0	0xbd419f5a	-0.04727111
1	0x3da61289	0.08109004
2	0x3cfd691c	0.03093391
3	0xbf52a300	-0.8227997
4	0x3e455bfa	0.19273368
5	0xbe38686c	-0.18008584
6	0x3ee48ee0	0.44640255
7	0xbe9cb273	-0.30604896
8	0x3e406f85	0.18792541
9	0x3e2597f8	0.16171253
10	0xbd94001e	-0.07226585
11	0xbd9a9117	-0.07547205
12	0xbe065f9f	-0.13122414
13	0xbf6ed0c3	-0.93287295
14	0x3f23bc84	0.63959527
15	0xbf7ed64c	-0.9954574
16	0x3f0dc37c	0.5537641
17	0xbd93c628	-0.0721553
18	0x3f253745	0.6453746
19	0xbfcad77f	-1.5847014
20	0x3ec466f2	0.3835979
21	0xbebd66a5	-0.36992374
22	0x3b6a9b22	0.0035798033
23	0x3e0e5aab	0.13901775
24	0x3f33a3d8	0.7017188
25	0xbeaff3b8	-0.3436563
26	0x3e8be25c	0.27321136
27	0xbe470408	-0.19435132
28	0x3dbe62ad	0.09296165
29	0xbda19a8d	-0.07890806
30	0x3d82e470	0.06391227
31	0xbe89b54a	-0.26896125
32	0x3d621ae8	0.05520144
33	0x3e97602e	0.29565567
34	0x3e9e7fd9	0.30956915
35	0xbd79f98b	-0.061029

bias f4 [4]
0	0x3d224509	0.03961662
1	0x3e7abce1	0.24486114
2	0x3da76a88	0.08174616
3	0x3daf5bdd	0.085624434

weight f4 [4, 4, 3, 3]
0	0xbe1beb07	-0.15226375
1	0xbdcb5895	-0.09929005
2	0x3eef0bd5	0.46688715
3	0xbf72f492	-0.94904435
4	0x3f9215f9	1.1412956
5	0x3f2abe28	0.66696405
6	0x3fa3d042	1.279793
7	0xbf667a4e	-0.9003037
8	0xbf556c90	-0.8336878
9	0xbf84835d	-1.0352589
10	0x3ff00cbd	1.8753887
11	0x3f740835	0.9532502
12	0x3fba5690	1.4557667
13	0xbf1091ea	-0.5647265
14	0xbf93ba0b	-1.1541151
15	0x3f85eff2	1.046385
16	0xbfa4da33	-1.2879089
17	0xbeeddb85	-0.46456543
18	0x3cc1ac10	0.023641616
19	0x3e14d507	0.14534388
20	0x3d86bbc0	0.06578779
21	0xbed2d644	-0.41179097
22	0x3f7c4910	0.98548985
23	0xbe9f56c9	-0.311209
24	0x3dbde81e	0.092727885
25	0xc00673b5	-2.1008122
26	0x3f405c35	0.75140697
27	0x3f0908b1	0.5352889
28	0xbefa6304	-0.48903668
29	0x3f1118c1	0.56678396
30	0xbe2754d3	-0.16340952
31	0xbf10faeb	-0.5663287
32	0xbf0eb5a0	-0.5574589
33	0xbf2e99f5	-0.6820367
34	0x3f057778	0.5213542
35	0x3f80d49d	1.0064884
36	0x3dbcf68e	0.09226714
37	0xbf564fdd	-0.8371561
38	0x3ee659ad	0.44990292
39	0x3f53e068	0.8276429
40	0x3d3e2e21	0.04643071
41	0x3f4171c7	0.75564235
42	0xbf153e32	-0.5829803
43	0x3db88d32	0.09011306
44	0xbd8dcf47	-0.06924301
45	0x3eb8ddc4	0.36106694
46	0xbe83846c	-0.25686967
47	0x3ec66085	0.38745514
48	0xbf4ac9c6	-0.7921413
49	0x4022ba83	2.5426338
50	0x3f3a5ba7	0.727961
51	0xbf8aff3e	-1.0859144
52	0xbfda60c5	-1.7060782
53	0x3ed69e71	0.41917756
54	0x3f02f485	0.5115436
55	0xbd3c4bbf	-0.045970675
56	0xbe678857	-0.22610603
57	0xbf029ba9	-0.5101877
58	0x3eb1978f	0.34685943
59	0x3f29b9c5	0.66299087
60	0xbf490259	-0.7851921
61	0x3cd7838e	0.026307847
62	0x3f0bf8cc	0.5467651
63	0xbd76d2ca	-0.060259618
64	0xbeb60fed	-0.35559025
65	0x3e71843f	0.23585604
66	0xbe7cd255	-0.2468961
67	0xbe1402f3	-0.1445425
68	0x3e502906	0.20328149
69	0x3ecac3f1	0.39602616
70	0xbf49b678	-0.7879405
71	0x3edcf8c1	0.43158534
72	0xbd8f626e	-0.07001196
73	0x3e707d35	0.23485263
74	0xbc0a6486	-0.008446818
75	0xbefa4683	-0.4888192
76	0xbf2ed078	-0.6828685
77	0xbe6b1b82	-0.22959712
78	0x3e62a493	0.22133093
79	0x3f64da14	0.8939526
80	0x3e3c7988	0.18405735
81	0x3f3c8d56	0.7365316
82	0xbfc3a452	-1.5284522
83	0xbf3ce632	-0.7378875
84	0xbf83f434	-1.03089
85	0xbda405c9	-0.08008916
86	0x3fe39656	1.7780254
87	0x3f80a86b	1.0051397
88	0x3fd737ac	1.6813865
89	0xbf4dfe9b	-0.8046662
90	0xbc671b0c	-0.01410557
91	0xbe99587e	-0.29950327
92	0xbfbc1d48	-1.4696436
93	0xbef1c1b6	-0.47218102
94	0xbf221f53	-0.63329047
95	0x3f6d3105	0.9265292
96	0x3f55ca34	0.8351166
97	0x3e52baa3	0.20579009
98	0xbf041676	-0.5159677
99	0xbf2ccf9b	-0.6750428
100	0xbebbd18c	-0.3668331
101	0x3f0e609f	0.5561618
102	0x3f7a15dc	0.97689605
103	0x3fd0e079	1.6318504
104	0xbf190a06	-0.5978092
105	0xbc97f80a	-0.018550891
106	0xbf937bb6	-1.1522129
107	0x3e68edee	0.22747013
108	0xbe1c3d48	-0.15257752
109	0x3e3bc737	0.18337713
110	0xbf3759e1	-0.7162152
111	0x3f31824f	0.6933946
112	0xbf5ba647	-0.85800594
113	0xbd518308	-0.05115035
114	0xbf52e927	-0.8238701
115	0x3ebf6852	0.37384278
116	0x3f075036	0.5285677
117	0x3e89e99c	0.26936042
118	0xbfcc24ee	-1.594877
119	0x3f5064ff	0.8140411
120	0x3e9f4af7	0.3111188
121	0x401f0821	2.4848711
122	0xbf93cffe	-1.1547849
123	0x3efe5692	0.49675423
124	0xbf65eb62	-0.8981229
125	0x3c968111	0.01837209
126	0x3ea29e5e	0.3176145
127	0x3cb3afe4	0.021934457
128	0x3f41d751	0.7571917
129	0xbfa7fb1e	-1.312351
130	0x3f979628	1.1842699
131	0xbf94dafb	-1.1629328
132	0x3f2fbb09	0.6864477
133	0xbf7d5e93	-0.98972434
134	0x3f1c7b4b	0.6112563
135	0x3e85ba86	0.2611887
136	0xbdfdcdfb	-0.12392803
137	0xbf0fb53c	-0.56135917
138	0xbded1f6f	-0.11578261
139	0xbde617be	-0.11234997
140	0xbca4e875	-0.020130375
141	0xbdf93f79	-0.121703096
142	0x3f4bdacb	0.79630727
143	0x3f128bde	0.5724467

bias f4 [4]
0	0xbea02054	-0.31274664
1	0xbec0bb4e	-0.37642902
2	0xbef74baa	-0.48299915
3	0xbb8915b0	-0.0041834936

weight f4 [4, 4, 3, 3]
0	0xbebf13ae	-0.37319702
1	0xbe681859	-0.22665538
2	0x3f361277	0.71121925
3	0x3eda7dfa	0.42674237
4	0xbe996de8	-0.29966664
5	0xbf51d948	-0.8197217
6	0xbf838b6b	-1.0276922
7	0x3fc09373	1.5044998
8	0x3ee32e06	0.4437105
9	0x3f276cd7	0.6540045
10	0xbf498ab1	-0.7872725
11	0x3f342f3a	0.7038456
12	0xbfa21048	-1.2661219
13	0xbdb3795d	-0.087633826
14	0x3f68a810	0.90881443
15	0x3fbbb9a8	1.4666033
16	0xbe4dfad1	-0.2011521
17	0xbeedade6	-0.46421736
18	0xbf69c6b5	-0.9131883
19	0x3eab09d7	0.33405945
20	0x3fb9720b	1.4487928
21	0x3f4bd734	0.7962525
22	0x3e7905f5	0.24318679
23	0xbfe6eaf0	-1.8040447
24	0xbd230a5f	-0.039804813
25	0x3f565f0a	0.8373877
26	0xbf863789	-1.0485698
27	0x3e031d24	0.12804085
28	0xbf68ca89	-0.90934044
29	0x3ce33582	0.027735475
30	0x3f290cbc	0.66035056
31	0xbe8fbf84	-0.28075802
32	0xbf111bb4	-0.56682897
33	0xbfb0c093	-1.3808769
34	0x3f97bd55	1.1854655
35	0x3e959987	0.29218695
36	0x3ebf21f5	0.37330595
37	0xbe139baa	-0.1441485
38	0x3f712726	0.9420036
39	0x3f3771cb	0.7165801
40	0x3e4ef926	0.2021223
41	0xc005a35f	-2.0880964
42	0x3f27a9b1	0.65493304
43	0xbf73ad99	-0.95186764
44	0x3fa16fa8	1.26122
45	0x3ec9554d	0.39322892
46	0xbfa5935d	-1.2935597
47	0x3fae8e67	1.3637208
48	0x3f05bb72	0.52239144
49	0x3ed017e9	0.40643242
50	0xbf9274a4	-1.1441846
51	0x3d0a4785	0.033759613
52	0xbf08bc8f	-0.5341272
53	0x3f48fc3f	0.78509897
54	0x3e5d9962	0.21640542
55	0xbf592f0f	-0.8483743
56	0x3fae6af1	1.3626386
57	0xbe860df1	-0.2618251
58	0xbe84dd30	-0.25950003
59	0x3f2bfd80	0.67183685
60	0x3f078cfe	0.5294951
61	0x3f04391c	0.5164964
62	0xbf9115a7	-1.1334733
63	0x3f69df42	0.9135629
64	0xbf913109	-1.1343089
65	0xbef6510c	-0.4810871
66	0xbf8e3d75	-1.1112505
67	0x3f8de6c6	1.1086051
68	0x3efbd652	0.4918695
69	0x3ec986c1	0.39360622
70	0xbe071279	-0.1319064
71	0xbf8bc6de	-1.0920064
72	0x3f810f59	1.0082809
73	0xbe2a2c57	-0.16618477
74	0xbf923135	-1.1421267
75	0x3ecae80e	0.3963017
76	0xbe87f3b9	-0.26553133
77	0xbf93b246	-1.153878
78	0xbf97a0bb	-1.1845926
79	0x3f82ee98	1.0229063
80	0x3fde56cf	1.7370242
81	0x3e05af36	0.13055119
82	0x3f7fb766	0.9988922
83	0xbef7f5b1	-0.48429635
84	0x3f2140b3	0.6298935
85	0x3f8a82d6	1.0821178
86	0xbf908041	-1.128914
87	0xbfb95f8f	-1.4482287
88	0xbf9f5c73	-1.2450088
89	0x3fb91381	1.4459077
90	0xbe27a779	-0.1637248
91	0xbeab623c	-0.33473384
92	0xbf2ba735	-0.6705201
93	0x3ff1a601	1.8878785
94	0xbe12f400	-0.14350891
95	0x3decbabb	0.115590535
96	0xbff1f96a	-1.890424
97	0x3f631db7	0.88717216
98	0x3d40ad3c	0.04704021
99	0xbf027c0e	-0.5097054
100	0x3dc40f46	0.09573226
101	0xbf185a87	-0.59513134
102	0x3fa2c75f	1.2717093
103	0xbdab8fd5	-0.08377043
104	0x3f554b99	0.8331848
105	0xbf68e386	-0.90972173
106	0xbd308043	-0.04309107
107	0x3ea7f7d6	0.3280627
108	0xbe1927c7	-0.1495658
109	0x3ee12fbb	0.43981728
110	0xbee62c4f	-0.4495568
111	0xbfc2204b	-1.5166105
112	0x3fd15ece	1.6357057
113	0x3edabd21	0.4272242
114	0x3f3acf9c	0.72973037
115	0xbe775141	-0.2415209
116	0xbf97d5da	-1.1862137
117	0xbf4c5cea	-0.79829276
118	0x3f5600d0	0.8359499
119	0xbf1445c4	-0.57918954
120	0x4028132a	2.6261697
121	0xc0350f40	-2.8290558
122	0x3f960b13	1.172213
123	0xbf813e3b	-1.0097116
124	0x3fbe4f3a	1.4867928
125	0x3ed5b28d	0.41737786
126	0xbfad5335	-1.3541018
127	0x3da99d27	0.082819276
128	0x3f9c068b	1.2189497
129	0x3ea71832	0.32635647
130	0xbf1d75c6	-0.61507833
131	0xbe2fd06c	-0.1716935
132	0x3eeedda9	0.46653488
133	0xbe3eddc7	-0.18639289
134	0xbfca0f3d	-1.57859
135	0xbefca854	-0.49347174
136	0xbe206185	-0.15662201
137	0x3eea7f30	0.4580016
138	0x3ec7f872	0.39056736
139	0x3e8ca803	0.27471933
140	0xbe63bc17	-0.2223972
141	0x3e126f5a	0.1430029
142	0x3ec8989c	0.39178932
143	0x3dd73bdf	0.105094664

bias f4 [4]
0	0xbed17d60	-0.40915966
1	0x3e8cd086	0.2750284
2	0xbe0fddee	-0.14049503
3	0x3e549573	0.20760135

weight f4 [42, 196]
0	0x3f992226	1.1963546
1	0xc06b3d08	-3.6756
2	0x40c7cab7	6.2434955
3	0x40eda072	7.4258356
4	0x40ba5d02	5.8238535
5	0x40a68636	5.203883
6	0x41103f0f	9.015395
7	0x3f05a20e	0.522004
8	0xc12e5b35	-10.897267
9	0x4170c542	15.048159
10	0x40e3a745	7.1141686
11	0x4174c95c	15.29916
12	0xc13182f8	-11.094475
13	0x40c630ee	6.193473
14	0x41293864	10.576267
15	0x419c69cf	19.551664
16	0x3eb79268	0.35853887
17	0xc09a3f57	-4.820232
18	0x40cd21dc	6.410383
19	0x4075bba8	3.8395786
20	0xbfed58c8	-1.8542719
21	0xc1128b79	-9.159051
22	0xc1c93ab0	-25.153656
23	0xc0d3fb31	-6.624413
24	0x415032fd	13.012448
25	0x40ee0967	7.4386477
26	0x3e88994d	0.2667946
27	0xc110cf54	-9.050617
28	0x41515933	13.084277
29	0x40569c1f	3.3532789
30	0x41cdb1b6	25.711773
31	0xbfbf184b	-1.4929289
32	0xc1048dce	-8.28462
33	0x40e6b9ed	7.210196
34	0xc155027f	-13.313109
35	0x412eaa7e	10.916624
36	0x417892c3	15.5358305
37	0x3fbbdd38	1.4676886
38	0xc11d62da	-9.836634
39	0x4002a5c7	2.0413682
40	0x40ceac87	6.4585605
41	0x41211a6a	10.068949
42	0xc1a339a3	-20.403143
43	0x3f17ed8a	0.5934683
44	0x411d248a	9.821421
45	0x40f8e48d	7.7778993
46	0x4150a160	13.039398
47	0x3f2a34c7	0.6648678
48	0x413b2e76	11.698843
49	0xc15e10e0	-13.87912
50	0x40fcaefb	7.89636
51	0x40aec1fb	5.4611793
52	0x40806409	4.0122113
53	0x40e7148b	7.2212577
54	0xc054906f	-3.3213155
55	0xc0b1ec03	-5.56006
56	0x411a5d07	9.647712
57	0xc0c0e205	-6.0275903
58	0xc05ef853	-3.4839065
59	0xc0e26c5c	-7.0757275
60	0x40f9b51d	7.8033586
61	0xbfd0d3b0	-1.6314602
62	0xc09d8ee3	-4.923692
63	0x400bec52	2.1862988
64	0xbff1f255	-1.8902079
65	0x411026ca	9.00947
66	0xbfd6d47c	-1.6783595
67	0x41998722	19.190983
68	0xc119e42b	-9.618205
69	0xc141b26f	-12.106063
70	0x3fbe97f0	1.4890118
71	0xc1526abe	-13.15106
72	0xc15e9f8d	-13.913953
73	0x3fb9aa3d	1.4505078
74	0xc182ed52	-16.36588
75	0xc08b873f	-4.3602595
76	0x3f01ddc5	0.5072902
77	0x4097b57f	4.7409053
78	0x41667c92	14.405413
79	0xbef31394	-0.47475874
80	0xc1456d02	-12.339113
81	0x3fcd6769	1.6047183
82	0x3f265ba0	0.6498356
83	0xc0d3ccc7	-6.618747
84	0xc1456324	-12.336704
85	0x4158f04e	13.558668
86	0xc134fa4c	-11.311108
87	0x418fb6a6	17.964184
88	0xbd7ac95a	-0.06122718
89	0xc00d35ec	-2.2064161
90	0xc0cf94c9	-6.4869123
91	0x41580d79	13.503289
92	0x3f7227f3	0.9459221
93	0xbe789aaf	-0.24277757
94	0x3fab54c1	1.338524
95	0xc15961df	-13.586394
96	0x405b542c	3.4270124
97	0x40742f18	3.8153744
98	0xc09d4f21	-4.9159093
99	0xbf1b5af7	-0.60685676
100	0x3f1cf18c	0.6130607
101	0x40b6ced1	5.712746
102	0xc08fa363	-4.4886947
103	0x3fd9133c	1.6958995
104	0x411b5d19	9.710229
105	0x40187ec8	2.382738
106	0xc01306f8	-2.2973003
107	0x40b343c6	5.602023
108	0x4083e170	4.121269
109	0x40b844ed	5.758414
110	0xc080c67d	-4.0242295
111	0x408d531f	4.4163966
112	0x40dbb04e	6.8652716
113	0xbdc9c5f6	-0.09852211
114	0x41390e6f	11.566024
115	0xc1222117	-10.133079
116	0xc0f8b0b2	-7.7715693
117	0x41756abb	15.338557
118	0xc11e0c8d	-9.878064
119	0xc03255d4	-2.7864885
120	0xc11f1b74	-9.944202
121	0xc1460ab3	-12.377612
122	0xc0efd27c	-7.494444
123	0xbeb3c7e1	-0.35113433
124	0x40f1c220	7.554947
125	0xc02309f4	-2.5474825
126	0xc071dd3a	-3.7791276
127	0x3fa6c158	1.3027754
128	0xc0f9fe3a	-7.8122835
129	0x40d9901e	6.7988424
130	0xc0b6bcd7	-5.7105517
131	0xbe96cfc9	-0.29455402
132	0xbf0b8010	-0.5449228
133	0xc0962339	-4.6917996
134	0xc16fce0a	-14.9878025
135	0xc0a2c191	-5.0861287
136	0xc0f30201	-7.5939946
137	0x40cd255c	6.4108105
138	0x40defacc	6.968115
139	0x4088d077	4.2754474
140	0x3f22349d	0.6336153
141	0xc02fdc04	-2.7478037
142	0xc052fcc5	-3.2966778
143	0x40b05935	5.5108895
144	0xc0c3234a	-6.0980577
145	0x41123b5d	9.139493
146	0x40853653	4.1628814
147	0x4010e41f	2.2639234
148	0x411afd03	9.68677
149	0xc0ace59d	-5.403029
150	0xc011df6b	-2.2792614
151	0x414239fd	12.139157
152	0xc074107f	-3.8135068
153	0xbf9d21ca	-1.2275937
154	0xbf5203c0	-0.8203697
155	0xbfb5c85c	-1.420177
156	0xc0876249	-4.2307477
157	0xbf150162	-0.58205235
158	0xc0fc830e	-7.890998
159	0x411c2728	9.75956
160	0x4083eb74	4.122492
161	0xc0a37d5e	-5.1090536
162	0xc022e49e	-2.5452037
163	0xc1a8fbbe	-21.122921
164	0x41891ed7	17.140059
165	0xc0092ecd	-2.1434815
166	0x40b0c8e4	5.524523
167	0x3fb15eb0	1.3857021
168	0x40683327	3.628122
169	0x40015e60	2.0213852
170	0xbe10d68c	-0.14144343
171	0xc00e2f02	-2.2216191
172	0x40716861	3.7719958
173	0xc169dff2	-14.617174
174	0xc1411171	-12.066758
175	0x412796cb	10.474315
176	0x3e7a72cf	0.24457859
177	0xc0004799	-2.00437
178	0x410eccb8	8.92498
179	0xc1cb7f83	-25.437262
180	0x414a36bf	12.638366
181	0x414becd9	12.745324
182	0x408b5495	4.354075
183	0xbdd0af9d	-0.101897456
184	0x4056a28c	3.353671
185	0xc1a423e9	-20.517534
186	0xc09a6d3b	-4.825834
187	0xc0b607e7	-5.6884646
188	0x40780e85	3.8758862
189	0xbd64e1c9	-0.055879388
190	0x3f9ce7fa	1.2258294
191	0x40019677	2.0248086
192	0xbf187283	-0.5954973
193	0xc0a99130	-5.298973
194	0xc1589d2f	-13.538375
195	0xc156c6eb	-13.423564
196	0x40a2b62e	5.0847387
197	0xc09a13f4	-4.8149357
198	0xc005419e	-2.08213
199	0xc05278c6	-3.2886214
200	0x40a0755d	5.0143266
201	0xc0b5a7c2	-5.6767282
202	0x3eea0465	0.45706478
203	0x3e40b5fe	0.18819425
204	0xc1416037	-12.08599
205	0xc091363a	-4.5378695
206	0xbb3a2618	-0.0028404053
207	0x41144294	9.266254
208	0xbffab44f	-1.9586276
209	0xbf3601ec	-0.7109668
210	0x413902da	11.563196
211	0x418d8bcf	17.693266
212	0xbf0a2592	-0.5396358
213	0xc17e0a83	-15.877566
214	0x411342f5	9.203847
215	0xc08b1b33	-4.34707
216	0x40df8d6d	6.986014
217	0x3f84453d	1.033363
218	0x4082b6fb	4.0848365
219	0x4008b19f	2.1358411
220	0x41a32391	20.392366
221	0xc1d560bc	-26.672234
222	0x40adcb2b	5.431051
223	0x40a852f5	5.2601266
224	0xc0c82b48	-6.2552834
225	0xc16c8c6e	-14.784285
226	0xc081387a	-4.038144
227	0x416adad8	14.678429
228	0xc0e9af42	-7.302644
229	0x40b964ca	5.7935534
230	0x4112f021	9.183625
231	0x40136c92	2.3035016
232	0x40986533	4.7623534
233	0x40847368	4.1390877
234	0xc1c21513	-24.26029
235	0x410b8cb9	8.721856
236	0x405239e7	3.284784
237	0x4175d0ad	15.363446
238	0xc16cf1c4	-14.809025
239	0x40bdadf0	5.9274826
240	0x3ef130d4	0.47107565
241	0x410aefc9	8.683541
242	0xc0e359a2	-7.1046915
243	0xc1075920	-8.459259
244	0x3e022516	0.1270946
245	0x3f1c6602	0.6109315
246	0xbfac3c4e	-1.3455904
247	0x3faf9edf	1.3720359
248	0x3f10536c	0.5637729
249	0xbfbf4d11	-1.4945394
250	0x3e1ebf3e	0.1550264
251	0x40e2a2c7	7.0823703
252	0xc007d563	-2.122399
253	0x40fcb288	7.8967934
254	0xc0452e3d	-3.0809472
255	0xc03f8e05	-2.9930432

bias f4 [42]
0	0xc2c1ec37	-96.96136
1	0x41f20b10	30.255402
2	0x4230a8af	44.16473
3	0x4263afb9	56.921604
4	0x421d73bc	39.36302
5	0x42895671	68.66883
6	0x41ef1ed0	29.890045
7	0x4283524f	65.66076
8	0x42923e43	73.121605
9	0xc19859ba	-19.043812
10	0x421ea6dc	39.66295
11	0x41c5e602	24.737309
12	0x4265cb7c	57.448715
13	0x4247ec77	49.980923
14	0xc1711f82	-15.070192
15	0xc12667ca	-10.400339
16	0xc2a59a38	-82.80121
17	0x41947d3e	18.561153
18	0x41a64332	20.78281
19	0xc2777e3c	-61.873276
20	0x411a78f9	9.654534
21	0xc202089c	-32.508408
22	0xc2ce2b8a	-103.08504
23	0xc124e7c6	-10.306585
24	0xc1cacfd3	-25.351477
25	0x40c99900	6.2999268
26	0x3ec9d28d	0.3941845
27	0xc20a9128	-34.641754
28	0xc1c6edd9	-24.866137
29	0xc200d6fa	-32.209938
30	0x3fbffe4c	1.499948
31	0x41bd61f8	23.672836
32	0xc202b3e6	-32.675682
33	0xc1dec252	-27.844883
34	0xc22d9e26	-43.40444
35	0xc1f3a850	-30.457184
36	0xc22bd192	-42.95466
37	0xc2678690	-57.88141
38	0x42471960	49.77478
39	0xc2abda9b	-85.92696
40	0x41c1f165	24.242868
41	0xc219a19e	-38.40783
