trafficRecognitionModel.pt (torch, 102799 bytes, 8 tensors)

weight f4 [4, 3, 3, 3]
0	0xbde509dc	-0.11183521
1	0xbe5a07c9	-0.21292032
2	0x3dacb89e	0.084336504
3	0x3d325a2a	0.04354302
4	0xbe470dea	-0.19438902
5	0xbe42438a	-0.18971077
6	0x3ecf0fea	0.4044183
7	0xbe346794	-0.17617637
8	0xba8f1ed4	-0.0010919222
9	0xbce52bc8	-0.027974978
10	0xbecfe280	-0.40602493
11	0x3dbd079c	0.09229967
12	0x3e09fbb8	0.1347493
13	0xbe777a94	-0.24167854
14	0xbe9b0cf6	-0.30283326
15	0x3e45deaa	0.19323221
16	0xbe30a9ff	-0.17252348
17	0xbd3a206e	-0.045441084
18	0xbd9ab672	-0.0755433
19	0xbcb0159d	-0.021494681
20	0x3f05fccb	0.52338856
21	0x3ca66eeb	0.020316562
22	0xbd9d59c7	-0.07683139
23	0xbda8ca39	-0.08241696
24	0x3e931b4c	0.28731763
25	0x3d480c49	0.04883984
26	0x3e3409a7	0.17581807
27	0xbe42c770	-0.19021392
28	0xbef7a2b8	-0.48366332
29	0x3e729d2d	0.2369277
30	0xbedfb319	-0.43691328
31	0x3d704d01	0.058667187
32	0x3e54d0ae	0.2078273
33	0xbf11574f	-0.5677385
34	0xbdbec6e5	-0.0931528
35	0x3e24ebe3	0.16105609
36	0xbddfc74c	-0.10926685
37	0xbe825e1c	-0.25462425
38	0x3ea60553	0.32425937
39	0xbe06fd1c	-0.13182491
40	0xbda0d2d2	-0.07852711
41	0x3d0f7509	0.035023723
42	0xbdba438b	-0.09094914
43	0xbe107ab3	-0.14109306
44	0x3f01600c	0.5053718
45	0x3ed738e7	0.420356
46	0xbddb8d7b	-0.10720345
47	0x3e963b2f	0.29342028
48	0xbde222f6	-0.110418245
49	0xbd94b2dd	-0.07260678
50	0x3e010763	0.12600474
51	0x3ec6d7fb	0.38836655
52	0x3dc58187	0.09643846
53	0x3e9c8cb3	0.30576095
54	0x3cc4c9ac	0.024021946
55	0xbddab552	-0.10679115
56	0x3e018be9	0.12651028
57	0xbde4ea0b	-0.11177453
58	0x3e019178	0.12653148
59	0x3e08882d	0.13333197
60	0xbdd4323c	-0.10361144
61	0xbe7fe23c	-0.24988645
62	0xbd906d06	-0.070520446
63	0x3df9c1bb	0.12195154
64	0x3db86261	0.09003139
65	0x3e3216f2	0.17391565
66	0xbeaf5173	-0.34241828
67	0x3d90663f	0.07050752
68	0x3e187748	0.14889252
69	0xbd737104	-0.059433952
70	0xbeaf457d	-0.34232703
71	0x3de2c6a8	0.11073047
72	0x3dd403c8	0.10352284
73	0x3e380ecc	0.17974395
74	0x3d980963	0.074236654
75	0xbe841409	-0.25796536
76	0xbdcd2e0d	-0.10018549
77	0x3e0636b7	0.1310681
78	0x3e3ce18b	0.18445413
79	0xbe729399	-0.23689117
80	0xbe11cbe6	-0.14237937
81	0x3eab1b29	0.3341916
82	0x3e417ab2	0.18894461
83	0x3e2f8df0	0.17143989
84	0x3e31d395	0.17365868
85	0x3d44682e	0.047950916
86	0xbe6da707	-0.23208247
87	0x3e9857df	0.2975454
88	0x3df869cc	0.12129554
89	0x3e03f9f5	0.1288832
90	0x3e2faa41	0.1715479
91	0x3e8757db	0.26434216
92	0xbdcad409	-0.09903724
93	0x3e8d0805	0.2754518
94	0xbb903514	-0.0044008587
95	0xbe644da1	-0.22295238
96	0xbde4e4b2	-0.11176433
97	0xbcbc220f	-0.02296546
98	0xbe870d30	-0.2637725
99	0x3dbb9851	0.091599114
100	0x3e25ad40	0.16179371
101	0xbddf3e67	-0.10900574
102	0xbe40d169	-0.18829884
103	0xbe7f7278	-0.2494601
104	0xbee5f282	-0.4491158
105	0xbe33647f	-0.17518805
106	0xbed03770	-0.40667295
107	0xbe98425f	-0.29738137

bias f4 [4]
0	0x3f06b0b9	0.5261341
1	0x3e8cff58	0.27538562
2	0xbdb9302c	-0.09042391
3	0xbeb521f4	-0.35377467

weight f4 [4, 4, 3, 3]
0	0x3f842563	1.032391
1	0x3ef4ef00	0.47838593
2	0x3e6ee9d4	0.23331386
3	0xbc91ea0b	-0.017811796
4	0xbde18f01	-0.11013604
5	0x3e61a053	0.22033815
6	0xbf2e4bfc	-0.6808469
7	0xbf22654d	-0.6343582
8	0xbc70e08a	-0.014701972
9	0x3d213370	0.039355695
10	0x3f01dc98	0.50727224
11	0xbeb811f7	-0.35951206
12	0x3d24a07b	0.04019211
13	0x3d0aee9f	0.033918973
14	0xbe5c410f	-0.21509193
15	0x3e7f0b2c	0.24906605
16	0xbe3ccd18	-0.18437612
17	0xbe7fee1d	-0.24993177
18	0xbc949028	-0.018135145
19	0xbd100ba7	-0.035167363
20	0xbea7ff11	-0.32811788
21	0x3ca9e8b2	0.02074084
22	0xbdb19a24	-0.08671978
23	0xbe1e783e	-0.15475556
24	0xbee93f55	-0.4555613
25	0xbf8b71ee	-1.0894144
26	0xbe80f5e8	-0.25187612
27	0x3e15ab91	0.14616229
28	0xbe02a730	-0.1275909
29	0x3dc78a16	0.09743135
30	0x3e969347	0.2940924
31	0xbda0fc19	-0.07860584
32	0xbe08be72	-0.13353899
33	0xbe53cef7	-0.2068442
34	0x3ecef544	0.40421498
35	0xbdbb7d5e	-0.09154771
36	0xbe70e57b	-0.2352504
37	0xbe3b2602	-0.18276218
38	0x3fa19ceb	1.2626013
39	0x3ecbfb4c	0.39840162
40	0xbea3882a	-0.31939822
41	0x3ecac91f	0.39606568
42	0xbed8be27	-0.42332575
43	0xbf53925c	-0.826452
44	0xbed480f8	-0.41504645
45	0xbe137808	-0.14401257
46	0x3e27bbc0	0.16380215
47	0x3d05cb48	0.032664567
48	0xbe2e20cf	-0.17004703
49	0x3e0f7fbc	0.1401357
50	0xbe262ecb	-0.16228788
51	0x3e90dbb1	0.2829261
52	0x3e618dbf	0.22026728
53	0xbebb6537	-0.36600658
54	0xbc6b876e	-0.014375551
55	0xbe26df3d	-0.16296096
56	0xbd25ba5e	-0.040460937
57	0xbe93d8c1	-0.28876308
58	0x3e8c3c65	0.27389827
59	0xbe2c8b32	-0.16849974
60	0x3dcd6943	0.10029843
61	0x3e0a56a3	0.13509612
62	0xbea3bcf5	-0.319801
63	0xbe2ce435	-0.16883929
64	0x3e5cb4b2	0.21553305
65	0x3e57f4d5	0.2108949
66	0x3e5c7ee8	0.21532786
67	0xbe845898	-0.25848842
68	0xbc130869	-0.008974173
69	0xbe9bf152	-0.3045755
70	0xbee467ae	-0.4461035
71	0xbe5f3771	-0.21798493
72	0xbd11be0d	-0.035581637
73	0x3e4eeb45	0.20206936
74	0x3a9571e1	0.0011401736
75	0xbede8944	-0.434641
76	0x3f1e2e5f	0.61789507
77	0x3f6964c8	0.91169405
78	0xbf3206c4	-0.69541574
79	0x3e86f941	0.2636204
80	0x3e9fc13a	0.31202108
81	0x3e02ec49	0.12785448
82	0xbda60c0d	-0.08107767
83	0xbdd0dd0b	-0.101984106
84	0xbf052360	-0.520071
85	0xbe7eaac7	-0.24869834
86	0x3e53c9d9	0.20682468
87	0xbec3ea4b	-0.3826469
88	0xbe997097	-0.29968712
89	0x3e07e467	0.13270722
90	0xbdf9dc8f	-0.12200271
91	0x3f1e5c17	0.6185927
92	0x3f41aace	0.7565125
93	0xbee28c82	-0.44247824
94	0x3dc947af	0.09828126
95	0x3ed1f020	0.41003513
96	0x3e15e99c	0.14639896
97	0x3daa2c5e	0.083092436
98	0xbd9a4400	-0.07532501
99	0xbf0d2baa	-0.5514475
100	0xbe696af5	-0.22794707
101	0x3ef229a7	0.47297403
102	0xbe91bbb2	-0.28463513
103	0x3df8cf5d	0.121489264
104	0xbdc9e2e3	-0.09857728
105	0xbdde1fa1	-0.108458765
106	0x3ea13cc7	0.31491682
107	0xbe96ec3c	-0.29477108
108	0xbe383391	-0.17988421
109	0xbea26a80	-0.31721878
110	0x3eb856ce	0.36003727
111	0xbf2cbee6	-0.6747879
112	0xbf101a8b	-0.562905
113	0x3f0b0965	0.5431121
114	0x3dcb5d95	0.09929959
115	0x3d239341	0.039935354
116	0x3efa59bc	0.48896587
117	0x3f00c43a	0.5029942
118	0x3da84bf1	0.0821761
119	0xbd4cb86b	-0.049980562
120	0x3e44b416	0.19209322
121	0xbdfcc9fa	-0.123432115
122	0xbe43f8af	-0.19137834
123	0xbdad01cf	-0.084476106
124	0xbe8e6acf	-0.27815863
125	0x3e35d24b	0.17756002
126	0xbf282f95	-0.65697604
127	0x3de405bf	0.111339085
128	0x3ec64b78	0.38729453
129	0x3e4b8909	0.19876494
130	0xbebb04bb	-0.36527047
131	0xbecf3899	-0.40472868
132	0xbe9a4815	-0.3013312
133	0x3e1cd081	0.15313913
134	0x3d0c8fa6	0.03431668
135	0xbef50fe5	-0.4786369
136	0xbf044294	-0.5166409
137	0x3e8b5178	0.27210593
138	0x3dae4531	0.08509291
139	0xbe007ac2	-0.12546828
140	0x3ec20357	0.37893173
141	0xbbca0c39	-0.006166008
142	0x3e8e6367	0.27810213
143	0xbd132df0	-0.03593248

bias f4 [4]
0	0xbec98092	-0.39355904
1	0x3e08f445	0.13374431
2	0x3e23075a	0.15920773
3	0xbef15b37	-0.47139904

weight f4 [4, 4, 3, 3]
0	0x3e934aed	0.287681
1	0x3c288ea1	0.010287912
2	0x3d7d7e84	0.061888233
3	0x3dea44eb	0.11438926
4	0x3e730097	0.23730694
5	0x3d02c7be	0.03192877
6	0xbd92e1a2	-0.07171942
7	0x3dcbb76c	0.09947094
8	0x3f344369	0.7041536
9	0xbeb061af	-0.34449527
10	0xbf03a3a5	-0.51421577
11	0xbf2d6243	-0.6772806
12	0x3e61ca87	0.22049914
13	0xbdc1cb2b	-0.09462579
14	0xbdaa36b5	-0.08311216
15	0x3e786f95	0.24261315
16	0x3eac1a36	0.33613747
17	0xbc085b17	-0.008322499
18	0x3e7b4adf	0.2454028
19	0xbbbc489e	-0.0057459613
20	0x3eeb46c7	0.45952436
21	0x3f2468aa	0.64222205
22	0x3ec7e898	0.39044642
23	0x3ec71223	0.38881025
24	0x3e208fde	0.15679881
25	0xbe5ef7f6	-0.21774277
26	0xbf460e88	-0.7736592
27	0x3e44f808	0.19235241
28	0x3eed80ef	0.4638743
29	0xb818e1c8	-3.64499e-05
30	0x3e80f02a	0.2518323
31	0x3d9c60fc	0.07635686
32	0xbf3274d7	-0.69709533
33	0x3f1cab06	0.6119846
34	0xbee2f5ae	-0.44328064
35	0xbf0cb982	-0.5497056
36	0x3dea3651	0.11436141
37	0xbcb0c491	-0.021578105
38	0xbd63366b	-0.05547182
39	0x3e41c274	0.18921834
40	0xbe555b80	-0.20835686
41	0xbe5a6af8	-0.21329868
42	0x3e00f507	0.1259347
43	0x3d758561	0.059941653
44	0xbe30c157	-0.17261253
45	0xbf08ed4e	-0.534871
46	0x3f172425	0.5903953
47	0x3f547cd7	0.8300299
48	0xbee8b863	-0.45453176
49	0x3df1b504	0.11802104
50	0x3f2ba742	0.6705209
51	0x3e5835d3	0.21114282
52	0xbe9df0c6	-0.30847758
53	0xbd85fef1	-0.06542767
54	0x3e09ce5f	0.1345763
55	0xbee6066d	-0.44926777
56	0x3f20fe46	0.6288799
57	0x3e747bb3	0.23875313
58	0xbede9e5b	-0.4348019
59	0x3e681993	0.22666006
60	0x3f45a75b	0.7720849
61	0x3e71078a	0.23538032
62	0xbef6929a	-0.48158723
63	0xbe784008	-0.24243176
64	0x3d47b23a	0.048753954
65	0x3ef0b828	0.470155
66	0xbebd12ef	-0.36928508
67	0xbdba4589	-0.09095294
68	0x3e33d4c7	0.17561637
69	0xbeca36c2	-0.39494902
70	0x3d541670	0.05177921
71	0x3e81a3eb	0.25320372
72	0xbe920650	-0.2852044
73	0x3e17e296	0.1483253
74	0x3f3ffd08	0.7499547
75	0x3dfe656d	0.12421689
76	0x3e9912c8	0.2989714
77	0x3e031849	0.12802233
78	0x3e15621e	0.1458821
79	0x3d7fd33e	0.062457316
80	0xbf1fe7c6	-0.62463033
81	0x3e9e5cf2	0.30930287
82	0x3df61352	0.12015404
83	0x3dea3a2e	0.11436878
84	0xbe1b101e	-0.15142867
85	0x3e02826a	0.12745062
86	0x3e19de1e	0.15026137
87	0x3df1697f	0.117877
88	0xbe9ca444	-0.30594075
89	0xbf294502	-0.6612092
90	0x3e884c74	0.2662083
91	0xbe93e2ff	-0.28884122
92	0xbe587373	-0.2113779
93	0x3d8c8f3c	0.06863257
94	0xbee72fc4	-0.4515363
95	0x3f2347ed	0.63781625
96	0xbef1812e	-0.4716887
97	0x3eef7fce	0.46777195
98	0x3f76cbe6	0.96404874
99	0xbee143d8	-0.43997073
100	0xbf88d3f2	-1.068968
101	0xbdaea359	-0.0852725
102	0xbf6d3a0f	-0.92666715
103	0xbecc8922	-0.39948374
104	0x3f4546e3	0.7706129
105	0xbe21b15a	-0.1579031
106	0x3f541ac8	0.82853365
107	0x3ee9d955	0.45673624
108	0x3e44d565	0.19222029
109	0xbe1fc081	-0.15600778
110	0xbec21346	-0.3790533
111	0x3e08595a	0.13315335
112	0x3e76f257	0.24115883
113	0x3e76a761	0.24087287
114	0xbe37488c	-0.17898768
115	0x3e6ac6e7	0.22927438
116	0x3ea841dc	0.32862747
117	0xbe5db2bd	-0.21650214
118	0xbeb53689	-0.3539317
119	0x3e39e5ca	0.18154064
120	0x3e133da1	0.14378978
121	0xbf0b5f4f	-0.54442304
122	0x3e3a7728	0.18209517
123	0x3ede5c63	0.4342986
124	0xbe9e9dfe	-0.30979913
125	0x3e566e96	0.20940623
126	0x3f21e0cb	0.6323363
127	0xbeba23cf	-0.36355445
128	0xbe4f65cf	-0.2025368
129	0x3efe42c0	0.496603
130	0x3f2cdce7	0.6752457
131	0xbf000db4	-0.5002091
132	0xbefe5d5c	-0.49680603
133	0x3eebc73c	0.4605044
134	0x3eaf1ffe	0.34204096
135	0xbf1fb41b	-0.62384194
136	0xbf2051a0	-0.6262455
137	0x3ed850bb	0.42249092
138	0x3ef924ba	0.48660833
139	0xbe5dd878	-0.21664608
140	0xbdb10846	-0.08644156
141	0x3f11cd31	0.5695372
142	0x3eae0c7b	0.33993897
143	0x3d0bfe2e	0.03417795

bias f4 [4]
0	0xbf078b8a	-0.52947295
1	0xbf734c44	-0.9503825
2	0xbf84127e	-1.0318143
3	0xbf1a17c6	-0.60192525

weight f4 [42, 576]
0	0x3db09845	0.08622793
1	0x3f3a46a0	0.72764015
2	0x3cfa551c	0.030558161
3	0xbf6e439d	-0.9307192
4	0x4003069c	2.0472784
5	0x3ff6baaf	1.9275721
6	0xbd2af99e	-0.04174196
7	0xbfaf9a17	-1.37189
8	0xbf9143f6	-1.1348865
9	0x3d3071ea	0.043077387
10	0x40156cf6	2.3347754
11	0xbfa027fa	-1.25122
12	0xbf248140	-0.6425972
13	0x3fbcdf94	1.4755731
14	0x3f0333c4	0.51250863
15	0x3e584fed	0.2112424
16	0x3faf1986	1.3679664
17	0x3f58b08f	0.8464441
18	0x3f0ab697	0.5418486
19	0x3f391257	0.7229361
20	0x3f651349	0.8948255
21	0x3dcc1441	0.099648006
22	0x3cc4aedb	0.024009159
23	0x3d819cb1	0.06328715
24	0x3f2d7ce6	0.67768705
25	0xbf0d93c5	-0.55303603
26	0xbf5f11bc	-0.87136436
27	0xbf99c56b	-1.2013372
28	0x3dbe6c5e	0.09298013
29	0x3f9008ee	1.1252725
30	0x3df4ac2c	0.11946902
31	0x3e6de67c	0.23232454
32	0x3c56fcb1	0.01312177
33	0x3fde7ab6	1.7381198
34	0x3ea2aa1b	0.31770405
35	0xbe97506c	-0.29553545
36	0xbedda935	-0.43293157
37	0xbf4e729d	-0.80643636
38	0xbfbf1854	-1.4929299
39	0xbe723106	-0.23651513
40	0x3f06b8f5	0.5262597
41	0x3f22be44	0.6357157
42	0xbe997603	-0.29972848
43	0xbf83db9a	-1.0301392
44	0x3e750024	0.23925835
45	0x3f42f744	0.7615855
46	0xbf4c395a	-0.7977501
47	0x3db5425f	0.0885055
48	0xbf3df155	-0.7419637
49	0xbf42dd57	-0.7611899
50	0xbe83cf2e	-0.25744003
51	0x3ef8af07	0.48571035
52	0x3fbb1fd6	1.461909
53	0xbed4b547	-0.41544554
54	0xbf580f87	-0.8439869
55	0x3fd50097	1.6640805
56	0x3fd20b23	1.6409649
57	0x3ea0a338	0.31374526
58	0x3ef26847	0.47345182
59	0x3d2105f9	0.039312337
60	0xbfaaa3ef	-1.3331279
61	0xbe6690ad	-0.22516127
62	0x3f959266	1.1685302
63	0x3f0f89f3	0.5606987
64	0x3ed5ae44	0.41734517
65	0x40313f4f	2.769489
66	0x3ffa7d48	1.9569483
67	0x3c83983d	0.016063804
68	0x3fbd79f0	1.4802837
69	0xbf2fa7df	-0.68615526
70	0x3f32b302	0.69804394
71	0x3f25bea0	0.64743996
72	0x3e34f8de	0.1767306
73	0xbe83fead	-0.2578024
74	0x3f84eed8	1.0385389
75	0xbfbf159c	-1.492847
76	0x3c956681	0.018237354
77	0x401da0f4	2.4629488
78	0x3fa91851	1.3210546
79	0xbe97ee4c	-0.29673994
80	0x3fc04179	1.5019981
81	0xbe34ed28	-0.17668593
82	0x3f6068b4	0.87659764
83	0xbdfa8c9f	-0.122338526
84	0xbfaed2aa	-1.365804
85	0xbf520b00	-0.82048035
86	0x3fefb7f5	1.8728014
87	0x40144476	2.3166785
88	0x4068e244	3.6388102
89	0xbfacf8a7	-1.3513383
90	0x3eabc8ab	0.33551535
91	0x3fd1758c	1.6363997
92	0x3edadeab	0.42748007
93	0x3dcb83ee	0.09937273
94	0x3f3e8c6c	0.74433017
95	0x3f3301a3	0.6992437
96	0xbf38fbaa	-0.7225901
97	0xbe2f1a14	-0.17099792
98	0x3f4e897a	0.8067852
99	0x40470d3f	3.1101835
100	0x40348f99	2.8212645
101	0x404fc4a5	3.2463772
102	0xbfbfe001	-1.4990236
103	0xbe04fbc3	-0.12986664
104	0x402e7dd4	2.72643
105	0x3fa05c1a	1.2528107
106	0x3e289bef	0.16465734
107	0xbd6dcaf7	-0.05805489
108	0xbe30019b	-0.17188112
109	0xbf1db4da	-0.6160408
110	0xbe88710a	-0.26648742
111	0x3ea5ed11	0.3240743
112	0x3f3b78d1	0.73231226
113	0x3ac8135d	0.001526456
114	0x3fabe29c	1.3428531
115	0x3e8025f9	0.2502897
116	0x3fea5272	1.830641
117	0x3d967658	0.07346791
118	0x3e57fe14	0.21093017
119	0xbe1c3149	-0.15253176
120	0x3f75064f	0.9571275
121	0xbef24624	-0.47319138
122	0xbe89e0c9	-0.2692931
123	0xbe940dee	-0.28916878
124	0x3f8c1691	1.0944387
125	0x402e6f8a	2.7255578
126	0x40058c9d	2.0867074
127	0x3f4012aa	0.7502848
128	0xbe82ef54	-0.25573218
129	0xbf7ca95a	-0.9869591
130	0xbfc4c94b	-1.537393
131	0x3c95b067	0.018272592
132	0xbf0ae2f0	-0.5425253
133	0xbee79575	-0.45231214
134	0xbe36f720	-0.17867708
135	0x3e09274a	0.13393894
136	0x3f3db27c	0.7410047
137	0xbebfff2e	-0.37499374
138	0xc005254c	-2.0804014
139	0x3f6bb1a7	0.9206795
140	0xbf4e6a74	-0.80631185
141	0xc01e9951	-2.4781077
142	0xbf941bba	-1.1570961
143	0x3f084793	0.53234214
144	0xc0073d15	-2.1131032
145	0xbf2c5df3	-0.67330855
146	0xbf8390b1	-1.0278531
147	0xbebe41d3	-0.37159595
148	0xbf8b7b4d	-1.0897003
149	0x3e53a7a5	0.2066942
150	0xbdea390a	-0.114366606
151	0x3f536d39	0.82588536
152	0xbeb23825	-0.3480846
153	0xbf69642c	-0.91168475
154	0xbf94c86f	-1.1623667
155	0xbf4f9bf0	-0.81097317
156	0xbe1a4b76	-0.15067849
157	0xbd9c48c6	-0.07631068
158	0xbf5258d0	-0.8216677
159	0xbefeb59d	-0.49747935
160	0x3e9665be	0.29374498
161	0x3f54debd	0.8315237
162	0xbfd63935	-1.6736208
163	0x3f9bbd16	1.216708
164	0x3ec56e7e	0.3856086
165	0x3f8286aa	1.0197346
166	0xbd2489a2	-0.04017032
167	0xbf177dda	-0.5917641
168	0x3f7a2699	0.97715145
169	0x3f73af5a	0.9518944
170	0x3eb72092	0.35767037
171	0xbe0e6f4d	-0.13909645
172	0xbe2fefb2	-0.1718128
173	0xbfda77e3	-1.7067837
174	0xbfafa488	-1.3722086
175	0xbff6bcca	-1.9276364
176	0xbed3c85e	-0.41363806
177	0xbcf8258e	-0.030291345
178	0x3fc6c422	1.5528605
179	0x3f4f66d1	0.8101626
180	0x3f85fd7c	1.0467982
181	0x3f095031	0.5363799
182	0x3fbbce00	1.4672241
183	0x3def5cc6	0.11687617
184	0x3cb3fe9b	0.021971991
185	0xbef4ed8e	-0.4783749
186	0xbff6a70e	-1.9269731
187	0xbf9dfa28	-1.2341967
188	0x3f457b41	0.77141196
189	0x3f434693	0.7627956
190	0x3fed1858	1.8523054
191	0xbf363c2e	-0.71185577
192	0xbe569d2c	-0.20958394
193	0x3fae2a8b	1.3606733
194	0x3e8f63e2	0.28005892
195	0xbf694f00	-0.9113617
196	0xc0268201	-2.6016848
197	0x40586366	3.3810668
198	0x3f6b0337	0.9180178
199	0xc039c4b3	-2.9026306
200	0x3f1c9688	0.6116719
201	0xbfab405d	-1.3379017
202	0x3f2e3bb0	0.68059826
203	0x3e9b191c	0.30292594
204	0x3f43b655	0.7645009
205	0x3eba2622	0.36357218
206	0x3e738caa	0.23784128
207	0x3fefc74d	1.8732697
208	0xbf4ee8bd	-0.8082388
209	0xbf92d74b	-1.1471952
210	0x40027b35	2.03877
211	0x3fe5d511	1.7955648
212	0x3ffae81e	1.9602087
213	0x3f93a071	1.1533338
214	0x3f8658fd	1.0495907
215	0x3e904836	0.28180093
216	0x3f5e3cd6	0.8681158
217	0x3da7eade	0.08199094
218	0x3e6c6dd5	0.23088773
219	0x3ff098b6	1.8796604
220	0xbf277eae	-0.6542767
221	0xc06acdc8	-3.66881
222	0xc08b9daa	-4.362996
223	0x403e917c	2.9776297
224	0x3fcbc86e	1.5920541
225	0x3ee37b05	0.44429794
226	0x3eb4bdbc	0.35301006
227	0x3ec921bb	0.39283547
228	0x3eaedfdf	0.34155175
229	0x3e5a931a	0.21345177
230	0xbf127815	-0.5721448
231	0x3e8f040b	0.27932772
232	0xbfe12b69	-1.7591373
233	0x404d11bf	3.2042081
234	0x3dc38c84	0.095482856
235	0x40207abe	2.5074916
236	0x3d554283	0.052065384
237	0x3ea8edab	0.32993826
238	0xbd2eca76	-0.04267355
239	0x3d011414	0.03151329
240	0x3ea9cd91	0.33164647
241	0xbd0bddd1	-0.034147087
242	0xbf4e37f0	-0.80554104
243	0xbf413baf	-0.75481695
244	0xbffcfdcb	-1.9764951
245	0x3f4f6c59	0.810247
246	0x403d26ff	2.9555051
247	0xbfda4b08	-1.7054148
248	0xbf83f4fb	-1.0309137
249	0x3f9cfead	1.2265221
250	0x3ed49636	0.41520852
251	0xbf3a3b61	-0.72746855
252	0x3fc789a6	1.5588882
253	0x3f52864e	0.8223618
254	0x3fb74e89	1.4320842
255	0xbf4e92b8	-0.80692625

bias f4 [42]
0	0xc08c8a7a	-4.391904
1	0x3fa2d2c4	1.272057
2	0x3fdca18d	1.7236801
3	0x3e96e3e7	0.2947075
4	0x3fd3d42a	1.6549122
5	0x405576b5	3.3353703
6	0xbdd69aa0	-0.10478711
7	0x3fb2c938	1.3967657
8	0x3fa00442	1.2501299
9	0x4004ac58	2.073019
10	0x4006b1a1	2.1045916
11	0x3ee3336e	0.44375175
12	0x3f81017f	1.0078582
13	0x3f34e639	0.7066379
14	0xbff454f1	-1.9088422
15	0xc0197935	-2.398023
16	0xc033c094	-2.808629
17	0x3f43402d	0.762698
18	0x40222d7e	2.5340266
19	0xc03d1d78	-2.9549236
20	0xbe78a921	-0.24283268
21	0xc008bda6	-2.1365752
22	0xc08e2d2e	-4.443015
23	0xc00cabc4	-2.1979837
24	0xc01f5499	-2.4895384
25	0x404bed61	3.1863635
26	0xbf9c6296	-1.2217586
27	0xc024b3d3	-2.5734756
28	0xc01253f8	-2.286375
29	0xc041c9c9	-3.027941
30	0xbfe9ca11	-1.8264791
31	0xbf3c2613	-0.73495597
32	0xbf9e8437	-1.2384099
33	0xbecd7f1c	-0.4013604
34	0xbf5f5ca9	-0.87250763
35	0xbe1792eb	-0.14802139
36	0xbfdf411e	-1.7441747
37	0xbfefec0d	-1.8743912
38	0x406ffa66	3.749658
39	0xbfa8d171	-1.3188916
40	0x3ee44e44	0.44590962
41	0xbfa6a236	-1.3018253
