trafficRecognitionModel.pt (torch, 102799 bytes, 8 tensors)

weight f4 [4, 3, 3, 3]
000000 9e b4 50 3e 62 76 42 3e c3 62 a5 3e a2 1c d8 bc
       0.203814 0.18990472 0.32301912 -0.02638084
000010 b4 eb 00 3d 60 d6 be 3c 2d 42 c0 3d 1d 2d 05 3e
       0.031474784 0.023295581 0.09387622 0.1300549
000020 af 78 a8 3e d5 0a d6 bd 29 6a 0f bd 6c bc 20 bc
       0.32904574 -0.10451285 -0.03501335 -0.009810548
000030 d7 17 07 be 5a 84 a1 bd 40 2f 32 bd e9 0f bb bd
       -0.13192688 -0.07886572 -0.043502092 -0.09133894
000040 7e 6e 1c bc c6 62 b2 3d 1e 70 54 be 08 38 c4 be
       -0.009547828 0.08710246 -0.20745894 -0.38323998
000050 d9 57 84 be 30 24 7a be 0c 7b ac bd 44 c1 b1 be
       -0.25848272 -0.24427867 -0.08421907 -0.34717762
000060 f7 9e 03 be 71 36 3b 3e 15 39 17 3d 3f 45 82 be
       -0.12853609 0.18282486 0.036919672 -0.25443456
000070 d9 b7 84 be 43 00 45 bd fc c2 1b 3d be 72 16 3e
       -0.25921515 -0.048095953 0.03802775 0.14692208
000080 1c 49 95 3d ef 15 81 3d b7 03 a9 bd 5d 61 4a 3e
       0.07289335 0.063030116 -0.08252662 0.19763704
000090 bd d9 0e be 2b 14 b4 3d 2b 21 12 be ec 36 c7 3d
       -0.13950248 0.08792909 -0.14270465 0.097272724
0000a0 2f 8f d6 bd e6 b2 41 3d e7 15 8f 3e 32 db 25 3d
       -0.10476529 0.04728975 0.27946398 0.040492244
0000b0 f5 b8 d3 3d 6d 0e 26 3d ac b6 6b 3d e8 5e 78 be
       0.10338012 0.0405411 0.057547256 -0.24254954
0000c0 04 06 b3 bc fc 97 25 3e 57 3d 2e bd fa a3 18 3e
       -0.021853454 0.16171259 -0.042538967 0.14906302
0000d0 d8 4b d5 3d d5 60 2c 3e 9f 39 dd 3d e7 fa 7a 3d
       0.10414857 0.16833813 0.10802006 0.061274435
0000e0 61 ce cf bc d5 47 22 3d bc 0b 12 bf fb 7c 70 bc
       -0.025366964 0.039619286 -0.57049155 -0.014678235
0000f0 70 a6 2a 3d be 3f dd be cc b3 16 be 4e aa dd 3d
       0.041662633 -0.43212694 -0.14717025 0.10823499
000100 8b c2 88 be bb 90 63 3e 32 77 2e be b1 cb de be
       -0.26710925 0.22223179 -0.17037657 -0.4351478
000110 d1 21 e5 bd 48 50 17 be b5 49 51 be 64 31 6c 3d
       -0.111880906 -0.14776719 -0.20438273 0.05766429
000120 d9 d0 c7 bd f5 c3 13 3d a0 52 af 3e 14 2f 68 3d
       -0.097566314 0.03607555 0.34242725 0.056685522
000130 b5 70 80 bd 1c 30 24 3d 56 36 85 3e c6 ec 6f 3e
       -0.06271497 0.040084943 0.26018018 0.23430166
000140 67 3a 93 3d 71 b4 11 3d 3f 3d 44 be e5 e1 3f be
       0.07188874 0.035572473 -0.19163989 -0.18738516
000150 39 1c 8c bc f1 2c 2c be 01 8e 4b be 23 23 60 3e
       -0.017103301 -0.16814019 -0.19878389 0.21888404
000160 d0 57 9d be b6 28 7e be 48 da 56 3e 4c 68 88 be
       -0.30731058 -0.24820217 0.20981705 -0.26642072
000170 0e 6b de 3d ca 03 0d 3e fb ed 90 bd 8f 00 9d be
       0.10860263 0.13770977 -0.07076641 -0.3066449
000180 0c 29 f4 3d 2e ef 0b 3c 60 f1 75 bd 18 38 7b 3e
       0.119218916 0.008540912 -0.060044646 0.24533117
000190 6c 0d 6e bd cb 1a 2b 3e 53 f2 aa 3e 06 dc ae bd
       -0.05811827 0.1670944 0.33388004 -0.0853806
0001a0 dd e9 4d 3e bc a3 1d 3e a4 bd 2a 3c b2 20 79 3e
       0.20108743 0.15394491 0.01042119 0.24328879

bias f4 [4]
000000 9a 7c 40 3d 0d e9 81 bd 2f d2 dd 3e 95 e5 54 3e
       0.04699383 -0.06343279 0.4332442 0.20790704

weight f4 [4, 4, 3, 3]
000000 1b 59 9b 3e 24 83 29 3f 27 44 2a 3f 24 78 25 bf
       0.3034142 0.6621573 0.6651024 -0.64636445
000010 aa b6 52 3e 39 40 62 3e c1 1d 65 bf 5d e2 3d bf
       0.20577493 0.22094811 -0.89498526 -0.7417353
000020 4f 95 e0 be 8f bd b7 3e f5 d9 73 3e 8f 75 35 3e
       -0.43863913 0.3588681 0.23813613 0.17720626
000030 1f 84 df 3d 7a 1d c2 bc 7c e0 d0 3c 7b 7e 57 3c
       0.10913872 -0.023695696 0.025497667 0.013152714
000040 78 b5 5b 3d 01 9c 6e 3e 68 46 0e 3f 5e 24 44 3f
       0.05363986 0.23301698 0.5557618 0.7661799
000050 e4 f6 bf 3e 01 5b b3 3d 74 30 65 be 11 d8 49 3e
       0.3749305 0.08757592 -0.22381765 0.19711329
000060 43 e9 19 3e 15 a1 42 bf 0f 9e 1c bf 29 db 70 3f
       0.15030389 -0.7602704 -0.6117868 0.9408441
000070 04 eb b2 3e 4d 6f c0 be f4 af c5 be 16 b8 de be
       0.34944928 -0.37584916 -0.38610804 -0.4349982
000080 05 48 11 3e ad 83 10 bf ec e1 33 bf fe d6 d5 3e
       0.1418763 -0.5645092 -0.70266604 0.4176559
000090 54 42 33 bf b6 6d 09 bd 28 74 a6 3e ba de 76 bd
       -0.70023084 -0.033551894 0.32510495 -0.060271002
0000a0 d6 45 cf 3e 8e ca 06 3f a8 67 a4 3e 6e e5 03 3f
       0.40482968 0.52652824 0.32110333 0.51521957
0000b0 6a f6 04 bf 61 7a dd 3e 85 16 57 3e 70 b5 16 3e
       -0.519385 0.4325743 0.21004684 0.1471765
0000c0 b5 36 43 3e 9b 86 a9 3e 82 83 05 3f cf f2 71 3e
       0.19063838 0.33110508 0.5215379 0.2362778
0000d0 30 bb ba 3e 1e 65 ab 3e a6 57 a4 be d3 15 4b 3e
       0.36470938 0.33475584 -0.3209812 0.19832544
0000e0 4d 67 3a 3f 4d 1a 6f 3e 06 c8 37 3f 9e 78 9d 3e
       0.72813874 0.23349877 0.71789587 0.30756086
0000f0 d7 d3 7f 3e b7 8a 81 3e a9 40 50 bf 7c 05 d4 be
       0.24983154 0.25301144 -0.81348664 -0.41410434
000100 db 51 99 bc d3 3c 89 bd ac 99 7a be a0 1d 09 3d
       -0.01871579 -0.067010544 -0.24472684 0.03347552
000110 85 0e 6e be 10 11 c8 bd 2c 79 6c be 6f c8 6e bf
       -0.23247726 -0.097688794 -0.23093098 -0.9327459
000120 5a 5f a5 3e b9 76 49 be f3 33 1e 3c f9 c0 c3 3e
       0.3229931 -0.19674195 0.00965594 0.38233164
000130 5d b5 e3 3e 10 ba d2 3d 51 8a 91 3e ca 18 a2 bd
       0.44474307 0.10289395 0.2842584 -0.079148844
000140 ff b0 1a 3f 15 65 75 be b3 10 3b bc b4 1f a3 3d
       0.60426325 -0.23964341 -0.011417556 0.07965031
000150 51 aa 79 be b7 96 da bc a9 a1 60 bd 96 1b 04 be
       -0.24381377 -0.026683195 -0.05484167 -0.12901148
000160 43 15 0e 3e 63 bd a1 3d 0a bc 59 3e 7d 38 21 3e
       0.13875298 0.07897451 0.21263137 0.15744205
000170 d0 21 11 bf 62 51 e8 3c 09 3e 8b 3a 20 02 b6 3c
       -0.5669222 0.028359119 0.0010623346 0.02221781
000180 8f 3c 82 bf 27 ae 68 bf 3a 24 f0 bc 7f b9 dd 3e
       -1.0174731 -0.90890735 -0.02931415 0.43305585
000190 85 c4 a2 3e 96 6e 20 be 4e 41 0c 3e ed bf cd 3d
       0.31790558 -0.15667185 0.13696787 0.100463726
0001a0 d1 6e 8b bd ac 08 80 be 2a 46 81 be 92 19 01 3f
       -0.06808246 -0.25006616 -0.25248843 0.5042964
0001b0 80 10 1a 3f c6 62 0f 3f 69 8d 15 3f 0b d0 2d 3f
       0.60181427 0.5601009 0.584189 0.67895573
0001c0 cc 78 8b 3e e1 a0 04 be eb a9 ff 3e 52 cb f8 3e
       0.27240598 -0.12951995 0.49934325 0.4859262
0001d0 cb 80 b2 be c8 b9 80 be cf 6a fc 3d 19 fc 92 3e
       -0.34863886 -0.2514174 0.123250596 0.2870796
0001e0 0f 1a 8b bd d0 8c 97 bc f6 ad a3 3e 53 7b 23 3e
       -0.0679208 -0.018499762 0.3196866 0.15965013
0001f0 62 8e 96 bd 42 52 06 3e 64 c7 a1 3e 4e ca 2d be
       -0.07351376 0.13117316 0.31597435 -0.16971704
000200 ad cb 3f bf 1c a2 81 3f 59 7f b1 3e d4 8b 66 bf
       -0.7492016 1.0127597 0.3466747 -0.9005711
000210 d8 3f a2 3e f8 a4 81 3e 81 75 07 bf d1 02 97 3e
       0.31689334 0.25321174 -0.5291367 0.29494336
000220 e0 f2 6b 3e 28 f8 ea 3c 67 59 5a 3f c8 97 97 3e
       0.23041868 0.028682783 0.8529267 0.29607987
000230 02 e9 d3 be 92 e4 46 3f c6 03 07 3f b1 ae fc bd
       -0.41388708 0.7769252 0.5274013 -0.12338007

bias f4 [4]
000000 21 e0 b4 be de 45 26 3e fa d4 16 3f be 55 8e be
       -0.35327247 0.1623759 0.58918726 -0.2779979

weight f4 [4, 4, 3, 3]
000000 44 4e 02 be d3 16 3e bf 92 b7 1a bb 8e 25 22 3f
       -0.12725168 -0.74253577 -0.0023607952 0.63338554
000010 f4 04 f4 be d0 d9 a8 bf 5a 60 47 3f 25 22 3c 3f
       -0.4766003 -1.3191471 0.77881396 0.734896
000020 5b 7c c0 be ff eb 1e 3e 75 df 1a 3e d6 96 14 3f
       -0.37594876 0.15519713 0.15124305 0.5804266
000030 97 cc b1 3d 0b 1b ce be f2 41 e9 3c d2 77 c1 3e
       0.086816005 -0.40255007 0.028473828 0.37786728
000040 4b f1 80 bd 28 a8 6b be b3 db c6 3e bf eb 92 be
       -0.06296023 -0.23013365 0.38839492 -0.28695485
000050 c9 15 7b bf f5 4b e1 3e a2 42 f0 3e 5d 44 09 bf
       -0.98080117 0.44003263 0.46925837 -0.5361994
000060 6a 6e fe be 2d d5 93 3e 08 f0 6f 3c cb 60 ba 3e
       -0.49693614 0.28873578 0.01464463 0.36401972
000070 d5 b6 83 3f ab 21 45 3d 90 1b 2f bf 90 de 53 3d
       1.0290171 0.04812781 -0.6840143 0.051725924
000080 b2 86 0f 3f 14 ea 16 bf 66 0a 31 bf 01 60 17 be
       0.56064904 -0.58950925 -0.6915649 -0.14782716
000090 15 29 5e be a5 77 dd be a4 ae 94 3e 2d 7e 87 bf
       -0.21695359 -0.43255344 0.2903949 -1.0585381
0000a0 a0 93 42 be 85 55 05 3f 7a a2 80 3d af 14 0a 3f
       -0.19001627 0.5208362 0.0628099 0.5393781
0000b0 cb 7a af 3e e3 c4 e9 be 98 9f 02 3f dc e3 0b 3e
       0.3427337 -0.45658025 0.5102477 0.1366114
0000c0 22 fc 98 3e 3a c0 3d 3f 22 4a 9d be f9 ac 51 3f
       0.29879862 0.7412144 -0.3072062 0.8190456
0000d0 b3 f3 b8 be d1 12 7f bf 83 a7 a2 be 25 18 1b bf
       -0.36123428 -0.99638087 -0.31768426 -0.60583717
0000e0 44 33 fb 3d 69 f6 02 bf 8c a8 0f bf 9f 94 27 3e
       0.122656375 -0.5115724 -0.5611656 0.16365288
0000f0 c1 40 c6 3d 90 51 e7 3e 7d 7f 36 3e bc d2 5b bf
       0.096803196 0.45179415 0.1782207 -0.8586843
000100 93 eb 73 3e 0b f3 0a 3f 98 3a fc be 9c de 02 3f
       0.23820333 0.54277104 -0.49263453 0.51120925
000110 31 fb cc 3d 81 ae 92 3a 98 65 a0 3e 03 02 00 bf
       0.100088485 0.0011190922 0.3132751 -0.5000307
000120 79 f1 24 3f 25 2f 54 3f 69 ef 48 3e 2c 2c 89 be
       0.6443096 0.82884437 0.19622578 -0.26791513
000130 4c d3 dc be 48 be 56 3e af 16 25 bf 63 85 fb be
       -0.43129957 0.20971024 -0.6448774 -0.49125203
000140 2b 19 35 bf 1a 7d a8 be 8e 85 08 be e6 be 37 be
       -0.7074153 -0.32907945 -0.13332197 -0.17943916
000150 fc c5 8a 3d 16 cc 9c 3e aa 27 52 3e 14 3c 70 be
       0.06776044 0.30624455 0.20522943 -0.23460418
000160 9e 48 ac 3e 2d d0 06 3f 0f 1e 34 3e 60 05 78 bd
       0.33649153 0.526614 0.17589591 -0.060552
000170 f3 d4 ce 3b 73 17 53 3e ff bf ea be 02 63 a4 be
       0.0063120066 0.20614414 -0.45849606 -0.32106787
000180 71 5a 22 be 44 e6 7d be 26 2e 03 bf 8c 54 ea 3e
       -0.15854813 -0.2479487 -0.5124229 0.4576763
000190 db 8e 24 bf ba 02 83 bf 9b 16 c7 bb c4 1d 1d be
       -0.6428048 -1.0235207 -0.006075693 -0.15343386
0001a0 ca 73 9f be a9 81 3e 3e 9f 1c c7 3e 72 f0 33 3f
       -0.31143028 0.18604149 0.38889024 0.70288765
0001b0 4c 3c bf be 1c 16 80 be 5b 15 b5 be 1b e9 6c bd
       -0.3735069 -0.25016868 -0.35367855 -0.057839494
0001c0 0f d2 ab 3d 4b 15 1a 3e 68 00 ee 3c fb cc 7c 3e
       0.08389675 0.15047185 0.029052928 0.24687569
0001d0 da eb b7 bc 1d ed e6 3e 0a 89 11 3f c0 5b 57 3e
       -0.02245133 0.45102778 0.5684973 0.21031094
0001e0 3b 98 7f 3e 67 94 21 3e d3 11 9f be 5d 60 ce bd
       0.24960415 0.15779267 -0.31068286 -0.100769736
0001f0 c5 88 3f bf 9a fe 9c be fb 0b db 3d 46 3a f4 3c
       -0.7481807 -0.30662996 0.106956445 0.029812943
000200 f2 0c a0 3e 77 0d e1 bd af a0 ec bd a3 ce ec 3c
       0.31259876 -0.10988896 -0.115540855 0.028907126
000210 e6 d8 92 be b1 95 d7 3d a6 b7 4f 3e 52 98 82 be
       -0.28681105 0.10526598 0.202849 -0.25506836
000220 70 a7 a7 bd 05 cf cd bd 61 af c5 3e 54 23 0b 3f
       -0.08186233 -0.100492515 0.38610366 0.5435078
000230 b9 e7 11 3e cb 74 16 3f ad da dd 3d 2b 23 d6 be
       0.14248551 0.5877196 0.10832725 -0.41823706

bias f4 [4]
000000 e5 60 70 bf 0e 2d 42 bf d8 c7 26 bf b9 99 29 bf
       -0.9389785 -0.7585 -0.6514869 -0.6625019

weight f4 [42, 576]
000000 f3 f6 fa bf c0 3c 08 3f 95 ac c8 bd 0e b1 9e bf
       -1.9606613 0.532177 -0.097985424 -1.2397783
000010 b6 2f 11 3f 77 c3 41 3e 06 5d 38 40 9c 90 99 3a
       0.56713426 0.1892222 2.8806777 0.0011716071
000020 f0 76 26 bd 40 3e 2d 3f 23 0d e9 3f ee 89 05 40
       -0.04064077 0.6767311 1.8207134 2.0865436
000030 81 88 fe bf 9e ac 52 3d 92 0a ab 3f 4e ec 42 bd
       -1.9885408 0.05143415 1.3362601 -0.04758864
000040 35 ec 9c bf 5e c0 03 3f c2 2f 30 3f a8 df 8b 3e
       -1.2259585 0.51465404 0.6882287 0.27319074
000050 3f 67 24 3e 13 a1 60 bd 97 28 5d bf 8f 46 d9 3e
       0.1605501 -0.054841112 -0.8639006 0.42436644
000060 60 20 0b bf a1 3c b5 be 62 93 4b 3f aa 07 c7 3f
       -0.54346275 -0.3539782 0.79521763 1.5549214
000070 15 2e 6a be 7d b4 8f 3f 10 63 f9 bf bc 83 98 bf
       -0.22869141 1.1226956 -1.9483356 -1.1915202
000080 24 5a c7 be 27 17 62 3f 5c 57 e1 be 24 56 38 3f
       -0.3893596 0.8831658 -0.44011962 0.7200644
000090 12 5c ef bf 1e 8a 88 3e 0d 61 b6 be 48 c5 88 3d
       -1.8699973 0.26667875 -0.3562092 0.066782534
0000a0 52 b1 44 bd 6b 8d 0c c0 d3 f7 b7 be 12 c1 06 c0
       -0.04802067 -2.1961315 -0.35931262 -2.105534
0000b0 60 65 92 bf 2c ab 8b bd 3a 3d 2c be de 42 a9 bf
       -1.1437187 -0.06819758 -0.16820231 -1.3223531
0000c0 89 f6 43 bf 12 51 4c bf 30 b8 aa bd cf dc 83 bf
       -0.7654806 -0.79811203 -0.08335912 -1.030176
0000d0 bc 47 ee 3f 24 58 77 40 37 e8 f4 bf a2 65 0e bf
       1.8615642 3.8647547 -1.9133366 -0.5562383
0000e0 9d 48 36 3f f7 29 a4 bc 7b b6 41 3f 11 01 d6 bf
       0.7120455 -0.020039542 0.7566907 -1.6719075
0000f0 af 81 a8 bf ec 27 26 3f ac d9 f2 3e 25 7b 1e c0
       -1.3164576 0.64904666 0.47431695 -2.4762661
000100 26 7f c2 bf 34 eb a6 40 77 fe 5f 40 29 dd 54 bf
       -1.5195053 5.2162113 3.4999063 -0.83149964
000110 1a 1a c6 3f 60 32 72 bf 92 80 bd bd e4 26 a9 3c
       1.5476716 -0.94608116 -0.092530385 0.020648427
000120 66 23 3e bf 54 5f 09 bf 2a 74 96 3f 09 53 aa 3e
       -0.74272764 -0.53661084 1.17542 0.33266476
000130 a3 10 dc c0 c0 bb 09 c1 df cb 4a 40 a0 d2 4f 3d
       -6.877031 -8.608337 3.1686933 0.050737977
000140 96 48 58 bf 3d 1b bf bf fc 77 c5 3e c1 21 f1 3e
       -0.8448576 -1.4930187 0.38568103 0.47096065
000150 f6 c4 4f bf 86 83 16 bf 44 bf 62 bc 34 02 79 bf
       -0.81159914 -0.5879444 -0.013839547 -0.97268987
000160 ae 1e 68 c0 9a 86 76 3f c3 71 f0 3e 4f e3 f1 3f
       -3.6268725 0.96299136 0.46961793 1.8897494
000170 07 4c 11 c0 d6 a3 37 c0 e0 db 78 3e b3 40 42 3f
       -2.2702653 -2.8693748 0.24302626 0.75879973
000180 55 52 9a 3c 3a 49 76 3e 8e b6 17 bf 7c a6 9f be
       0.018838087 0.24051371 -0.5926293 -0.31181705
000190 ee c3 ac 3f 1e b0 84 40 27 d8 2e 3d 04 b5 5b 3f
       1.3497293 4.1464987 0.042686608 0.8582308
0001a0 00 e1 c9 3f c0 5c 4c c0 e4 e4 5b bf c0 72 e7 be
       1.577179 -3.193161 -0.85896134 -0.45204735
0001b0 ae 5f 96 bf 17 7e 2e bf 96 89 98 be fc 5c 17 be
       -1.1747949 -0.6816115 -0.2979247 -0.14781564
0001c0 03 1a cc 3f b0 31 68 3f 21 0f 2b 3f 43 20 0a c0
       1.5945438 0.9070082 0.6681996 -2.158219
0001d0 7d 3e d5 be 0a 4c 80 3f 84 bf a8 3e 37 4f 1a 3f
       -0.41649237 1.0023205 0.32958615 0.6027712
0001e0 b5 28 63 bf 0d eb d7 3e eb 02 1c 3e c9 d4 2d 3e
       -0.8873399 0.42171517 0.15235488 0.16975702
0001f0 d2 9c c7 3f 26 83 32 3f 11 0b a3 3f fb bd ac 3e
       1.5594733 0.69731367 1.2737752 0.33738694
000200 4a 54 f9 bf 05 57 8a 3e 64 d4 7e 3f 38 c9 61 bf
       -1.9478848 0.27019516 0.9954283 -0.8819766
000210 27 f2 90 bf 86 dd 39 3a 64 7a f0 3e d6 26 01 bf
       -1.1323899 0.00070901995 0.46968377 -0.50449884
000220 87 de 4b 3f fc 4a c8 3e 8f e7 d4 bf 53 8a a3 bf
       0.79636425 0.3911971 -1.6633166 -1.2776588
000230 09 b9 f1 bf 47 6a b0 bf 1b 8c 23 3e 81 67 c5 be
       -1.8884593 -1.3782433 0.15971415 -0.3855553
000240 93 75 95 bf c5 db 57 3e 91 86 98 3e e7 e1 6c 3f
       -1.1676506 0.21079929 0.29790166 0.925322
000250 22 2b 9c bf f0 13 af 3f 96 6f 46 3f 25 e8 96 3f
       -1.2200663 1.367796 0.77514017 1.1789595
000260 36 4b 43 bf b9 5e 7b bf 62 d9 df bf 0d 33 f1 bf
       -0.7628664 -0.9819141 -1.7488215 -1.8843704
000270 d3 22 33 bf 42 5e 41 3e b1 8f 57 bf a6 c2 08 bf
       -0.6997501 0.18883613 -0.8420363 -0.5342201
000280 e5 65 52 be a0 44 80 bd a0 e8 f1 3e 79 59 09 3e
       -0.20546682 -0.06263089 0.4724779 0.13413037
000290 35 f2 89 3f 95 49 8f 3d b8 f4 13 3e d6 a5 a2 bf
       1.0777041 0.069964565 0.14448822 -1.2706859
0002a0 2d c3 66 bf 4a 2e e4 be 59 d6 df bf 42 14 99 bf
       -0.90141565 -0.44566566 -1.7487289 -1.1959307
0002b0 d4 7d 93 bf c8 63 bd bf 77 ee 02 3e 90 19 9d 3e
       -1.1522775 -1.4796076 0.1278628 0.30683565
0002c0 38 ba d9 3c 3e 7a 00 bf a2 ed 25 3f c4 0a 13 bd
       0.026578054 -0.50186527 0.64815724 -0.03589894
0002d0 29 6e a4 be f2 f6 9d be ce bd 15 bf a2 38 42 bf
       -0.32115296 -0.30852467 -0.58492744 -0.75867665
0002e0 42 23 b2 bf 08 1f 1a bf 19 56 a6 be b7 5d 88 bf
       -1.391701 -0.602036 -0.32487562 -1.06536
0002f0 dc d8 6a bf 97 21 9b be 61 91 24 bd 23 2c 83 bf
       -0.9173715 -0.30299065 -0.040177707 -1.0247844
000300 01 af 58 bf 72 a5 9e bf 13 14 5d bf 45 c3 00 c0
       -0.84642035 -1.239424 -0.86358756 -2.0119183
000310 3c 4f 44 be 52 2b d8 3e 6c 69 4b c0 18 cf 20 3e
       -0.1917085 0.4222055 -3.1783094 0.15704
000320 7a 63 03 3f ad f2 aa 3c 96 fa 80 3d fa 13 f2 be
       0.51323664 0.02086767 0.062977955 -0.47280866
000330 ce 03 69 bf 43 3e 6e 3f f5 42 0d bf 1f 05 20 3e
       -0.9102143 0.93063754 -0.55180293 0.15626954
000340 77 44 97 3f e3 19 46 bf da f0 10 bf bc 09 05 40
       1.1817769 -0.7738325 -0.5661751 2.0787191
000350 3b bb cf 3f 2c b1 44 be bb f5 11 bf 4a d4 b4 bf
       1.6229013 -0.1920821 -0.5701558 -1.4127285
000360 1c 3f 48 bf f5 87 69 3f cd 9f f6 bf 34 7f d2 3f
       -0.782213 0.9122308 -1.9267517 1.6445069
000370 c8 8f 85 3c cc ac 67 40 92 98 08 40 23 08 96 3d
       0.016303912 3.6199217 2.1343122 0.07325771
000380 f1 95 88 3e 7b 85 37 be 9f 92 fc be 50 c2 db bf
       0.26676896 -0.17922013 -0.49330613 -1.7168674
000390 fb 4d 0f 3f 80 34 9d 3e 7c c0 a0 bf 7d 01 3a 3f
       0.55978364 0.30704117 -1.2558742 0.7265852
0003a0 ef 28 f9 3f ca 55 00 40 40 ee cf be 4f 73 00 3f
       1.9465617 2.0052361 -0.40611458 0.50175947
0003b0 3c de 99 3f f7 ec 2a bf 53 88 45 bf 5b 4a af bf
       1.2020946 -0.6676783 -0.7716114 -1.3694566
0003c0 55 61 f1 3e de ec 85 bf d0 a3 00 3e 30 2e 95 3f
       0.4714457 -1.0462911 0.1256249 1.165472
0003d0 d5 fb 98 3e 16 95 5a 3a 5a 0b fa 3e 19 0c b1 bf
       0.29879633 0.00083382556 0.48836786 -1.3831817
0003e0 99 27 6a be 9d 9f 1f bf 56 6e 65 bf 09 94 06 bf
       -0.22866668 -0.62352926 -0.89621484 -0.52569634
0003f0 ac 58 c7 3e 08 ce a3 be f9 50 77 be ed eb 8c bc
       0.3893484 -0.31993127 -0.24151982 -0.017202342

bias f4 [42]
000000 43 e0 40 c0 b6 63 35 40 73 88 4e 40 52 15 74 3e
       -3.0136878 2.8342109 3.2270782 0.23836258
000010 4b c4 8a 3c 5c 82 cc 3f 7f 95 42 bf cf b6 63 3f
       0.016939303 1.5977283 -0.7600936 0.8895082
000020 15 0e 0b bf 48 08 07 3e c6 62 9d 3e 9c c8 c5 3f
       -0.5431836 0.13186753 0.3073942 1.5451846
000030 b9 a7 f6 3f 9a 15 50 40 71 19 26 3f fc cd 76 c0
       1.9269935 3.2513185 0.6488257 -3.8563223
000040 5a f7 fa bf 0a 21 b0 3e d4 f2 3d 40 d5 3b ee bf
       -1.9606736 0.34400207 2.967946 -1.8612009
000050 4c e4 44 3f af 35 7b bf b2 46 96 c0 ff d4 49 be
       0.76910853 -0.9812879 -4.69613 -0.19710158
000060 36 02 88 bd 20 15 12 40 54 53 be bf 18 2f d0 bf
       -0.06641047 2.2825394 -1.486918 -1.6264372
000070 94 9e ba bf af 13 e4 bf af 3a d1 bf 71 61 46 3e
       -1.4579644 -1.7818507 -1.6346034 0.19373108
000080 fb 8f 1d bf 39 9f c3 3e 32 61 29 c0 d8 83 ce be
       -0.6154782 0.38207415 -2.6465573 -0.40334964
000090 10 8e 46 bf 52 7a 61 c0 c2 86 6c 40 62 8b 3d c0
       -0.7756052 -3.5230908 3.695725 -2.9616323
0000a0 cd 3f e0 3e 4e dc 9f bf
       0.43798676 -1.2489107
