trafficRecognitionModel.pt (torch, 37719 bytes, 6 tensors)

weight f4 [4, 1, 3, 3]
0	0xbf395736	-0.723987
1	0xbe60da96	-0.21958384
2	0xbf1a7032	-0.60327446
3	0xbf2d268e	-0.67636955
4	0xbee55538	-0.4479158
5	0xbead9af4	-0.33907282
6	0xbf504570	-0.81355953
7	0xbf0c75ea	-0.5486742
8	0xbe9246a9	-0.28569534
9	0xbebc0e3e	-0.36729616
10	0xbe93ebee	-0.28890938
11	0xbe5e02d9	-0.21680774
12	0xbe944dc7	-0.2896559
13	0xbf05b775	-0.5223306
14	0x3ce19c10	0.027540237
15	0xbe9b8248	-0.30372834
16	0xbe254328	-0.161389
17	0xbbddda74	-0.0067704264
18	0xbf26c970	-0.6515112
19	0xbf52040a	-0.82037413
20	0xc0222f3d	-2.5341332
21	0xbf0b020a	-0.54299986
22	0xbf977235	-1.1831728
23	0xc0060f89	-2.0946982
24	0xbf9cfbb9	-1.226432
25	0xbfb44625	-1.4083906
26	0xbff479e0	-1.9099693
27	0xbeb1f8ee	-0.3476023
28	0xbf27bde0	-0.655241
29	0xbe13fc0d	-0.14451618
30	0xbede6d29	-0.43442658
31	0xbe903538	-0.28165603
32	0xbef91ab0	-0.48653173
33	0xbec832aa	-0.39101154
34	0xbf178668	-0.5918946
35	0xbef46ef9	-0.47740915

bias f4 [4]
0	0x3dbf51e7	0.093417935
1	0xbdf0d82b	-0.11759981
2	0xc022d5de	-2.5443034
3	0xbe443b1d	-0.19163175

weight f4 [4, 4, 3, 3]
0	0xbe887e16	-0.26658696
1	0xbf123985	-0.5711902
2	0xbec1f0d7	-0.3787906
3	0xbee243f2	-0.44192463
4	0xbefaad77	-0.48960468
5	0xbef0fdb3	-0.47068557
6	0x3d4f3854	0.050590828
7	0x3d8cdfa6	0.06878595
8	0xbc93f2c0	-0.018060088
9	0x3dd356ea	0.10319312
10	0x3e269e0b	0.16271226
11	0x3df30a9a	0.118672565
12	0xbe224e53	-0.15850191
13	0xbdd3a7f0	-0.10334766
14	0xbd9ec270	-0.0775193
15	0x3c2add90	0.010428801
16	0xbdca6493	-0.09882464
17	0x3adace80	0.0016693622
18	0xbea31bee	-0.31857246
19	0xbe8516a9	-0.2599385
20	0xbf086125	-0.5327323
21	0xbea6fd3e	-0.32615083
22	0xbebf281b	-0.37335286
23	0xbeb6d815	-0.35711733
24	0xbe1addab	-0.15123622
25	0xbc94c9c8	-0.018162623
26	0xbd9c313e	-0.0762658
27	0xbe9c40d8	-0.30518222
28	0xbef799d2	-0.48359543
29	0xbed60a92	-0.4180494
30	0xbef3c21f	-0.4760904
31	0xbec742be	-0.38918108
32	0xbee1b97c	-0.44086826
33	0xbde318a6	-0.11088686
34	0xbe29c75a	-0.16579953
35	0x3db367aa	0.08760007
36	0x3f124d5e	0.571493
37	0xbf012c42	-0.5045816
38	0x3ec392a0	0.38197803
39	0x3ecd4e71	0.4009891
40	0xbe936b03	-0.2879258
41	0x3f021471	0.5081244
42	0xbf08fd8a	-0.5351187
43	0xbe851b60	-0.25997448
44	0xbec3ef2b	-0.38268408
45	0xbe8f212f	-0.27955005
46	0xbe961633	-0.29313812
47	0xbebb3712	-0.36565453
48	0x3d71a544	0.0589955
49	0xbef45a53	-0.47725162
50	0xbef5ed98	-0.48032832
51	0xbefb1c65	-0.490451
52	0xbeeebf12	-0.4663015
53	0xbea1d928	-0.3161099
54	0x3f9339d7	1.1502026
55	0xbf8abc38	-1.083869
56	0x3f10213a	0.563007
57	0xbf6b4cd8	-0.9191413
58	0x3efd9baf	0.4953284
59	0x3e709560	0.23494482
60	0xbef1e69f	-0.47246262
61	0x3c4c1243	0.012455526
62	0xbe8e59e1	-0.27802947
63	0x3ef48017	0.47753975
64	0xbebf6ca0	-0.37387562
65	0xbeb0c477	-0.3452489
66	0x3e99909b	0.29993138
67	0xbf098978	-0.53725386
68	0xbeda3c1c	-0.42623985
69	0xbede6c26	-0.43441886
70	0xbefc71c4	-0.49305546
71	0xbf149558	-0.5804038
72	0xbe9f7429	-0.3114331
73	0xbe621198	-0.22077024
74	0x3c710c50	0.014712408
75	0x3efcfcf4	0.49411738
76	0xbe7a37fd	-0.2443542
77	0x3ec1a97a	0.37824613
78	0xbee43607	-0.4457247
79	0xbe55357b	-0.20821182
80	0x3eb6ff87	0.35741827
81	0xbe95310d	-0.29138985
82	0xbeeb12f4	-0.45912898
83	0xbd543b16	-0.05181416
84	0x3e5e3412	0.21699551
85	0x3ec6482a	0.38726932
86	0x3ea81803	0.3283082
87	0xbee60ea3	-0.44933042
88	0x3e884c4d	0.26620713
89	0x3ece918d	0.4034542
90	0xbe90469e	-0.28178877
91	0xbfc1b292	-1.513262
92	0xbf692096	-0.9106535
93	0xbfb3ae3c	-1.4037547
94	0xbf91833e	-1.1368177
95	0xbd20350a	-0.039113082
96	0xbfa564b2	-1.2921355
97	0xbf9598e2	-1.1687281
98	0xbce11d04	-0.027479656
99	0xbe19b85e	-0.15011737
100	0xbd49c67c	-0.049261555
101	0x3d717270	0.058947027
102	0xbdca9cfe	-0.09893225
103	0x3d8fed50	0.07027686
104	0xbc030bb0	-0.007998392
105	0x3e27189d	0.16317983
106	0xbd72ac20	-0.059246182
107	0xbd0d51ec	-0.034501955
108	0xbea531c4	-0.3226453
109	0xbedfbbe1	-0.43698028
110	0xbf15d94c	-0.58534694
111	0xbf12c45f	-0.5733089
112	0xbe98e1d6	-0.298598
113	0xbedf3f6d	-0.43603078
114	0xbeaaa5c2	-0.33329588
115	0xbeabc78b	-0.33550677
116	0xbf0c5f84	-0.54833245
117	0xbee8d2cf	-0.45473334
118	0xbef67e87	-0.48143408
119	0xbeeee31e	-0.46657652
120	0xbf06cde6	-0.52657926
121	0xbef837d0	-0.48480082
122	0xbe70b688	-0.2350713
123	0xbeda7c10	-0.42672777
124	0xbe7a2202	-0.24427035
125	0xbdefa23b	-0.11700865
126	0xbed8a45a	-0.4231289
127	0xbf03ebcb	-0.51531667
128	0xbed523cd	-0.41628876
129	0xbed4a99e	-0.41535658
130	0xbef680ff	-0.4814529
131	0xbef12bae	-0.47103637
132	0xbefb2be2	-0.49056917
133	0xbf3f6912	-0.747697
134	0xbf106369	-0.5640169
135	0xbe861f2a	-0.2619565
136	0xbe83f483	-0.25772485
137	0xbecf4a99	-0.404866
138	0xbeb8dea5	-0.36107364
139	0xbeeb8161	-0.45997146
140	0xbe8297f0	-0.25506544
141	0xbf10d19c	-0.5656984
142	0xbeddddcc	-0.4333328
143	0xbe9e6b35	-0.30941167

bias f4 [4]
0	0xbeffd489	-0.4996684
1	0xbf79c63f	-0.97568125
2	0xbf4bcf10	-0.7961283
3	0xbf01e63c	-0.50741935

weight f4 [42, 196]
0	0x3d286346	0.0411103
1	0x3d145006	0.03620913
2	0x3d8c716f	0.06857573
3	0xbca20c18	-0.019781157
4	0x3b3fbd00	0.002925694
5	0x3d29a6b2	0.04141874
6	0xbd3837ce	-0.044975094
7	0x3d6ff04a	0.058578767
8	0x3cc86164	0.024460502
9	0xbca78f26	-0.020454
10	0x3d8d2d13	0.06893363
11	0xbd4ead6c	-0.050458357
12	0xbd2715ce	-0.04079228
13	0x3d0990aa	0.033585228
14	0x3d7a1e0e	0.06106382
15	0xbd26f1e8	-0.040758044
16	0xbd0bc6a3	-0.03412498
17	0xbb716ca0	-0.0036838427
18	0x3c0d67f8	0.008630745
19	0xbd0242f5	-0.031802136
20	0xbd6d280a	-0.057899512
21	0x3d88e701	0.066846855
22	0x3cd9e89c	0.026600175
23	0x3d3a70f0	0.04551786
24	0xbd801c50	-0.062554
25	0x3c92c374	0.017915465
26	0x3cc53994	0.024075307
27	0x3cc74b34	0.024327852
28	0xbcafbda0	-0.021452725
29	0xbd881c7e	-0.066460595
30	0x3d01052a	0.031499065
31	0x3d835703	0.064130805
32	0x3cd7e4d4	0.026354231
33	0x3c2fcf90	0.010730639
34	0x3d159178	0.036515683
35	0x3cd7185c	0.026256733
36	0xb91f5000	-0.00015193224
37	0x3ca9c2b4	0.020722724
38	0xbd849bc3	-0.06475022
39	0xbd162f07	-0.036665943
40	0xbd8b6c46	-0.06807761
41	0xbd855504	-0.06510356
42	0xbec1c9bc	-0.37849224
43	0xbec42b16	-0.38314122
44	0xbee7a5f2	-0.45243794
45	0xbec927d8	-0.3928821
46	0xbef05faa	-0.46947986
47	0xbeb820a6	-0.3596241
48	0xbec5bd4d	-0.38620988
49	0xbec2433a	-0.37941915
50	0xbedbfb75	-0.42965284
51	0xbed8d3be	-0.42349046
52	0xbedf877d	-0.43658057
53	0xbebb2713	-0.3655325
54	0xbeedafba	-0.4642313
55	0xbeb885fe	-0.36039728
56	0xbeec3d8f	-0.46140715
57	0xbee51f08	-0.44750237
58	0xbeeca9ad	-0.46223202
59	0xbecc6260	-0.39918804
60	0xbecf81ab	-0.40528616
61	0xbf07a913	-0.5299236
62	0xbee02de9	-0.43785027
63	0xbeea80d9	-0.45801428
64	0xbef1ecb2	-0.47250897
65	0xbed52df9	-0.41636637
66	0xbfac19cf	-1.3445376
67	0xbee86717	-0.4539115
68	0xbebdea74	-0.37092936
69	0xbee2ef7f	-0.44323346
70	0xbee233f8	-0.44180274
71	0xbec115a6	-0.3771183
72	0xbfc93292	-1.5718558
73	0xbed66d02	-0.4188004
74	0xbec8a47a	-0.39187986
75	0xbeb6f3bc	-0.3573283
76	0xbec792f9	-0.3897932
77	0xbed984bd	-0.42484084
78	0xbee40542	-0.4453526
79	0xbfbd26fc	-1.4777522
80	0xbefacd64	-0.48984826
81	0xbee694a3	-0.45035276
82	0xbf1b97fc	-0.60778785
83	0xbeb8ac64	-0.36069024
84	0xbefa6c47	-0.48910734
85	0xbecf51d1	-0.40492108
86	0xbec1040b	-0.37698397
87	0xbf0f2895	-0.559213
88	0xbeed1870	-0.46307707
89	0xbfb77990	-1.4333973
90	0xbec839f6	-0.3910672
91	0xbed753d0	-0.4205613
92	0xbed9b473	-0.42520484
93	0xbf88809c	-1.0664248
94	0xbee9ac9e	-0.4563951
95	0xbeb4ca11	-0.35310414
96	0xbec35e40	-0.38157845
97	0xbef24a16	-0.47322148
98	0xbff8f98f	-1.9451159
99	0xbf836246	-1.0264366
100	0xbf8b812a	-1.0898793
101	0xbfb82606	-1.4386604
102	0xbfbf90eb	-1.49661
103	0xbea6a3e6	-0.3254692
104	0xbec4e3d0	-0.38455057
105	0xbf877072	-1.058119
106	0x3ced4ac4	0.028966315
107	0x3ca13a70	0.019681185
108	0x3d72225e	0.059114806
109	0xbd852106	-0.06500439
110	0x3d06eefa	0.03294275
111	0xbebd3a3f	-0.369585
112	0xbf8d81e1	-1.1055261
113	0xbcb75f5c	-0.022384338
114	0xbd052813	-0.03250892
115	0x3c956424	0.018236227
116	0xba5a4700	-0.000832662
117	0x3d5b1942	0.053490885
118	0xbeadc4de	-0.3393926
119	0xbf909245	-1.1294638
120	0x3d8c9cdb	0.06865855
121	0xbd107ea0	-0.03527701
122	0xbd74f03e	-0.059799425
123	0x3c47a648	0.012185641
124	0xbd524430	-0.05133456
125	0xbed2a832	-0.41143948
126	0xbf8737ca	-1.05639
127	0x3d7b0dce	0.061292462
128	0x3d7ed77e	0.062217228
129	0x3a9f6d80	0.0012163371
130	0x3d91b817	0.071151905
131	0xbbf7b190	-0.007559009
132	0xbec0576c	-0.37566698
133	0xbfbcb537	-1.4742802
134	0x3d51b568	0.051198393
135	0xbd5c0fec	-0.05372612
136	0xbcf5856e	-0.02997085
137	0x3d6c6ea6	0.05772271
138	0xbca11fd2	-0.019668493
139	0xbecfe1c2	-0.40601927
140	0xbfb3bcf3	-1.4042038
141	0xbd62cb48	-0.055369645
142	0xbd83918e	-0.06424247
143	0xbd181da7	-0.037137654
144	0xbd6d7623	-0.057973992
145	0xbc035110	-0.008014932
146	0xbe9d97c0	-0.3077984
147	0xbf182e27	-0.5944542
148	0xbef69389	-0.48159435
149	0xbeb6e3d9	-0.3572071
150	0xbebe6e73	-0.3719364
151	0xbef84fbf	-0.4849834
152	0xbed5dec1	-0.4177151
153	0xbec7b092	-0.390019
154	0xbeda1347	-0.42592832
155	0xbec6c1ea	-0.3881982
156	0xbef6ce04	-0.48204052
157	0xbef22d2c	-0.47300088
158	0xbec934f1	-0.39298204
159	0xbeb9217c	-0.3615836
160	0xbef46664	-0.47734368
161	0xbeb9e53f	-0.36307713
162	0xbed83b68	-0.42232823
163	0xbedfb4e2	-0.4369269
164	0xbece7480	-0.40323257
165	0xbed7ee5e	-0.42174047
166	0xbeb92537	-0.36161205
167	0xbef3eeb7	-0.47643062
168	0xbebf43c2	-0.37356383
169	0xbecf1d8e	-0.40452236
170	0xbeeee14f	-0.46656272
171	0xbed531e8	-0.41639638
172	0xbecb9a7d	-0.39766303
173	0xbec60e2d	-0.3868269
174	0xbefa2cd4	-0.48862326
175	0xbef091e1	-0.46986297
176	0xbedc6ebb	-0.4305323
177	0xbeba3c12	-0.36373955
178	0xbee45136	-0.4459321
179	0xbefa5256	-0.48890942
180	0xbee107be	-0.4395122
181	0xbed43c61	-0.41452315
182	0xbee4e71c	-0.44707572
183	0xbed0954a	-0.407389
184	0xbeefc80a	-0.46832305
185	0xbef57906	-0.47943896
186	0xbec8aa36	-0.3919236
187	0xbed50ca9	-0.4161122
188	0xbed086e0	-0.407279
189	0xbeef2d41	-0.46714213
190	0xbec3f9be	-0.38276476
191	0xbedbe0c6	-0.42944926
192	0xbeb99727	-0.36248133
193	0xbec9a7be	-0.3938579
194	0xbec1640b	-0.3777164
195	0xbeb915f4	-0.3614956
196	0xbd5ab1bc	-0.053392157
197	0x3d83e91d	0.06440947
198	0x3d42ea18	0.04758653
199	0xbd79800c	-0.06091313
200	0x3aa1cb80	0.0012343973
201	0x3d6f0562	0.058354743
202	0x3cbac97c	0.022801153
203	0xbd064820	-0.032783628
204	0x3b9b6770	0.0047425553
205	0x3c1da6e8	0.009622313
206	0x3d83221b	0.064029895
207	0xbd578423	-0.05261625
208	0xbd1a310a	-0.037644424
209	0xbd72a081	-0.0592351
210	0x3d325c6a	0.043545164
211	0xbcef2dbc	-0.029196613
212	0x3c1d9758	0.009618603
213	0x3d0fe79e	0.035132997
214	0x3d89c2d3	0.06726613
215	0xbcdf5798	-0.027263448
216	0x3d261420	0.040546536
217	0x3d4d15d0	0.05006963
218	0xba9006c0	-0.001098834
219	0x3d4309ea	0.047616877
220	0x3ca407e4	0.020023294
221	0xbb1886c0	-0.0023273677
222	0xbd8e485c	-0.06947395
223	0x3d733456	0.059376083
224	0x3d833591	0.06406701
225	0x3d90cf23	0.07070758
226	0xbd01a017	-0.031646814
227	0xbc24aeb8	-0.010051422
228	0xbd22c5fc	-0.039739594
229	0xbbe09c30	-0.0068545565
230	0xbd3fc280	-0.04681635
231	0x3cdbcd58	0.026831314
232	0x3d1dfb58	0.03856978
233	0xbccc6646	-0.024951112
234	0xbd9034f0	-0.07041347
235	0x3d8ee37f	0.06976985
236	0xbd0241d5	-0.031801064
237	0xbc4c4600	-0.012467861
238	0xbee0dc67	-0.43918154
239	0xbec01df8	-0.37522864
240	0xbec1ecf7	-0.37876102
241	0xbee21ba0	-0.441617
242	0xbee9c776	-0.4565999
243	0xbecfe748	-0.4060614
244	0xbeda12cb	-0.42592463
245	0xbebae0d6	-0.3649966
246	0xbed4ed51	-0.41587308
247	0xbec2bb0e	-0.38033336
248	0xbebf192e	-0.37323898
249	0xbeeecb51	-0.46639493
250	0xbef1742f	-0.47158954
251	0xbecc8610	-0.39946032
252	0xbeb64237	-0.35597393
253	0xbec917ae	-0.3927588
254	0xbeb74372	-0.35793644
255	0xbef6f829	-0.48236206

bias f4 [42]
0	0xc0a47ca0	-5.140213
1	0xbf52a3c9	-0.82281166
2	0xbfc6c54c	-1.552896
3	0xbffa410c	-1.9551101
4	0xbfa8fba5	-1.3201796
5	0xbf8a0e42	-1.0785601
6	0xc02d083b	-2.7036273
7	0xc01df3c2	-2.4680028
8	0xc00cca54	-2.1998491
9	0xc01616b9	-2.345137
10	0xbfd03bbd	-1.6268231
11	0xc00033a1	-2.0031512
12	0xc017dbf6	-2.3728004
13	0xbffdd2c4	-1.9829946
14	0xc0587b3d	-3.3825219
15	0xc06a485a	-3.660666
16	0xc0412140	-3.0176544
17	0xc022791e	-2.5386424
18	0xc028fef5	-2.6405613
19	0xc08a95a2	-4.3307657
20	0xc0653d09	-3.5818503
21	0xc08c6128	-4.38686
22	0xc0834f9e	-4.103469
23	0xc03c3a4a	-2.9410577
24	0xc055b549	-3.3391898
25	0xbfeedb45	-1.8660666
26	0xc04f8858	-3.2426968
27	0xc0288bff	-2.6335447
28	0xc039d55c	-2.9036474
29	0xc03242da	-2.7853303
30	0xc0530a91	-3.29752
31	0xc05f34f7	-3.4876077
32	0xc0857ea2	-4.171708
33	0xc040d071	-3.0127223
34	0xc05e7476	-3.4758582
35	0xc01e8bcd	-2.4772828
36	0xc0543529	-3.3157446
37	0xc0897293	-4.295236
38	0xc007fba9	-2.124735
39	0xc005ce36	-2.090711
40	0xc06d857a	-3.7112718
41	0xc063a5b7	-3.5569894
