trafficRecognitionModel.pt (torch, 102799 bytes, 8 tensors)

weight f4 [4, 3, 3, 3]
-0.10882445 -0.21387014 -0.059265956 0.003637579 0.10273925 0.19151585 -0.13960308 0.046062063
0.05271763 -0.02100602 -0.033100884 -0.15011159 0.031045286 0.13054812 0.2352945 -0.046576098
-0.0578315 0.24934417 -0.18872729 0.0057412167 0.05737861 0.025935916 0.08010678 0.12489938
0.059344582 -0.08467259 -0.004179069 0.09756956 0.059188366 0.41587675 -0.14795001 -0.28110108
0.0785894 0.28222725 -0.31933686 0.054534245 0.035758696 -0.07102902 0.15146674 0.09550307
-0.068763085 -0.07888562 0.1367711 -0.29297352 -0.073138185 0.2634265 -0.006107321 -0.052941773
0.048950046 -0.15646756 -0.3290565 0.27587464 -0.21841894 0.14376716 -0.37370244 -0.19170897
0.21698992 -0.544692 -0.34589624 0.30309948 0.0077359276 -0.06861263 0.38490805 -0.31239063
-0.32806474 0.1696893 -0.557707 -0.25972816 0.098098375 0.26662388 0.07226499 0.53860474
-0.00023518928 0.034605164 0.4254237 0.04121867 -0.21261853 0.06410911 0.5225758 0.16520819
0.08455276 0.13026257 0.190607 0.36813632 -0.22413681 0.0018573597 0.14093474 -0.4011234
-0.25562432 -0.4773195 -0.04818885 0.26432937 0.39650723 -0.2557017 0.0859768 0.021911234
-0.18222721 -0.28756365 -0.27142674 0.054547872 0.32625762 0.34336904 -0.082063355 0.11924046
0.30034336 0.035851587 -0.32799602 -0.23441164
00000000: 5adf debd c600 5bbe dcc0 72bd 7364 6e3b
00000010: f568 d23d bb1c 443e 1cf4 0ebe 93ab 3c3d
00000020: 71ee 573d d114 acbc cb94 07bd dab6 19be
00000030: af52 fe3c 68ae 053e 0bf1 703e 94c6 3ebd
00000040: b9e0 6cbd 1454 7f3e ba41 41be d120 bc3b
00000050: d505 6b3d 8f77 d43c 060f a43d 3fcb ff3d
00000060: 4e13 733d d368 adbd 92f0 88bb 8dd2 c73d
00000070: 806f 723d cced d43e 3580 17be 7bec 8fbe
00000080: 7bf3 a03d 1780 903e 1f80 a3be 4d5f 5f3d
00000090: b677 123d aa77 91bd 191a 1b3e 1d97 c33d
000000a0: a9d3 8cbd c98e a1bd b90d 0c3e a000 96be
000000b0: 79c9 95bd d7df 863e ec1f c8bb 79d9 58bd
000000c0: d87f 483d 0839 20be 187a a8be 713f 8d3e
000000d0: 37a9 5fbe b337 133e ed55 bfbe 5b4f 44be
000000e0: 9b32 5e3e ef70 0bbf 5019 b1be db2f 9b3e
000000f0: aa7d fd3b c784 8cbd ab12 c53e aaf1 9fbe
00000100: 1af8 a7be 08c3 2d3e e3c5 0ebf 17fb 84be
00000110: cde7 c83d ed82 883e abff 933d 00e2 093f
00000120: 249d 76b9 25be 0d3d 23d1 d93e e8d4 283d
00000130: acb8 59be a34b 833d 87c7 053f 562c 293e
00000140: ff29 ad3d 8d63 053e 7b2e 433e 5d7c bc3e
00000150: 1f84 65be a672 f33a 3251 103e 0c60 cdbe
00000160: 31e1 82be 3963 f4be ac61 45bd 2e56 873e
00000170: ff02 cb3e 55eb 82be 9b14 b03d 307f b33c
00000180: c599 3abe 8b3b 93be 72f8 8abe 976d 5f3d
00000190: 3d0b a73e 11ce af3e d510 a8bd 5834 f43d
000001a0: 9bc6 993e 1dd9 123d 18ef a7be 9b09 70be

bias f4 [4]
-0.25386372 0.06212838 0.13536106 0.24842916
00000000: 6dfa 81be 547a 7e3d 179c 0a3e 3764 7e3e

weight f4 [4, 4, 3, 3]
0.3066428 -0.08877877 0.43695235 0.24834569 0.32571027 0.73654586 -0.18453199 0.30878165
0.26798385 0.1402415 0.2876498 -0.13953403 0.34193307 -0.47737065 -0.26551417 0.098175205
-0.6015105 -0.2629492 -0.06668062 -0.0041263 0.1363227 0.12059187 -0.3739739 -0.19061586
0.058180794 -0.028602257 -0.16569935 0.047078975 -0.1774242 -0.66503066 0.30795842 -0.07075122
0.18539359 0.33799756 0.27271333 -0.14792877 -0.6293876 -0.44989604 -0.23130481 -0.27707392
-0.69588184 -0.45451543 0.011310396 0.15008724 0.19141719 0.79183906 1.2566459 0.11211401
0.55330426 1.1351672 0.089847244 -0.40688458 -0.27713105 -0.9095932 0.48471615 0.28418154
0.27081588 0.07063417 0.2382376 0.4465898 -0.40944216 0.026823714 -0.11061253 0.043825503
0.30144322 0.053233836 -0.26512787 -0.14036934 0.20046823 -0.52003086 -0.31595188 -0.18457
-0.21287248 -0.36326295 0.50015587 -0.3511295 -0.2241311 0.57777166 -0.29310527 -0.11350009
-0.071898036 0.170904 -0.030122062 -0.68170166 0.4944992 0.09112586 -0.9878091 0.6945113
0.2423574 0.21905299 -0.0733588 -0.14218953 -0.1768817 -0.09148198 0.23915932 -0.16911393
0.25875974 0.4962064 0.16846661 0.044743612 0.17869654 -0.00019412488 -0.20424448 0.15066436
0.6223847 -0.2398941 -0.060190853 0.6775406 -0.23587717 -0.15619463 -0.2692167 -0.019862352
-0.14858416 -0.8675006 0.6966896 0.09124637 -0.30018964 0.6163868 0.2393273 0.3119543
0.3438923 0.32960284 0.80879676 -0.26748708 -0.22018428 0.7749958 0.21954578 0.47197947
0.15751934 0.53159 -0.010750008 -0.033062737 0.43057477 -0.14869364 0.01941956 -0.07698895
-0.1428856 0.20868129 -0.27948478 -0.31923828 0.22323212 -0.005273485 -0.21198197 -0.099588886
00000000: 4900 9d3e a5d1 b5bd 38b8 df3e 554e 7e3e
00000010: 7fc3 a63e 458e 3c3f f4f5 3cbe a118 9e3e
00000020: 2e35 893e 789b 0f3e d646 933e 02e2 0ebe
00000030: da11 af3e ed69 f4be 79f1 87be 1510 c93d
00000040: 98fc 19bf 47a1 86be d98f 88bd ea35 87bb
00000050: 2e98 0b3e dff8 f63d 8279 bfbe ce30 43be
00000060: fc4e 6e3d 484f eabc 17ad 29be e2d5 403d
00000070: b1ae 35be 733f 2abf baac 9d3e 04e6 90bd
00000080: d1d7 3d3e 040e ad3e 15a1 8b3e a47a 17be
00000090: 8c1f 21bf c658 e6be 2bdb 6cbe a2dc 8dbe
000000a0: 5025 32bf 3fb6 e8be 3d4f 393c 78b0 193e
000000b0: de02 443e f7b5 4a3f c6d9 a03f 089c e53d
000000c0: 59a5 0d3f 294d 913f d501 b83d 2d53 d0be
000000d0: 1fe4 8dbe 1adb 68bf b72c f83e 3e80 913e
000000e0: 61a8 8a3e a6a8 903d 8ff4 733e 6ba7 e43e
000000f0: 67a2 d1be 68bd db3c d288 e2bd 5f82 333d
00000100: c456 9a3e b90b 5a3d d7be 87be fbbc 0fbe
00000110: 8b47 4d3e be20 05bf 72c4 a1be ebff 3cbe
00000120: 3efb 59be 9afd b9be 370a 003f 3fc7 b3be
00000130: a082 65be d8e8 133f e511 96be bc72 e8bd
00000140: 473f 93bd 7501 2f3e 8bc2 f6bc 0084 2ebf
00000150: 002f fd3e 32a0 ba3d 0fe1 7cbf 7ecb 313f
00000160: 8a2c 783e 6d4f 603e 233d 96bd 229a 11be
00000170: 7a20 35be e85a bbbd 2ee6 743e 342c 2dbe
00000180: 287c 843e c40e fe3e 8382 2c3e 1445 373d
00000190: 3afc 363e 008e 4bb9 7725 51be c247 1a3e
000001a0: 9b54 1f3f cda6 75be af8a 76bd 4d73 2d3f
000001b0: c989 71be 7cf1 1fbe c5d6 89be 5fb6 a2bc
000001c0: 7226 18be 8514 5ebf 405a 323f 60df ba3d
000001d0: 75b2 99be 86cb 1d3f 3712 753e 79b8 9f3e
000001e0: a712 b03e b4c1 a83e 4e0d 4f3f 11f4 88be
000001f0: fd77 61be 2066 463f 9cd0 603e 4ba7 f13e
00000200: c04c 213e 4816 083f cd20 30bc cb6c 07bd
00000210: 4c74 dc3e 2543 18be c515 9f3c 62ac 9dbd
00000220: 9a50 12be 8cb0 553e a118 8fbe 3373 a3be
00000230: f696 643e 33cd acbb cd11 59be 42f5 cbbd

bias f4 [4]
0.31106392 -0.7564266 -0.6035345 -0.7628209
00000000: c543 9f3e 2ca5 41bf 3d81 1abf 3b48 43bf

weight f4 [4, 4, 3, 3]
0.21956739 -0.23057644 -0.28555954 -0.043903068 0.069684215 -0.2054821 -0.020999808 -0.27220705
0.06289844 0.15061107 0.03184995 -0.09283 0.19513547 -0.5260799 0.24369512 0.07950584
-0.64404625 0.66960794 -0.51358736 -0.111025885 0.34452537 0.06734762 -0.3082834 0.12912177
0.4507613 -0.6046289 0.7153139 0.028826568 0.050199572 -0.37275296 0.2303187 -0.0029433747
-0.20713376 -0.101784974 0.05689382 -0.23198253 -0.5252847 -0.263934 -0.3675297 -0.22034547
-0.11470043 -0.111506775 0.19895437 0.048420012 0.15685193 0.074988835 -0.11021685 -0.62722474
0.39710864 0.013846507 0.050662562 -0.072329976 -0.24859025 -0.02565161 0.1144107 0.37246332
0.7328579 -0.33304808 -0.59510016 -0.112070106 0.07680246 0.12177987 -0.9464646 -0.10990528
0.030102758 -0.67186314 0.36621743 0.282619 0.12870724 0.3524319 -0.21009982 -0.102438845
0.37952742 0.071576014 -0.34589717 -0.32361042 -0.31761333 0.00033168079 -0.43540716 -0.4607231
-0.41993022 -0.03637295 -0.06002126 0.07777728 -0.35567373 -0.13521841 0.22009893 -0.61417323
-0.3808011 0.24772781 -0.12819488 -0.15704283 0.06349595 0.15148309 -0.29667333 -0.47097802
0.6510172 0.7467356 -0.48090068 0.94681257 0.4593537 0.2703113 0.24047469 -0.012822457
0.19775306 -0.5347099 -0.9340962 -0.6697494 -0.21781577 -0.4507469 -0.48929834 -0.83371377
0.047975313 0.40357903 -0.07850344 0.20920193 0.18721016 -0.3372133 -0.40522978 0.29678783
-0.20657124 -0.11463449 0.22401167 0.09786389 -0.14423843 0.32896006 -0.2553158 -0.27562195
-0.036352918 -0.7958165 0.25031632 -0.02795622 -0.47401494 0.54801553 0.32062384 0.6404584
-0.27167395 -0.2892369 0.27645507 -0.8231339 0.0015629483 -0.60138154 -0.08117842 0.7371451
00000000: 46d6 603e 3b1c 6cbe dc34 92be b4d3 33bd
00000010: 99b6 8e3d e669 52be ca07 acbc b95e 8bbe
00000020: e6d0 803d ca39 1a3e 1875 023d a81d bebd
00000030: 98d1 473e 2cad 06bf 378b 793e f5d3 a23d
00000040: 37e0 24bf 6d6b 2b3f 767a 03bf 8a61 e3bd
00000050: a165 b03e 8ded 893d 52d7 9dbe 7f38 043e
00000060: 2fca e63e f6c8 1abf d01e 373f b225 ec3c
00000070: 119e 4d3d 7ad9 bebe aad8 6b3e a2e5 40bb
00000080: df1a 54be a474 d0bd 7f09 693d d48c 6dbe
00000090: 0f79 06bf 5b22 87be da2c bcbe 3ea2 61be
000000a0: 0fe8 eabd aa5d e4bd b2ba 4b3e 1054 463d
000000b0: cb9d 203e bf93 993d 5fb9 e1bd cd91 20bf
000000c0: d351 cb3e 76dc 623c 8c83 4f3d bd21 94bd
000000d0: 718e 7ebe 5323 d2bc 2850 ea3d 83b3 be3e
000000e0: 939c 3b3f 4785 aabe 7c58 18bf 0385 e5bd
000000f0: 9c4a 9d3d b967 f93d 814b 72bf 0516 e1bd
00000100: 0f9a f63c 39ff 2bbf da80 bb3e 70b3 903e
00000110: d5cb 033e f471 b43e 6824 57be 75cb d1bd
00000120: 6b51 c23e 7296 923d 6f19 b1be 44b0 a5be
00000130: 379e a2be 71e5 ad39 b0ed debe e6e3 ebbe
00000140: 1801 d7be cdfb 14bd dad8 75bd b249 9f3d
00000150: de1a b6be b276 0abe 9d61 613e 753a 1dbf
00000160: 5df8 c2be 5cac 7d3e 8545 03be d6cf 20be
00000170: 2a0a 823d 621e 1b3e 91e5 97be 0824 f1be
00000180: 10a9 263f 102a 3f3f 9d38 f6be 4f62 723f
00000190: 6830 eb3e 3e66 8a3e ff3e 763e 4815 52bc
000001a0: c77f 4a3e bfe2 08bf ee20 6fbf b274 2bbf
000001b0: 190b 5fbe 4cc8 e6be 5085 fabe 446e 55bf
000001c0: c381 443d e9a1 ce3e 69c6 a0bd 0839 563e
000001d0: 05b4 3f3e 39a7 acbe 477a cfbe 93f4 973e
000001e0: 6987 53be 7dc5 eabd 5163 653e dd6c c83d
000001f0: 3db3 13be 746d a83e c1b8 82be 521e 8dbe
00000200: cce6 14bd a1ba 4bbf 7629 803e 7104 e5bc
00000210: 16b2 f2be bf4a 0c3f cf28 a43e 15f5 233f
00000220: d918 8bbe dc16 94be 858b 8d3e e7b8 52bf
00000230: d8db cc3a 24f4 19bf df40 a6bd 8bb5 3c3f

bias f4 [4]
-0.5049596 -0.6608383 -0.86965203 -0.7404054
00000000: 0845 01bf b32c 29bf 84a1 5ebf 358b 3dbf

weight f4 [42, 576]
-1.1899405 -0.123822495 -0.53250086 -2.5101728 1.0577682 -0.2482609 2.5707593 -0.33066362
-2.1948416 -0.28421 -0.47942385 0.31562212 0.034907468 1.3681818 -0.7112213 1.3802723
1.9416333 -1.0592033 2.110403 1.0328189 -0.077684 -0.0691673 0.5652565 1.0325342
-1.3278654 -1.0076562 -0.42140326 0.03759192 0.87311596 -0.22461563 -0.55605674 0.8310011
1.8535975 1.0750599 -0.3026516 1.0151447 -0.32463905 0.4181152 0.7212356 -0.5989816
-0.0019961712 -2.4586473 -0.43772548 0.3585811 1.59766 0.6444584 0.13608223 0.8292284
0.24122071 -0.1403822 0.9836409 -0.26322556 1.3418181 -1.5052782 2.2778816 1.4729682
0.48490012 0.6239754 1.5637958 0.13641112 0.9042582 0.56987774 0.95676553 -2.0626633
-2.4110656 1.8796928 1.4468087 0.39960393 1.2891903 1.1032554 -0.16945039 0.20419155
0.2450013 -0.17394015 0.54633534 -0.26256874 2.4536638 0.77295893 3.340422 0.48651788
2.8809226 0.57248056 0.3418246 0.17343326 0.22837166 -0.98881805 0.7833818 2.7432902
2.192535 -2.5078316 4.8997593 -0.50315547 1.1579962 0.48222482 0.09340779 -0.016881065
-1.3419675 0.57821405 0.8606206 0.599504 0.023489166 -1.741055 0.23338202 1.4379123
-2.0639246 -0.20718458 -1.0669763 0.30215415 0.29800978 1.9030672 0.47738564 0.35992935
-0.3778546 -1.972166 0.30349037 -0.32539582 2.0300725 -2.2949772 -0.3768755 1.1999378
1.2766953 0.36441955 0.47583267 1.5761473 0.37326905 0.19963883 0.10980173 -1.0603935
1.5875272 0.0063630915 -0.2036635 1.2499664 0.28660607 0.34606186 1.4917989 -0.0411418
0.56217515 0.73404664 1.8602035 1.6640105 1.0830555 1.1154257 -0.09074993 -0.72207224
0.15495752 -0.2624021 -0.5028729 0.25821584 1.1525811 0.20990579 0.1776923 -0.94577783
0.502186 1.1593684 0.71531 -0.49212086 -0.24551283 -0.35226595 1.1377019 1.152036
0.7417768 0.34161848 -0.14689304 0.31004453 0.55391073 -0.07997667 -0.5988547 0.008898133
0.23178107 -0.3193294 -0.08600699 0.42060232 0.52924037 0.68128294 0.41482377 -0.47243756
0.10433901 0.29273152 0.4416697 0.6617771 -0.0958524 -0.83888453 -0.6692737 -1.3691088
-1.3842981 -0.19230293 -0.2942619 -0.16761836 -0.9333816 0.06628152 -0.16811176 -0.017034229
0.5954044 0.14237289 -0.33047456 -0.7743007 1.5655642 0.24884212 -1.0888494 0.6015882
0.69341344 -0.32896227 -0.11695859 -1.2275187 0.38545504 0.62886363 0.20648725 0.277988
2.619255 3.6480625 -1.4935825 0.12358705 1.0431017 -0.2802074 0.5020835 -0.0023631945
0.9217098 0.47438318 -0.30996683 -2.6019044 -4.0272403 -1.0435447 1.171237 -1.0313011
-0.69013464 -0.65286905 -0.015601081 -0.45159006 0.59305 0.5851635 -0.8427997 -1.2264264
-0.9534229 -0.98879623 -1.7256008 -1.0826974 -0.33281118 -0.37445667 -0.1429513 -0.94935936
0.0127376765 -0.5868482 -0.32881844 0.86145186 1.8354604 3.3091378 1.0663819 1.0547711
0.7754537 -0.977865 0.29649022 0.192076 0.32723224 0.26328686 -0.7976016 0.9887761
00000000: f84f 98bf a696 fdbd fa51 08bf aca6 20c0
00000010: f364 873f 1b38 7ebe 5287 2440 be4c a9be
00000020: 4978 0cc0 f983 91be 0b77 f5be 3999 a13e
00000030: 22fb 0e3d 9520 af3f 9912 36bf c3ac b03f
00000040: 7187 f83f f993 87bf d810 0740 6933 843f
00000050: ca18 9fbd 96a7 8dbd a6b4 103f 152a 843f
00000060: 7ef7 a9bf e1fa 80bf 2bc2 d7be fcf9 193d
00000070: 8784 5f3f a401 66be bc59 0ebf 7dbc 543f
00000080: af42 ed3f 909b 893f 27f5 9abe 43f0 813f
00000090: 1737 a6be 3213 d63e e5a2 383f dc56 19bf
000000a0: 32d2 02bb 7a5a 1dc0 8e1d e0be f197 b73e
000000b0: 1f80 cc3f 3afb 243f 2459 0b3e 5048 543f
000000c0: 9002 773e 5ac0 0fbe e4cf 7b3f 80c5 86be
000000d0: b2c0 ab3f f5ac c0bf d0c8 1140 398a bc3f
000000e0: d444 f83e dabc 1f3f 762a c83f 5baf 0b3e
000000f0: 777d 673f 82e3 113f 96ee 743f ad02 04c0
00000100: e64e 1ac0 c699 f03f 0731 b93f e398 cc3e
00000110: 3004 a53f 7937 8d3f 6784 2dbe 9717 513e
00000120: 9fe1 7a3e 5e1d 32be a2dc 0b3f 696f 86be
00000130: d408 1d40 a3e0 453f 79c9 5540 df18 f93e
00000140: 0961 3840 168e 123f a203 af3e 7d98 313e
00000150: 43da 693e 2e23 7dbf b68b 483f 1192 2f40
00000160: 7e52 0c40 5080 20c0 d4ca 9c40 ccce 00bf
00000170: 3839 943f 2ce6 f63e 954c bf3d 294a 8abc
00000180: 97c5 abbf d605 143f a251 5c3f 1879 193f
00000190: 5a6c c03c e4da debf b2fb 6e3e 830d b83f
000001a0: 5717 04c0 3228 54be ae92 88bf f3b3 9a3e
000001b0: bd94 983e b597 f33f e46b f43e a948 b83e
000001c0: 2876 c1be ef6f fcbf 1763 9b3e 489a a6be
000001d0: b5ec 0140 e8e0 12c0 d3f5 c0be 9097 993f
000001e0: c06a a33f 3395 ba3e 57a0 f33e 32bf c93f
000001f0: 1f1d bf3e 1f6e 4c3e bbdf e03d f9ba 87bf
00000200: 1734 cb3f 7b81 d03b 2a8d 50be e6fe 9f3f
00000210: 08be 923e 052f b13e 44f3 be3f 4e84 28bd
00000220: b6ea 0f3f 7bea 3b3f 261b ee3f 4cfe d43f
00000230: 90a1 8a3f 45c6 8e3f 19db b9bd bad9 38bf
00000240: 2fad 1e3e 9159 86be 47bc 00bf de34 843e
00000250: c787 933f 8bf1 563e f8f4 353e 7f1e 72bf
00000260: 438f 003f 2f66 943f 8e1e 373f 44f7 fbbe
00000270: b767 7bbe 345c b4be 37a0 913f ea75 933f
00000280: 16e5 3d3f 9ee8 ae3e 216b 16be 28be 9e3e
00000290: 18cd 0d3f cfca a3bd 8b4e 19bf 7ac9 113c
000002a0: 0458 6d3e 257f a3be 6f24 b0bd 3059 d73e
000002b0: 4c7c 073f 8f68 2e3f c863 d43e 56e3 f1be
000002c0: b1af d53d e8e0 953e 8822 e23e 396a 293f
000002d0: 434e c4bd 23c1 56bf 8555 2bbf f53e afbf
000002e0: ae30 b1bf 0feb 44be 7fa9 96be 26a4 2bbe
000002f0: 19f2 6ebf 9bbe 873d 7d25 2cbe 5e8b 8bbc
00000300: 6c6c 183f 33ca 113e f633 a9be 9238 46bf
00000310: 6864 c83f 78d0 7e3e 6b5f 8bbf af01 1a3f
00000320: 8b83 313f be6d a8be fc87 efbd 551f 9dbf
00000330: 5d5a c53e 35fd 203f 6571 533e 7154 8e3e
00000340: e0a1 2740 db79 6940 b62d bfbf 351b fd3d
00000350: 5b84 853f 5877 8fbe 8b88 003f d3df 1abb
00000360: 2cf5 6b3f 5ae2 f23e f9b3 9ebe 9a85 26c0
00000370: 27df 80c0 df92 85bf 18eb 953f ad01 84bf
00000380: aaac 30bf 6d22 27bf ad9b 7fbc d036 e7be
00000390: 20d2 173f 46cd 153f b9c1 57bf 8afb 9cbf
000003a0: 8613 74bf c021 7dbf 7de0 dcbf d495 8abf
000003b0: 3a66 aabe c9b8 bfbe d361 12be 3709 73bf
000003c0: b0b1 503c af3b 16bf e45a a8be 1c88 5c3f
000003d0: 5ef0 ea3f eac8 5340 347f 883f bd02 873f
000003e0: 2284 463f 5c55 7abf 91cd 973e 92af 443e
000003f0: fc8a a73e 89cd 863e 9e2f 4cbf 6e20 7d3f

bias f4 [42]
-3.8122277 1.4373264 0.6531113 0.7781568 -0.5358893 2.321706 -1.8924854 -0.12591511
0.16883002 1.7369456 2.1275795 -0.90882105 5.6202855 0.8806529 -0.6456525 -3.7127044
-2.011191 1.2752706 1.6202044 -1.6011697 0.6074259 -0.74761814 -1.9208009 -0.8400059
1.0652279 1.5063587 0.5673121 -3.9563496 0.03234879 -3.8156743 -0.21444239 0.22601867
-1.379972 -0.11496712 -2.143724 0.52384907 -1.3454301 -3.6853325 1.7317576 -1.5287993
0.7280617 -3.1849835
00000000: 8afb 73c0 50fa b73f 4d32 273f 4935 473f
00000010: 0b30 09bf d596 1440 f63c f2bf e4ef 00be
00000020: c7e1 2c3e 3c54 de3f 432a 0840 7fa8 68bf
00000030: 61d9 b340 7872 613f 7b49 25bf f39c 6dc0
00000040: 5ab7 00c0 113c a33f dc62 cf3f 21f3 ccbf
00000050: 4480 1b3f e763 3fbf cedc f5bf a00a 57bf
00000060: 6359 883f 5dd0 c03f 5e3b 113f d534 7dc0
00000070: 2a80 043d 0234 74c0 c996 5bbe 7071 673e
00000080: eca2 b0bf e273 ebbd c632 09c0 f91a 063f
00000090: 0e37 acbf 7ddc 6bc0 3caa dd3f b2af c3bf
000000a0: 4062 3a3f c5d6 4bc0
