trafficRecognitionModel.pt (torch, 38991 bytes, 8 tensors)

weight f4 [4, 3, 3, 3]
000000 eb 94 3f 3e 66 bc 32 3e b6 7c 98 be 83 a5 8a be
       0.18709151 0.17454681 -0.29782647 -0.270794
000010 86 f8 2a 3c 21 07 e0 bd 24 1e 0a be 52 e7 3e be
       0.010435229 -0.1093886 -0.1348806 -0.18642929
000020 cc 1b e6 be 3e 0a 8d 3e 97 2f 93 3e e7 07 b7 3d
       -0.44943082 0.27546877 0.28747246 0.08937054
000030 a0 ba 82 be 9c a3 d0 bd 22 16 ba 3c da a9 a1 3d
       -0.2553301 -0.10187456 0.022715632 0.07893725
000040 15 36 93 be 1a 30 8e be 35 40 28 3e d2 5d 02 3e
       -0.287522 -0.27771074 0.16430743 0.12731102
000050 73 d6 64 3e c7 d4 c8 be 86 65 00 be 1f 48 0f 3e
       0.22347431 -0.39224836 -0.12538728 0.13992356
000060 45 b1 1d 3f 6e 83 40 3e 94 a1 9c 3e bf cb 73 bc
       0.61598617 0.18800136 0.30592024 -0.01488012
000070 34 7e fa 3c 2e 1a 23 3f 49 c8 0b 3e ce 86 1b bd
       0.030577756 0.6371182 0.13650621 -0.037970357
000080 01 c4 ad 3e 0b 84 b1 bd a8 22 a6 bd 45 33 e2 3c
       0.33938602 -0.08667763 -0.08112079 0.027612338
000090 ee 8b 4d bc 6f bc e9 3c fd 82 03 3d db 3e de 3d
       -0.012545569 0.028532235 0.032107342 0.108518325
0000a0 4d 4a 42 be d9 6f 35 be 66 39 0a bd 5f a0 3f be
       -0.18973656 -0.17718448 -0.033746146 -0.1871352
0000b0 cf d7 47 be 0b 68 c9 be 02 9c 21 bd ab 90 d4 be
       -0.19515918 -0.3933719 -0.03945542 -0.41516623
0000c0 1f bc 25 be 96 17 45 bd 35 f4 b1 be b4 0f ae bc
       -0.16185044 -0.048118196 -0.34756628 -0.021247722
0000d0 53 a7 3c be bd 98 dc bc 49 68 09 3e bd af 87 bd
       -0.18423204 -0.0269283 0.13418688 -0.06625316
0000e0 a8 d4 99 bd 92 7c d3 bd e2 88 83 3b cb f8 69 3d
       -0.07511264 -0.10326494 0.0040141204 0.057122033
0000f0 be 6e ee be c4 57 e0 3d 2a 6f 02 3e d6 b8 8f bb
       -0.46568865 0.1095424 0.12737718 -0.004386048
000100 70 22 fe bd f0 12 49 3e 60 26 16 be 60 b5 d2 be
       -0.12408912 0.1963613 -0.14663076 -0.41154003
000110 61 cf 4c 3d 73 a4 a4 be 61 42 b1 3e 13 09 b5 3e
       0.05000246 -0.32156715 0.34620956 0.35358486
000120 24 7e 32 3e c5 a7 71 3d e7 42 4f be b8 9c 29 bc
       0.17430931 0.058997888 -0.20240365 -0.010352306
000130 76 22 91 be 8d 5e 09 3e 8e bc 9f 3e b6 26 2e 3e
       -0.28346604 0.13414975 0.31198543 0.17006955
000140 a6 fb d0 3e 9b df ff 3d fa 0e 9a be dd fe bf 3b
       0.40816993 0.12493821 -0.3008955 0.0058592395
000150 41 b7 2a 3e ce a6 a4 bd e5 fa 88 be ac 5d f6 3e
       0.16671468 -0.08039628 -0.26753917 0.4811834
000160 dd 1c a1 3e cc df 9d 3d 92 70 68 bd a9 04 c0 be
       0.31467333 0.077087015 -0.05674798 -0.37503555
000170 02 e0 e7 ba 8c b1 69 3e 02 4c dd bd 72 ee dd be
       -0.0017690661 0.22821635 -0.10805513 -0.43345982
000180 e8 b9 81 3e e4 3f 85 3e dc ac 05 be 34 1e 4f be
       0.25337148 0.26025307 -0.13054222 -0.20226365
000190 bb 1f 55 bd 64 28 e7 3e 09 98 c3 3d 37 3a 0e 3e
       -0.052032214 0.45148003 0.09550483 0.13889395
0001a0 c8 53 5c be 29 dc 5e be 36 fb c5 bc 8b a5 6d be
       -0.21516335 -0.21763672 -0.024167638 -0.23207681

bias f4 [4]
000000 dc 1d d6 3d 30 ef a2 3d bb d1 fc 3d c1 57 f0 bc
       0.10454914 0.07955778 0.123446904 -0.02933872

weight f4 [4, 4, 3, 3]
000000 20 32 e7 bd 65 0f 89 be dd 9f c4 bd fb 47 41 3e
       -0.112888575 -0.26769558 -0.09600804 0.18875115
000010 06 95 32 3e cb 21 09 bf 72 e3 35 3f cf f2 a3 3b
       0.1743966 -0.5356719 0.7105018 0.0050033103
000020 db e2 89 be df b8 8f 3d 35 60 b1 3d b3 27 d4 3e
       -0.2693089 0.07017683 0.08660928 0.41436538
000030 3d cf 40 be bb 4d fc bd 8f 8e 31 be 74 74 83 bc
       -0.18829055 -0.123195134 -0.17339538 -0.01604674
000040 af 3e 22 bd 58 34 43 be dd 41 12 bf 68 07 35 3e
       -0.03961056 -0.19062936 -0.5713175 0.17678607
000050 4d b5 9e 3d 5d bc 62 be 6f 19 77 be a8 f9 84 be
       0.07749424 -0.22142167 -0.24130796 -0.25971723
000060 00 ed 8c 3e 98 a5 0a 3f 5c 39 ac be 49 c0 f1 bc
       0.27524567 0.54158926 -0.33637512 -0.029510634
000070 cf 95 69 be 51 9f ac be ff 45 e4 bd 19 d3 f7 bd
       -0.22811054 -0.337153 -0.11146163 -0.121008106
000080 72 03 10 3e 0a a8 75 3e e3 be 2d be 14 8d e8 3d
       0.14063814 0.23989883 -0.16967349 0.113550335
000090 a6 c1 50 be e9 5c 88 3e 6a 63 75 be 41 f5 16 3d
       -0.20386371 0.26633385 -0.23963705 0.036854986
0000a0 7d 13 34 bf 34 48 3f 3e 96 eb 43 3f d1 58 18 3f
       -0.70342237 0.18679887 0.7653135 0.59510523
0000b0 fe 0c 2d be 3f 1a 0b bf cd f8 d2 3d 5d 5c 31 3f
       -0.16899487 -0.54336923 0.10301361 0.6928156
0000c0 2f 16 27 bf 97 28 54 bd e1 6c c9 3e 59 81 2d 3d
       -0.65268224 -0.051796522 0.3934088 0.042359684
0000d0 6f e8 23 3e 2d 95 48 3e 44 3a 8f 3e c3 7d b6 be
       0.16006635 0.19588156 0.2797414 -0.35642824
0000e0 40 f6 fd bd 4f e8 11 be 0b 9c bf 3e c0 f9 9d 3d
       -0.12400484 -0.14248775 0.3742374 0.07713652
0000f0 bd df c7 bd 5c 49 51 3d f6 f0 10 3e bc e5 70 3e
       -0.097594716 0.05109535 0.1415442 0.23525137
000100 43 54 a9 3d 73 1a 43 3e 24 4e 63 bf 83 2b ff 3e
       0.08268025 0.19053058 -0.8879111 0.49837884
000110 21 50 61 3e 26 31 0f be eb 26 01 bf ca ec d2 bd
       0.22003223 -0.13983592 -0.5045001 -0.1029907
000120 5c 41 a6 3d 2d a1 6d be a9 43 68 3e 22 22 05 3e
       0.08117935 -0.23206015 0.2268206 0.13001302
000130 0d 93 e8 3c 5b 7c 9e bd c0 3b 40 3e 24 d6 ae 3e
       0.028390432 -0.07738563 0.18772793 0.3414775
000140 58 ef bd bd c4 d3 9e be f8 f2 1a bd bc f5 86 bb
       -0.09274167 -0.3102094 -0.03782937 -0.0041186493
000150 66 ed 32 be bf 16 85 bd 25 43 e4 bd 7d f8 29 3e
       -0.17473373 -0.06498479 -0.11145619 0.16598697
000160 5d e8 e6 3e 3d 8b fa 3d 26 c0 7c 3e b0 f0 32 3e
       0.45099154 0.12233589 0.24682674 0.17474627
000170 49 db 06 be c6 fd 46 bd 7d 91 08 3c 50 dc 5e bb
       -0.13169588 -0.04858186 0.008335468 -0.0034005828
000180 c4 86 5c be 9d c9 ff 3c 6c b9 54 bd a9 1c 68 be
       -0.21535784 0.031224066 -0.051934645 -0.22667183
000190 a3 72 68 3d 0f 62 47 3e 7f f1 61 be 66 60 f9 be
       0.05674995 0.19471 -0.2206478 -0.4870636
0001a0 4f 92 66 3e 7d e2 9a 3e 3d 49 b2 3e f4 b4 05 39
       0.2251675 0.30250922 0.348215 0.00012751279
0001b0 4d 7d b4 be f3 bf 64 bd 8f 20 d3 3e 50 65 06 bf
       -0.35251847 -0.05584712 0.41235778 -0.5249834
0001c0 8a ce 07 be 1e 54 b6 3e f0 4e 0a be 7a c5 8a 3e
       -0.13262382 0.3561105 -0.13506675 0.27103788
0001d0 8b 2c c0 be 4c cb 6b bd a9 d6 f8 bc 24 1b 69 3e
       -0.37533984 -0.057566926 -0.030375795 0.2276426
0001e0 b2 d2 91 be 0c eb 86 be f4 9e a7 3e ce 08 c6 bd
       -0.2848106 -0.26351202 0.3273846 -0.09669648
0001f0 0d a9 43 be fe 98 03 3e bf 59 49 be 07 54 00 3e
       -0.19107457 0.1285133 -0.19663142 0.12532054
000200 1c 67 a4 bd fe 72 34 3d c4 77 93 be f2 bb e5 bd
       -0.08027479 0.044054978 -0.2880231 -0.11217488
000210 e7 a5 e4 be 4d bb d3 3e c8 d4 5f 3e d4 89 00 be
       -0.44657823 0.41353837 0.21858513 -0.12552577
000220 e1 78 92 bd ff 9f 30 be 7f 4a a7 be c8 3c 15 3e
       -0.07151962 -0.17248534 -0.32674024 0.14573967
000230 15 b8 95 3e 48 62 d1 3e dc 8b 9e bd 3a f7 b2 3d
       0.29242006 0.40895295 -0.0774152 0.08738561

bias f4 [4]
000000 e9 fe e5 3c 9a de e4 bc 56 3a 5f 3c 17 92 50 3d
       0.028075652 -0.027938176 0.013624748 0.050920572

weight f4 [4, 4, 3, 3]
000000 fc 35 0c 3f a8 53 b9 3e bb b7 3c 3e 03 ad ad 3d
       0.54769874 0.36196637 0.18429463 0.08480265
000010 e0 4c b9 be 7e 8d 00 3e a6 f1 3f bf 16 c8 98 bd
       -0.36191463 0.12553975 -0.749781 -0.07460038
000020 af 25 cc 3e ba d5 23 be 6c f1 09 3e bd 13 54 be
       0.398725 -0.15999499 0.13471001 -0.20710655
000030 aa 23 83 be f3 01 83 3d 51 14 38 bf 3c ad 77 3e
       -0.25613147 0.06396856 -0.71906 0.24187177
000040 63 1d 0b 3e eb 75 04 3f 52 0f a8 bb 3c 8d 20 bf
       0.13585429 0.5174243 -0.0051287794 -0.62715507
000050 69 c2 0f 3f 9c 47 f2 be 26 79 ec be 8e a8 d9 3e
       0.5615602 -0.4732026 -0.4618618 0.4251141
000060 75 02 f2 be fc 71 28 3e 84 45 95 bd b2 61 39 3f
       -0.472675 0.16449732 -0.0728865 0.72414696
000070 1d a0 d3 be 46 b5 3b bf 72 74 23 bf 52 e7 23 bd
       -0.41333094 -0.73323476 -0.63849556 -0.040015526
000080 43 35 43 3e 1d c8 3b 3e 99 22 aa 3e 42 ed c0 3e
       0.19063286 0.18338056 0.3322952 0.37681013
000090 4c 46 c8 be d8 f4 8e 3d bd ce 14 be 2a 84 c2 be
       -0.39116132 0.06980294 -0.1453199 -0.37991458
0000a0 d5 f7 0c 3d e4 14 88 be 8b 5f 9d 3d cc 72 08 3f
       0.03441604 -0.26578438 0.07684239 0.53300166
0000b0 b9 92 a8 3e 57 2f 38 3e 6f 38 56 be a2 68 9e be
       0.3292444 0.17986809 -0.20919965 -0.30939204
0000c0 b9 70 f6 3d b4 be 44 3e dc 99 45 be 6a 3f 9e 3e
       0.12033219 0.19213372 -0.19296974 0.30907756
0000d0 3f 19 06 3e 8a b1 7b 3e 22 d7 0b be 42 48 96 be
       0.13095568 0.24579445 -0.13656285 -0.29352003
0000e0 21 68 97 3c 03 c5 37 3e b8 63 98 bc ad a6 8c be
       0.01848227 0.17946248 -0.018602237 -0.27470914
0000f0 d4 cb 3f 3e 8d d6 03 3f b3 d6 07 bf f2 a7 37 be
       0.18730098 0.51499254 -0.5306198 -0.1793516
000100 c1 8c 89 3e 56 63 28 bd 21 6e be 3d 47 88 96 3d
       0.268652 -0.04111036 0.09298349 0.073502116
000110 c1 68 0a bd e1 59 f6 3c 93 2c a8 bd 78 44 2e bd
       -0.033791307 0.030072154 -0.08211627 -0.042545766
000120 a3 f3 c1 be d5 b9 d6 bc ff db 4b 3e 96 b5 2d 3d
       -0.37881193 -0.026211658 0.1990814 0.042409502
000130 b6 58 a7 3d 6d 6a 12 3f 7a d2 5a bf b2 93 0b 3f
       0.08171217 0.5719364 -0.8547741 0.5452224
000140 cd 34 82 3e cc 1e 21 3f 6c ea 14 3e 69 46 01 3e
       0.2543091 0.6293762 0.1454255 0.12624516
000150 bf cf 86 bf 8a f4 f6 3d aa d9 82 3e 69 5b fb 3e
       -1.0532149 0.12058361 0.2555669 0.49093178
000160 7a 70 e5 bd f7 53 30 be 6a 94 50 3f 85 86 a5 be
       -0.11203094 -0.1721953 0.8147646 -0.32329193
000170 f6 94 a6 3e 8f d8 ec 3e e7 aa 76 3d a7 cc fe bd
       0.32535523 0.4625897 0.06022158 -0.12441378
000180 33 66 73 bf 75 ed 04 bf 41 1d 49 bd 83 65 a6 3e
       -0.9507782 -0.5192483 -0.049100164 0.32499322
000190 e3 86 d3 bd 09 5b a8 bb c3 84 84 be 2d 06 9c 3e
       -0.10328462 -0.0051378054 -0.2588254 0.30473462
0001a0 8d d3 97 be f0 78 22 3f 0b 10 86 be 8d ae 2c bf
       -0.29653588 0.63465786 -0.26184115 -0.67453843
0001b0 78 c7 18 bf 13 67 e2 bc 7c d6 18 3e 90 5b 36 be
       -0.59679365 -0.02763704 0.1492557 -0.17808366
0001c0 7b 0f 98 3e 4b 89 1e 3d 3e 4c 05 3f 9b 0f 09 3f
       0.2969931 0.03870515 0.5206946 0.5353944
0001d0 3c 57 2d 3a 94 88 05 be fa e1 64 3d 62 c9 d5 3c
       0.0006612425 -0.13040382 0.05587957 0.026097003
0001e0 72 dd 89 3e 76 89 a0 3d f8 39 2d be cc fe 4e 3f
       0.26926762 0.078387186 -0.16916645 0.8085754
0001f0 ee b4 21 bd 78 e5 1f bf a5 78 20 bd 39 37 8e 3e
       -0.03947919 -0.62459517 -0.039177556 0.27776507
000200 72 34 4b 3e 32 b6 d2 3d f9 64 49 be b2 99 07 bd
       0.19844225 0.10288657 -0.19667424 -0.03310556
000210 bf 3e 9c 3e 22 a4 18 bf 30 30 05 bf d5 8a 18 3e
       0.3051662 -0.59625447 -0.52026653 0.1489671
000220 4f b4 ba 3e 2d fa d4 be 55 32 02 3e 70 c0 71 be
       0.3646569 -0.4159712 0.12714513 -0.23608565
000230 fd 99 99 3e b1 3c 83 be 43 c7 34 3e 5c c8 e9 bd
       0.30000296 -0.2563224 0.17654137 -0.11415169

bias f4 [4]
000000 d9 89 b4 be 72 c9 65 be b0 30 bd be 6e bf 8d be
       -0.3526142 -0.22440127 -0.36951208 -0.27685112

weight f4 [42, 196]
000000 52 88 2e 40 a7 06 87 3f 2c d8 4c bd 5e 3d 8e 3f
       2.7270703 1.0548905 -0.050010845 1.1112478
000010 ed 53 80 c0 37 0f e0 3f 69 34 64 40 cc 10 3f 3f
       -4.010245 1.7504643 3.5656989 0.74635005
000020 7b ce 8f bf cb a9 dd bf 20 1a 6e 3f 81 51 85 40
       -1.1234888 -1.7317442 0.93008614 4.166199
000030 b3 78 ff bf c8 26 6c 40 f9 8c dd 3e a6 b5 5e c0
       -1.995871 3.689867 0.43271616 -3.479837
000040 65 ae 2d 41 5c 05 71 3f f4 cb 0c bf 20 51 8e 3f
       10.855077 0.941488 -0.5499871 1.1118507
000050 d5 62 65 3f 00 8b 80 bf fd 17 fc bf fb e6 dc bf
       0.8960393 -1.004242 -1.9694821 -1.725799
000060 75 5c 91 3f 08 22 ac 3f 0a 81 e8 3f 13 a0 35 40
       1.1356341 1.3447886 1.816438 2.8378952
000070 17 40 b6 3f f0 9d dc be 40 b6 16 40 cd 4f f9 3f
       1.4238309 -0.43089247 2.3548737 1.9477478
000080 7f 22 c7 40 84 7f c7 c0 f3 09 dc 3f f2 96 d2 bf
       6.222961 -6.234316 1.7190536 -1.6452315
000090 15 09 0d bf ad 27 b3 be 2e 94 ea bf 7f 3e 66 3f
       -0.55091983 -0.34991208 -1.8326471 0.8993911
0000a0 03 fd 22 c0 13 a1 0c bf ae e7 b5 40 aa 06 73 40
       -2.5466926 -0.5493328 5.684531 3.7972817
0000b0 15 98 12 40 f4 76 a8 be ac 7c 9d 3f d2 25 9e be
       2.2905324 -0.32903254 1.2303672 -0.3088823
0000c0 45 3b 9e 3f f1 ce 9c 40 2c ed 07 bf a9 44 05 40
       1.2361838 4.9002614 -0.5309627 2.0823157
0000d0 65 fa 31 40 b3 f8 30 c0 c1 51 cc 3f c2 55 25 40
       2.7809079 -2.7651794 1.5962449 2.5833592
0000e0 33 1c 18 c0 ca 14 37 3f 29 80 e4 be 5a f7 4f c0
       -2.3767211 0.71516097 -0.44629028 -3.2494721
0000f0 1d b2 53 3e a6 69 c8 bf ed 74 00 40 00 d8 9d bf
       0.20673414 -1.5657241 2.0071366 -1.2331543
000100 50 c8 49 be 33 20 10 bf 2f c3 19 bf 98 40 bb 3f
       -0.1970532 -0.5629913 -0.6006345 1.4629087
000110 a6 d0 8c c0 bb ee 03 3f 6c e9 83 3d e4 f8 90 bf
       -4.40047 0.5153615 0.06441006 -1.1325955
000120 58 7b cc 3f d1 b5 0c 41 92 c1 0a c0 5e 8b 59 be
       1.5975142 8.794389 -2.1680646 -0.2124457
000130 78 b5 c9 bd 0d 75 d6 bf 67 bc aa 3f e8 11 54 c0
       -0.098490655 -1.6754471 1.3338746 -3.313593
000140 a5 15 18 c1 b5 2f c9 c0 fd 05 a4 bf 0b cd 8e 3f
       -9.505284 -6.2870736 -1.2814327 1.1156324
000150 2b 37 81 c0 9c 17 4f c0 be 09 64 bf 99 68 14 c0
       -4.0379844 -3.235816 -0.89077365 -2.3188841
000160 ea 1d 8c 3f 49 3b 40 bf 05 06 9c 3f c7 93 6f 3f
       1.0946629 -0.7509046 1.2189337 0.93584865
000170 2f f7 3a 40 7b 7f f9 3f 03 6e 78 3f 5f 59 61 bf
       2.921337 1.9492029 0.97042865 -0.88026994
000180 b5 bf 8b bf 58 8c 94 40 44 65 95 c0 62 51 69 c0
       -1.0917879 4.642132 -4.6686115 -3.6455922
000190 e3 70 91 40 51 cb 6c bf 99 32 d3 bf 3b 21 71 40
       4.54503 -0.92497736 -1.6499816 3.7676532
0001a0 6c 68 f3 40 7b c8 b8 40 58 b3 06 40 07 f5 6b bf
       7.606497 5.7744727 2.1046963 -0.9217076
0001b0 24 3a 6f bf 99 4a 70 bf bf 6a 2b 40 8f 10 93 40
       -0.9344809 -0.93863827 2.6783903 4.5957713
0001c0 e3 e1 18 40 c3 4c 29 3f 99 c1 01 c0 11 46 76 41
       2.388787 0.66132754 -2.0274413 15.392106
0001d0 2e 23 72 3f 0c 23 c6 3f 38 f4 93 3f 95 cd 84 40
       0.9458493 1.5479445 1.1558905 4.1500955
0001e0 61 cb 56 3e ec 5b 54 bf 9d 2a 6b c0 dc f2 b5 40
       0.2097602 -0.8295276 -3.674476 5.685896
0001f0 0c a3 ad c0 f9 82 fd 3f a5 5b 9a 40 79 a9 fa bf
       -5.426153 1.9805595 4.823687 -1.9582969
000200 85 c6 19 bf a9 33 9c 3f 07 e0 89 40 45 59 95 40
       -0.6006854 1.2203265 4.308597 4.667147
000210 8b 5f 0d 3e ad a5 82 40 dd 06 6d 40 8b f9 01 40
       0.13805978 4.082724 3.703544 2.030856
000220 a4 cb 83 40 76 0f 3a 40 45 4b 34 c0 29 73 16 40
       4.1186085 2.9071937 -2.817094 2.3507788
000230 4c f1 af 40 39 93 b0 40 12 99 28 40 cd 50 b3 40
       5.498205 5.5179715 2.6343427 5.6036134
000240 3b 3f 10 40 0c aa c3 3f 12 c8 fb 40 73 be 74 40
       2.2538593 1.5286269 7.8681726 3.824124
000250 5b 97 35 40 52 65 3d c0 af 90 32 bf 99 90 9e c0
       2.837363 -2.959309 -0.6975202 -4.955151
000260 0a 43 c4 3f b9 b9 f3 3d 09 1a 07 40 17 92 19 bf
       1.5332959 0.11900658 2.110964 -0.5998854
000270 b1 c3 25 c0 44 97 82 be 43 fd ab bf 25 27 95 40
       -2.590069 -0.25506032 -1.3436664 4.6610284
000280 00 26 2f c0 3f db 27 3e 5e 49 11 40 5c 22 d4 bf
       -2.7366943 0.1639223 2.270103 -1.6572986
000290 c3 05 0f 40 b0 73 eb 40 11 6a 96 be e6 10 a5 c0
       2.2347267 7.357872 -0.29377797 -5.158313
0002a0 1b 25 00 40 87 de 8c 40 60 a8 15 c0 84 68 87 3f
       2.0022647 4.402164 -2.3384018 1.0578771
0002b0 9f 16 b3 bf 31 9e bb bf 85 9b 21 be 7c 3d 12 40
       -1.3991278 -1.4657651 -0.15781982 2.2850027
0002c0 12 a7 4a 3e be 1e aa 40 3a 1b c1 c0 c7 d5 58 bf
       0.19790295 5.3162527 -6.0345736 -0.847012
0002d0 52 30 c2 bf 33 87 29 3f f4 53 94 bf a4 f4 53 bf
       -1.5170996 0.6622192 -1.158812 -0.82795167
0002e0 81 0c d2 3f 8d aa 53 3e 1f 22 93 bf ed 9c 6e 3e
       1.6410066 0.20670529 -1.1494788 0.2330205
0002f0 d8 c4 89 be b8 67 70 40 8c b0 69 40 e3 ac 5c 40
       -0.26907992 3.7563305 3.6514006 3.4480522
000300 35 5e dd 3f 74 cd 09 c0 06 c6 0d c0 21 76 77 3f
       1.7294375 -2.1531649 -2.2152114 0.96664625
000310 ce c9 18 3f 82 90 39 3f 65 c0 27 3f d3 5f 82 3f
       0.5968293 0.72486126 0.65527946 1.0185493
000320 07 11 29 40 78 f3 57 3e 01 61 bd 40 b9 dc ff 3f
       2.6416643 0.2108897 5.9180913 1.9989234
000330 92 79 e9 bf 99 c6 1e 40 72 3e 89 3f 88 9e 0d 40
       -1.8240225 2.4808714 1.0722182 2.212801
000340 34 a7 52 bf a2 8c 65 3f 70 31 77 be d0 66 4c c0
       -0.8228638 0.89667714 -0.24139953 -3.1937752
000350 7e bf 1a c0 fe 18 39 c0 56 cd 17 3f 65 e5 dc bf
       -2.4179378 -2.8921504 0.5929769 -1.7257506
000360 23 2e 16 be 5c 10 e9 3d 06 d7 fc bf 57 9a 9c 40
       -0.14666037 0.113800734 -1.975312 4.8938403
000370 6d 0a 88 c0 f9 41 b8 c0 40 af 46 c0 b6 95 ec 3f
       -4.2512727 -5.7580533 -3.1044464 1.8483188
000380 d2 4c c5 3f 95 cd aa be 18 76 e4 c0 e7 90 84 40
       1.5414069 -0.33359972 -7.1394157 4.1426883
000390 89 95 1c 40 5b e6 84 c0 bd 57 09 3e 6e de 11 3e
       2.446627 -4.1531196 0.13412376 0.14245006
0003a0 4d c5 a4 c0 15 46 4e 40 f3 a7 e0 bf 91 e5 46 3f
       -5.1490846 3.2230275 -1.7551254 0.7769404
0003b0 c8 24 cb be 05 c2 56 c0 1a c1 e4 40 07 ef 6a 40
       -0.396765 -3.355592 7.148572 3.670839
0003c0 ae e2 8e 40 11 60 d9 3f b7 bb 80 3f 4d c1 87 40
       4.465171 1.6982442 1.0057286 4.2423463
0003d0 7c c8 e4 3f c1 81 3a 40 eb 1b be 3f 4c 55 ab 3f
       1.7873683 2.9141695 1.485227 1.3385406
0003e0 a6 d3 1a 3f 14 be aa 3f 7a 49 2b 3e 4f ad db 3f
       0.604792 1.3339257 0.16727248 1.7162265
0003f0 76 11 c7 3f cd ad a7 3f 68 eb c1 be 8b d0 01 c0
       1.5552204 1.3099915 -0.37874913 -2.0283535

bias f4 [42]
000000 b4 cb 30 c0 26 a1 26 41 96 bd 13 41 78 96 2b 41
       -2.762433 10.414343 9.233786 10.724236
000010 ab 99 ad 40 91 1a 39 41 eb 23 81 3f d4 12 0b 40
       5.4250083 11.568986 1.0089086 2.1730242
000020 23 7c 3b c0 8f 78 e3 40 f2 dd 37 41 65 3a 03 41
       -2.9294517 7.1084666 11.491686 8.2017565
000030 1f e8 49 41 69 61 1a 41 55 a9 08 40 7a 7a fd c0
       12.61917 9.648782 2.1353352 -7.9212008
000040 24 96 1f c1 84 29 03 41 48 7e 4a 40 bd 17 d0 c0
       -9.974155 8.197636 3.1639576 -6.5028977
000050 1a 03 a3 40 29 7d 0d 3f 55 21 26 c1 c9 0d 29 40
       5.0941286 0.55269104 -10.383138 2.6414664
000060 df 66 eb bf fd d7 ec 40 c2 5f 01 40 ce 9b 3a 40
       -1.8390769 7.4013658 2.0214696 2.9157596
000070 0e e4 aa 40 c1 0b aa c0 30 b4 59 c1 4c 69 20 40
       5.3403387 -5.313935 -13.606491 2.5064268
000080 86 b8 d2 c0 12 13 0e 3f e9 06 50 c0 a5 9c f8 3f
       -6.585025 0.5549785 -3.2504218 1.9422804
000090 e4 7c bb c0 e3 4d 78 c0 0f be 38 41 5e 64 1a c1
       -5.8589954 -3.8797538 11.546401 -9.649504
0000a0 9b 96 ea 40 de e7 0b c1
       7.3308845 -8.744108
