trafficRecognitionModel.pt (torch, 39375 bytes, 8 tensors)

weight f4 [4, 3, 3, 3]
00000000: 7101 073f 4f0b 93bf fd01 873f e994 c33f
00000010: cd70 d5c0 eac4 123e ed1c 663f e052 223d
00000020: 2256 38bf 3260 15c0 ee97 7b40 224e a1c0
00000030: 6a33 90be db2e 84c0 9fa8 a33f 10c1 5abf
00000040: 369c b2bf 36a7 39c1 6b95 afbf 31fd ac40
00000050: fb6d ca3f 1c6a 14c0 a3ff cbc0 19b0 babf
00000060: b079 eb3f 3d45 2bbf daf7 4b3d 46f6 2d40
00000070: 0299 50bf a22a 8b3f 180c a0bf b784 91bf
00000080: 9d4c 55c0 90d8 edbf 1a10 e13f 914b 023f
00000090: 66ee 08c0 716c 903d 9e4a c1bf 895d ffbf
000000a0: 0a66 4c3f 1bd5 70bf a1cb 42bf 29fb 11be
000000b0: 74c0 dcbf e68e f83f fd48 bdbe 6579 fabf
000000c0: a2b8 41bd 0b9b dcbe 9c99 c4c0 6c3c 3cbf
000000d0: c2db c13f a698 c7bf f1f6 ec3f cf6f 1bbe
000000e0: 8f3f 4040 cf55 6b40 1735 62c0 2a9a 07bf
000000f0: b19f 8bbf 0fba bfbf bad6 ce3e ee12 23c0
00000100: 95b9 4cc0 035b 9b3e ec25 f83f 9390 84bf
00000110: 6fd4 06c0 bca6 92bd 2834 2c3f b9cf a7c0
00000120: 0bc4 f4bf 4f6e 31c0 682d 8240 1267 aa3f
00000130: ca93 28c0 305d 8ebf 5cf2 30be 78e7 20bf
00000140: c2a5 1ec0 569b a7bf 71de 09c0 ca89 a8bf
00000150: 06c5 27c0 ceff 9abf 07eb 8ebe 853a e33f
00000160: 2558 ac3f 9a0f ca3e a9bc 00c0 2c8d 3ebb
00000170: 6e05 c6bf 4b27 203f f274 003e f469 45c0
00000180: 7c96 0e40 15d6 2040 2423 f2bf 6ed6 39bd
00000190: ed60 973e b203 5940 0b2b 6f3f cb90 be3f
000001a0: 7b4f 32c0 d357 d0bf dc85 bfbe 6c65 883f
0.52736574 -1.1487826 1.0547482 1.5279819 -6.6700196 0.14332929 0.8988789 0.039629817
-0.7200643 -2.3339963 3.931148 -5.0407877 -0.28164226 -4.1307197 1.2785834 -0.8545084
-1.3953922 -11.603323 -1.3717474 5.405907 1.5814813 -2.3189764 -6.3749557 -1.4584991
1.8396511 -0.66902524 0.049796917 2.7181563 -0.8148347 1.0872386 -1.2503691 -1.1368626
-3.332801 -1.8581715 1.7583039 0.50896555 -2.1395507 0.070519336 -1.5100896 -1.995042
0.798432 -0.94075173 -0.76091963 -0.14255966 -1.7246232 1.9418609 -0.36969748 -1.9568297
-0.04729522 -0.43087038 -6.143751 -0.73529696 1.514519 -1.559346 1.851286 -0.1517937
3.0038793 3.6771123 -3.5344903 -0.5296961 -1.0908109 -1.4978656 0.40398198 -2.5480304
-3.198827 0.30342874 1.9386573 -1.035662 -2.106716 -0.07160708 0.67267084 -5.244107
-1.9122328 -2.7723577 4.0680428 1.3312705 -2.6340203 -1.1122189 -0.17279953 -0.62853193
-2.478867 -1.309428 -2.1542017 -1.316705 -2.6214004 -1.2109315 -0.27913687 1.7752234
1.34644 0.39465028 -2.011515 -0.0029075844 -1.5470407 0.62559956 0.12544611 -3.0845919
2.2279348 2.5130665 -1.8916974 -0.04537051 0.29566136 3.3908505 0.93425053 1.4887937
-2.786101 -1.6276802 -0.37406814 1.0655951

bias f4 [4]
00000000: f998 013f 090d 0ebf a952 05c0 61ad 42c0
0.5062404 -0.5548864 -2.0831702 -3.0418322

weight f4 [4, 4, 3, 3]
00000000: e83c 36c0 6b82 6840 cf9d d340 c09f de3d
00000010: c236 2dc0 455b 0241 1446 0841 17b1 da40
00000020: 385c ccc0 7960 b63f f567 d2be d88a 133f
00000030: 1894 8ac0 e7e6 a340 d3dc 7940 d087 9740
00000040: 2568 013f 83c3 40c0 e905 39c0 5bfa e33f
00000050: e837 1d3f 998c 73c0 0bd0 af3f 015c a13f
00000060: 1a0e ad40 4c35 4bc0 2650 9cc0 eb58 633f
00000070: f6ab 1dc0 9260 dcbf 0f57 2a3f 4c9c 103f
00000080: acb3 a83e 731e b9bf 9b98 0e3f c8e1 6bbf
00000090: 00b1 c8be b86c 8040 5274 2b40 a2bc 743f
000000a0: 5f70 df3f 2fb7 b43f 6a64 0b40 4011 2240
000000b0: 19ac acbf 64c0 5dbf 56ed 0fbe 172d 373f
000000c0: 339f 093f 9962 00c0 56be 1a40 a749 a73f
000000d0: 978a 5140 4564 72c0 7e54 16c0 8e0f 523e
000000e0: ddbf babf 28af 2a40 1444 a1be bc7a cf3f
000000f0: 0465 833f b7e5 cd3f f19a 2fc0 095f b4be
00000100: 0746 79be cfd9 eabf 2f04 ff3e 8f46 d1be
00000110: c8f8 95bd 7b79 00c0 6972 b03e 1976 3d40
00000120: 879f a3bc 2d8b 54bf a512 2dc0 fc36 893f
00000130: 42fa a2be bfbc d040 e283 0140 0648 0140
00000140: 6f79 87bd 48d3 6e3f 48e4 fabf d08f f1be
00000150: 8421 a940 8162 243f b0b7 ed3e b262 6bc0
00000160: 2c65 2c40 cdb0 4440 2176 e13f 5bd1 c63f
00000170: cdf7 adbf 5792 253e 47a4 633e e09e 3ec0
00000180: 2702 83bf 3ebb d03e 876a e23f a987 f73e
00000190: 16fb 403f f86f 9e3d 847f 1440 c2b6 23c0
000001a0: 0ec3 48bf e8b5 d7bf ad74 8f3e 3a3a 71bf
000001b0: da5b 0c41 692a 56c0 2b7f 6b3f 94a8 2341
000001c0: 4f9e 3941 1e04 66c0 061d 43c0 7811 7dc0
000001d0: a62e 7340 daff 9abf c72d 9b3f ff2d e33f
000001e0: 645d 9640 2b00 613f cdb9 70c0 e89e af3e
000001f0: a0c0 4cbf 516c 5f3e 359a 083f 6c41 05bf
00000200: 0fe8 35c0 8cee ed3f 6eef 1840 b516 91c0
00000210: 26c7 2cc0 3b97 b5bf bf20 903f f8ff 4ac0
00000220: ac27 aebf 21b9 7e3f 5763 e73f 2318 e83d
00000230: ac30 20bf 3c8c a7be ac98 0340 3dbc a83f
-2.8474674 3.63296 6.6130137 0.10870314 -2.7064672 8.147283 8.517109 6.8341174
-6.386257 1.4248191 -0.41094938 0.57633734 -4.330578 5.1219363 3.904103 4.7353287
0.50549537 -3.011933 -2.8909857 1.7810777 0.6141343 -3.8054564 1.3735365 1.2606202
5.4079714 -3.175128 -4.8847837 0.88807553 -2.4636207 -1.7216971 0.6653909 0.5648849
0.3294958 -1.4462417 0.5570161 -0.9214139 -0.3919754 4.0132713 2.6789746 0.9560033
1.7456168 1.4118403 2.1780038 2.5323029 -1.349002 -0.8662169 -0.1405538 0.71553177
0.53758544 -2.006018 2.4178672 1.3069352 3.2740839 -3.78737 -2.348907 0.20513746
-1.4589802 2.6669407 -0.31497252 1.620933 1.0265203 1.6085728 -2.7438319 -0.35228756
-0.2434312 -1.834772 0.4980788 -0.40874144 -0.07322842 -2.0074146 0.34462288 2.960333
-0.01997353 -0.83024865 -2.704263 1.0719905 -0.31831557 6.5230403 2.0236745 2.020021
-0.066149585 0.9329114 -1.9600916 -0.47180033 5.2853413 0.64212805 0.46429205 -3.677899
2.693675 3.073291 1.7614175 1.553264 -1.3591248 0.16169105 0.22230636 -2.978447
-1.0235032 0.40767854 1.768876 0.48345688 0.75383127 0.077362 2.320283 -2.5580297
-0.7842263 -1.6852388 0.28018704 -0.9422947 8.772425 -3.3463385 0.9199092 10.228657
11.60115 -3.5940013 -3.0486465 -3.9541912 3.7997222 -1.210933 1.2123345 1.7748412
4.6989 0.8789088 -3.7613404 0.34300923 -0.7998142 0.21818663 0.533603 -0.5205295
-2.8422887 1.8588424 2.3896136 -4.534022 -2.699655 -1.4186777 1.1259993 -3.171873
-1.3605857 0.99501234 1.8077191 0.11332729 -0.6257427 -0.32724178 2.0561934 1.3182446

bias f4 [4]
00000000: 77cf 7dc1 be61 f5bf f17b adc0 91b9 0ec1
-15.863151 -1.9170454 -5.4213796 -8.920304

weight f4 [4, 4, 3, 3]
00000000: 9938 99c0 ee71 0641 342a e140 5942 9b3f
00000010: b7ca 44c1 e275 a340 c8e5 733f a39e c640
00000020: c2d7 03c1 a41f b3bc 664a 5bbe 0fb6 c93e
00000030: 6453 a63f 3c54 85be a0ad ac3f 2b16 7440
00000040: f05d b5bf 6259 e03f 4371 bb3e 8de6 903e
00000050: 5d19 f2bf afbf 8440 4121 86be b01e 60bf
00000060: 0953 33c0 d1bb 20bc 66d5 db3f d080 b43f
00000070: 1493 44c1 ddc3 febd 7af3 7640 c2f2 1341
00000080: a1bf edc0 ab60 bac0 570a 7c3f e995 1e41
00000090: 6a00 2ec0 4f5d 9a3f e166 0141 c747 1a40
000000a0: cb55 0741 1803 19c1 5918 8340 022d 67c0
000000b0: 7b44 3bc1 8bca 03c0 0a86 0ebf 3c9e 7840
000000c0: af73 2bc0 809c 8740 5d4c 0ec0 7370 1440
000000d0: 8d1a c93f b2fd a9c0 2f4a 9c40 defe e93e
000000e0: d958 d13f 9379 993f 2873 0640 503e c0c0
000000f0: 1a44 2240 ed1b 73c0 7387 4740 55b9 a9bf
00000100: 8369 033f a253 913d 370e 68c0 ac62 893f
00000110: 4589 9740 e1ff d2bf fa19 d940 3d69 5e40
00000120: df3d 2ec0 83f6 f7bf a16d 4440 a79c 4641
00000130: 0d5d c9c0 f9e0 86c0 0e1d 45c0 b4a4 5640
00000140: 6c78 7d3f c958 a3be 59f7 a53f 8071 1dc0
00000150: 15c1 93be ee1c e83f 8502 bf3f f756 1640
00000160: 3839 0040 192e fcbf 54b0 8f3f 06de b73f
00000170: 743f 36bf ef48 0ec0 50ba 8440 6961 a03f
00000180: 3f68 8fbf 00f0 62c0 2c45 e2be ff23 8a40
00000190: bee9 7e40 4119 90c0 daad 72c1 04a0 2c41
000001a0: a462 1e41 3599 0941 5ab7 42c1 f08a 64c0
000001b0: 092d afbf 6f92 86bf dbe7 93c0 3515 b4c0
000001c0: 7448 d0bf 5c12 0b40 b483 a940 f7ab 833e
000001d0: 31b0 e13f 4448 d23f b6c2 ca3f 1f25 77bf
000001e0: ae54 aabf fd2f be3f 53e3 1e40 87e4 813f
000001f0: 18fe ce3e 2cbf 373e 76e3 49c0 50d5 aebf
00000200: bc04 353f 84b9 5bbf d1cc 9640 5fb1 813f
00000210: 0298 d23f 59d1 3740 4ca8 2dbf a208 0541
00000220: 8c0c 4d40 21f0 11c0 0f20 fb40 701e aebf
00000230: 3ad9 babd fe2b a5c1 72c0 6140 021a 7040
-4.788159 8.402815 7.0364017 1.2129623 -12.299491 5.10814 0.95272493 6.206865
-8.240175 -0.021865673 -0.214151 0.39396712 1.2994199 -0.26040828 1.3490486 3.813853
-1.4169292 1.7527277 0.3660985 0.28300896 -1.891399 4.148399 -0.26197246 -0.87546825
-2.801943 -0.009810404 1.7174499 1.410181 -12.285908 -0.12439702 3.8586106 9.246767
-7.429642 -5.8243003 0.9845328 9.911599 -2.7187753 1.2059726 8.087617 2.410631
8.458446 -9.563255 4.096722 -3.612122 -11.704219 -2.0592372 -0.5567328 3.8846579
-2.6789358 4.237854 -2.2234108 2.3193634 1.5711228 -5.3122187 4.8840556 0.4570226
1.6355239 1.1990227 2.1007786 -6.0076065 2.5354066 -3.7985795 3.1176422 -1.3259684
0.51332873 0.0709603 -3.6258676 1.0733237 4.7355065 -1.6484338 6.784421 3.4751732
-2.7225263 -1.9372104 3.0691912 12.413245 -6.2926087 -4.2149625 -3.0798984 3.3538027
0.99011874 -0.31903675 1.296611 -2.4600525 -0.28858247 1.8133829 1.4922644 2.349058
2.0034924 -1.9701568 1.1225686 1.4364631 -0.7119057 -2.2232015 4.147743 1.2529727
-1.1203688 -3.5458984 -0.441934 4.316894 3.9830165 -4.5030828 -15.167444 10.789066
9.899082 8.599904 -12.169764 -3.57098 -1.3685619 -1.0513438 -4.6220527 -5.6275887
-1.6272111 2.1729956 5.297327 0.25717136 1.7631894 1.6428304 1.5840671 -0.9654102
-1.3307092 1.4858395 2.4826248 1.0147866 0.40428233 0.1794402 -3.154508 -1.3658848
0.7071035 -0.8582995 4.712502 1.0132254 1.6452639 2.8721526 -0.67834926 8.314608
3.2038908 -2.2802813 7.8476634 -1.3603039 -0.09123464 -20.64648 3.527371 3.7515874

bias f4 [4]
00000000: ac65 12c1 04ee b540 e1e5 48c1 f3dc 23c1
-9.149822 5.6853046 -12.556123 -10.241443

weight f4 [42, 196]
00000000: 4475 86c1 889b e140 b04b ad41 95b7 09c2
00000010: 871d b240 aad2 b5bf ff33 3341 7fc9 1a41
00000020: 9427 23c1 3b8e a7c1 181b 05c2 2327 9741
00000030: 962f 8641 4cbb d7c0 4f43 9fc1 eaf8 e0c1
00000040: 4e53 4542 8af4 de42 6347 5040 e6e3 1342
00000050: c194 a341 3e59 6d41 2fa8 02c2 c140 9ac1
00000060: c130 f941 53d5 b6c2 214b 8bc2 404f 4342
00000070: 8850 9741 7a7b be40 4a3a ca41 cec3 9ac1
00000080: 36b5 bb41 f3d6 d6c1 686e 1dc1 e420 8d41
00000090: 3341 cd41 7593 4342 2335 c941 0620 0241
000000a0: cbcb 32c1 b045 9ac0 ed54 5a42 2540 2f42
000000b0: 8119 9ac1 2cfb 4f42 4c1b c540 572f d941
000000c0: e3f9 fa41 5903 50c1 f79d 7dc1 45d5 09c2
000000d0: 8149 1442 4829 1441 2254 d5c1 3155 6541
000000e0: a043 c641 d5e8 2cc1 6e8e a8c1 9d84 fb40
000000f0: f33e 9440 ce8b 8640 f690 15c1 35fb a540
00000100: 4b52 b4c1 3b80 2842 5f44 f3c1 0884 5341
00000110: 1c9c d441 6fd7 3ec1 e97a c141 4822 7742
00000120: bf3d a1c2 b4e6 ea41 be46 5bc2 8339 45c2
00000130: f6ee 89c1 c6bb 58c1 05ea e8c1 8375 d341
00000140: 6ed0 2a40 7dc9 7741 1e63 dec1 2772 0b41
00000150: 7878 4e41 e753 4941 02d8 ec41 37c7 bdc1
00000160: 28bc 4540 b401 8f41 df59 68c1 3256 4cc1
00000170: 95f8 0cc1 7af1 d03f 7461 f740 993c 7341
00000180: 7f2b 2fc1 4430 0242 9953 4d42 2fe0 6d41
00000190: af0c 4cbf 5ed8 3042 8b6a e1c1 e75c 4a42
000001a0: 40b3 4b41 7806 63be 559a e4c1 e5c8 dec1
000001b0: e056 3540 e458 0d41 fa22 c641 2ebc cb41
000001c0: 4dad 9640 5691 9240 4dbb 3f42 efea 8541
000001d0: e841 d641 314d b741 06d0 bec0 b0c2 b341
000001e0: ba61 d5c1 1b14 b5c2 cfeb 7142 01e0 ccc1
000001f0: a654 d7bf 84f2 2540 0466 45c1 48ff 0bbf
00000200: a5b6 2c42 e348 15c2 d37d bd41 b24a 4cc2
00000210: 96dd 6a41 3198 09c1 9af6 a941 1393 3642
00000220: 5c6d 1941 d196 c841 af20 0ec1 3ae2 8e41
00000230: de6e 1742 ca1c 9e40 a114 9d41 0458 7641
00000240: 524c f4c0 1ce9 31c1 2232 0141 42b8 cdc1
00000250: 2568 a241 144f ff41 1e7b 6341 e963 0d3f
00000260: de54 1f41 33fa 8241 ed8d 9c40 073a 37bd
00000270: 1647 5cc1 057f 1141 88ab a041 859a c841
00000280: 65f6 a140 5fcf 8d41 2efc 57c0 5a3f 1941
00000290: babc 4542 823e 1a42 8008 fbc0 090f f23f
000002a0: a41b 3640 c7af 9c40 e78b 4ec2 bd46 3540
000002b0: 766f 91c1 6bf5 9141 c8f6 e740 f375 d040
000002c0: 994b a841 49d5 1040 0488 00c2 785b 6142
000002d0: cab9 bdc0 5715 1ec0 5fc5 20c0 79c5 3cc0
000002e0: 4aa0 5c42 79cf a941 e43e edc1 03ac 7041
000002f0: f6ee 6542 b28b 1942 7935 c641 7da5 d341
00000300: ead8 ca40 f8a4 7ac1 23bb c2c1 7e38 0942
00000310: f2a5 d941 904e a5c1 caeb 12c1 2b4d 70c1
00000320: 5a1a 2fc1 24eb dbc0 956d 3441 b7b7 50c0
00000330: c34d 20c1 13fc 7d3e 598d 6340 82c6 3242
00000340: 1ac2 d241 43e7 9140 b678 07c1 49a4 f7c1
00000350: 7c52 fc41 8176 9441 26ca 0042 ea22 3542
00000360: 0f30 bd41 5805 4b41 5fd1 a5c0 f67d f1c1
00000370: 546c a1c1 7d98 a1c2 f904 7cc2 877a 7341
00000380: a190 4d41 c410 55c1 e168 0e42 dbb4 9bc1
00000390: a54b 5f42 4e4d aac1 82f1 d441 8822 d640
000003a0: 6891 ab41 c2ef 5f42 c297 e341 1ef7 63c1
000003b0: b2cf fec0 d9eb fd40 ce00 3142 a734 c241
000003c0: cfb7 8441 d701 8641 707c a541 3797 2542
000003d0: dd08 1742 6cf3 5141 2a11 7341 21df 5341
000003e0: c707 5941 6f24 3941 7273 f4c0 d616 b2c0
000003f0: fc47 1f40 cd7e e6bf 628e 0041 382e 2340
-16.807259 7.0502357 21.661957 -34.42928 5.5661044 -1.4204915 11.200194 9.674193
-10.197163 -20.944448 -33.27646 18.89411 16.773235 -6.7416134 -19.907866 -28.12154
49.331352 111.477615 3.254357 36.972557 20.447634 14.834288 -32.66424 -19.281618
31.148806 -91.41665 -69.646736 48.827393 18.914322 5.952573 25.278461 -19.345608
23.463482 -26.854956 -9.839455 17.64106 25.656836 48.894 25.150946 8.132818
-11.174754 -4.821007 54.582935 43.81264 -19.262453 51.995285 6.159582 27.148115
31.372015 -13.000817 -15.851066 -34.45827 37.07178 9.260078 -26.66608 14.333299
24.78302 -10.806844 -21.069546 7.859938 4.632684 4.204566 -9.347891 5.186915
-22.540182 42.125225 -30.408384 13.219734 26.576225 -11.927596 24.185015 61.783478
-80.6206 29.362648 -54.819084 -49.306164 -17.24168 -13.545843 -29.114267 26.432379
2.6689715 15.486691 -27.798397 8.715369 12.904411 12.582984 29.605473 -23.722273
3.0896091 17.875832 -14.521941 -12.771044 -8.810689 1.6323693 7.730646 15.202294
-10.948119 32.547134 51.33164 14.867232 -0.79706854 44.211296 -28.177023 50.590725
12.731262 -0.22170436 -28.575357 -27.848093 2.8334274 8.834202 24.767078 25.466885
4.708655 4.580241 47.93291 16.739714 26.78218 22.912691 -5.9628935 22.470062
-26.672718 -90.53927 60.48028 -25.609377 -1.6822708 2.592927 -12.337406 -0.54686403
43.178364 -37.32118 23.686438 -51.072945 14.679098 -8.599656 21.24541 45.643627
9.589199 25.07364 -8.882979 17.860462 37.85827 4.9410143 19.635073 15.396488
-7.6343164 -11.119411 8.074739 -25.71497 20.300852 31.913612 14.217558 0.55230576
9.95822 16.372168 4.892325 -0.044733074 -13.767355 9.093511 20.083755 25.075449
5.0613275 17.726255 -3.3747668 9.577967 49.434303 38.561043 -7.8447876 1.8910838
2.845437 4.896457 -51.636623 2.8324425 -18.179424 18.244833 7.2488747 6.514398
21.036913 2.263018 -32.132828 56.339325 -5.9289293 -2.4700525 -2.5120466 -2.9495528
55.156532 21.226305 -29.655708 15.041995 57.48336 38.38642 24.77611 26.455805
6.338979 -15.665276 -24.341375 34.30517 27.206028 -20.66336 -9.182566 -15.01884
-10.9439335 -6.8724537 11.276753 -3.261213 -10.018985 0.2480319 3.5555022 44.693855
26.344776 4.55948 -8.46697 -30.955217 31.540276 18.557863 32.19741 45.284096
23.648466 12.688805 -5.181808 -30.186504 -20.177895 -80.79783 -63.004856 15.217414
12.84781 -13.316593 35.60242 -19.463308 55.82387 -21.287746 26.617924 6.6917152
21.446 55.98414 28.4491 -14.247831 -7.9628534 7.93504 44.250786 24.27571
16.58975 16.750898 20.68576 41.39767 37.758656 13.121929 15.19169 13.241975
13.564399 11.571395 -7.6390924 -5.5652876 2.4887686 -1.8007447 8.034761 2.549696

bias f4 [42]
00000000: 66f7 d2c3 0769 a0c3 f213 80c3 306b c043
00000010: e742 3043 9645 c343 d3df 3643 b6af 4543
00000020: 0f89 1c44 0fd2 ecc0 57d1 a243 d885 8f42
00000030: 251c bf42 0e79 cc41 314d 3dc3 d9c9 02c3
00000040: 2e1e 95c3 e7c4 1742 0dba b942 953e fbc2
00000050: 2a5c 7e43 cd25 9bc2 6c47 e6c3 0a5d bcc2
00000060: f417 9ac1 baf2 b442 7302 d942 1f3d e3c2
00000070: 235f 03c3 5eaa 24c3 8baf 5c43 1022 2ec2
00000080: 29d4 ffc2 b164 0743 5069 afc3 3752 94c3
00000090: d3c8 bac2 c626 64c3 309c f142 63b6 c7c2
000000a0: a817 f642 feb5 86c2
-421.9328 -320.82053 -256.15582 384.8374 176.26134 390.54364 182.87431 197.68637
626.14154 -7.400642 325.63547 71.76141 95.55497 25.559109 -189.30153 -130.78847
-298.23578 37.942287 92.86338 -125.62223 254.36002 -77.57383 -460.55798 -94.18172
-19.261696 90.474075 108.50478 -113.61938 -131.37163 -164.6655 220.68571 -43.533264
-127.914375 135.39333 -350.82275 -296.6423 -93.392235 -228.15146 120.80505 -99.856224
123.0462 -67.35545
