trafficRecognitionModel.pt (torch, 102799 bytes, 8 tensors)

weight f4 [4, 3, 3, 3]
0	0x3d772fc1	0.060348276
1	0x3e10269d	0.1407723
2	0x3d0a08bb	0.033699732
3	0xbc1a3da1	-0.009414108
4	0xbd8da5c2	-0.069163814
5	0xbd265218	-0.040605634
6	0x3db88a7a	0.09010787
7	0x3d9b118f	0.075717084
8	0xbe4c6c71	-0.19963242
9	0x3dfe4473	0.124153994
10	0x3dc3d5b4	0.09562245
11	0x3ec402d1	0.382834
12	0xbc7e0d89	-0.015506157
13	0xbdb86e33	-0.09005394
14	0x3dcdce8d	0.10049162
15	0xbe0f4725	-0.13991983
16	0x3c6cfc46	0.014464444
17	0xbe0e816d	-0.1391656
18	0x3ceb4d30	0.02872333
19	0x3e22be35	0.1589287
20	0x3e737725	0.23775919
21	0xbe481514	-0.1953929
22	0xbe82dbb6	-0.2555825
23	0x3d42e6d7	0.047583427
24	0xbd97d40e	-0.07413493
25	0xbe7f9da7	-0.24962483
26	0x3dca24c3	0.09870293
27	0xbd8f9213	-0.07010283
28	0x3c267c63	0.010161492
29	0x3b2a0df1	0.002594825
30	0xbe697565	-0.22798689
31	0xbeb212f3	-0.34780082
32	0x3c3256e7	0.010884977
33	0x3ed6f84d	0.41986313
34	0xbec19d01	-0.37815097
35	0xbe511c17	-0.20420872
36	0x3d1c480f	0.038154658
37	0xbd2ab8f5	-0.041680295
38	0x3e1042ef	0.14088033
39	0xbc86a4f2	-0.016436074
40	0xbec8fc00	-0.3925476
41	0x3db01c19	0.08599109
42	0x3d197b99	0.037471388
43	0xbe163efe	-0.14672467
44	0x3df80884	0.12110999
45	0x3e777cb4	0.24168664
46	0x3e8f1b06	0.27950305
47	0x3f03a20e	0.5141915
48	0xbdf5781a	-0.11985798
49	0xbe7f5e07	-0.24938212
50	0xbd13362c	-0.035940334
51	0x3d7d89a2	0.061898835
52	0xbd56b36e	-0.05241721
53	0x3e130740	0.14358234
54	0x3e6b3518	0.22969472
55	0x3dee250b	0.11628159
56	0x3e657dd8	0.22411287
57	0x3dc990b5	0.09842054
58	0xbe2d3ffd	-0.16918941
59	0x3dc8b0c8	0.09799343
60	0x3e1fcb7d	0.15604968
61	0x3e22eea4	0.15911347
62	0xbe2ad549	-0.16682924
63	0x3e8f9685	0.28044525
64	0x3dedf6f9	0.11619372
65	0x3e111334	0.14167482
66	0xbe13e4fd	-0.14442821
67	0x3dbea1eb	0.09308227
68	0x3dc9c6c8	0.09852368
69	0x3e1b0f7d	0.15142627
70	0xbe2ef3ed	-0.17085238
71	0xbeff4681	-0.49858478
72	0xbdca7da0	-0.09887242
73	0x3d9c38ab	0.07627996
74	0x3d485dd4	0.048917606
75	0xbe6adf2f	-0.229367
76	0xbd839555	-0.06424967
77	0x3c3a2df7	0.011363498
78	0xbdf7affc	-0.12094113
79	0x3d679748	0.056540757
80	0xbf28e7e0	-0.65978813
81	0x3db1d7aa	0.08683713
82	0xbcd6e099	-0.026230143
83	0x3d4b9c9a	0.049709894
84	0xbe6eb0a5	-0.23309572
85	0x3e0a676c	0.13516015
86	0xbcd7c30c	-0.026338123
87	0xbd1ebc34	-0.038753703
88	0xbc1d8b4d	-0.009615731
89	0x3e237b5b	0.15965025
90	0x3e505e61	0.20348503
91	0x3e120c18	0.14262426
92	0xbdbc983d	-0.09208725
93	0xbe576d5c	-0.21037811
94	0x3d8ce2f0	0.068792224
95	0x3e64bdde	0.22338054
96	0x39cf9e12	0.00039599888
97	0xbd3c5f73	-0.045989465
98	0x3e155815	0.14584382
99	0x3d43f1c4	0.047837988
100	0xbe1573fa	-0.14595023
101	0x3ccc5e90	0.024947435
102	0xbdfd99e2	-0.123828664
103	0xbc06ae6a	-0.0082202945
104	0x3e092746	0.13393888
105	0xbe054f2e	-0.13018486
106	0x3d169963	0.036767375
107	0x3e5443e4	0.20729023

bias f4 [4]
0	0xbdac8119	-0.08423061
1	0x3e86d2f2	0.26332814
2	0x3e4b6d99	0.19866027
3	0xbedca892	-0.4309736

weight f4 [4, 4, 3, 3]
0	0xbecd56d1	-0.40105298
1	0xbe30f78f	-0.17281936
2	0xbca88cc2	-0.020574931
3	0xbd87eefd	-0.0663738
4	0xbe1244ed	-0.14284106
5	0xbea07bbe	-0.31344408
6	0x3ecee604	0.40409863
7	0x3dc147e3	0.094375394
8	0xbe8627f5	-0.2620236
9	0x3eb3f7d2	0.3515001
10	0x3e95506a	0.29162914
11	0x3e5836ad	0.21114607
12	0x3dcb8ef8	0.099393785
13	0x3e8727ce	0.26397556
14	0x3e170ebb	0.14751713
15	0xbdf8952d	-0.12137828
16	0x3cfee115	0.031113187
17	0x3e99cd63	0.3003951
18	0x3e841942	0.2580052
19	0xbe856675	-0.2605473
20	0xbcfee60d	-0.031115556
21	0xbe69761d	-0.22798963
22	0xbe342afb	-0.17594521
23	0x3df6ca51	0.120503075
24	0xbe5a6bf1	-0.21330239
25	0x3dac8392	0.084235325
26	0x3be1b611	0.006888159
27	0x3e048d12	0.12944439
28	0x3e349ad7	0.17637192
29	0xbe66c4a4	-0.2253595
30	0x3ce86902	0.028370384
31	0x3d8e1a19	0.069385715
32	0xbdcdd0b0	-0.100495696
33	0xbe20ab1a	-0.1569027
34	0xbe212ebe	-0.15740487
35	0xbd8955f1	-0.06705845
36	0xbf33867a	-0.7012707
37	0xbf30180a	-0.6878668
38	0xbeea2550	-0.45731592
39	0x3e431073	0.19049244
40	0xbd7fd697	-0.06246051
41	0xbf952f81	-1.1655122
42	0x3f529dc8	0.82272005
43	0x3f6c5443	0.92316073
44	0xbee20eae	-0.44151825
45	0x3e8ff0a1	0.28113273
46	0x3ec714f8	0.38883185
47	0x3eac8e57	0.33702347
48	0xbec2509b	-0.37952122
49	0x3ce0b01e	0.02742773
50	0x3f771aec	0.96525455
51	0xbf111a0f	-0.5668039
52	0xbf3ad536	-0.72981584
53	0xbd79f215	-0.061021883
54	0x3e4bba07	0.19895183
55	0x3d8df2a0	0.06931043
56	0x3f031f6b	0.51219815
57	0xbe5bcf9e	-0.21465918
58	0xbd811cf8	-0.063043535
59	0x3f25ea38	0.64810514
60	0xbf2fc8a9	-0.6866556
61	0xbc91bcf7	-0.0177903
62	0x3d882e40	0.066494465
63	0x3e83583c	0.25653255
64	0x3e64a1ba	0.22327319
65	0x3dd551fe	0.104160294
66	0xbdb08f5f	-0.08621096
67	0xbe28642f	-0.16444467
68	0x3d0aa262	0.033846267
69	0xbe0c5cb2	-0.13707235
70	0xbe47af8b	-0.19500558
71	0x3dbd5be4	0.09246042
72	0x3e94fe7c	0.29100406
73	0x3e472cb9	0.19450654
74	0xbf30059a	-0.6875855
75	0x3e858d8a	0.26084548
76	0xbdcd13d3	-0.10013547
77	0xbf40c847	-0.753056
78	0x3d842e99	0.064542
79	0xbeb98667	-0.36235353
80	0xbf18e334	-0.59721684
81	0x3d8f98a8	0.07011539
82	0x3e71e25e	0.23621508
83	0x3f1825ec	0.59432864
84	0xbdc25235	-0.09488336
85	0x3e26bee6	0.1628376
86	0x3ed3e14b	0.41382822
87	0xbed90f9a	-0.42394716
88	0x3e1d8e07	0.1538621
89	0x3efc4a19	0.49275282
90	0x3dcf46ae	0.10120903
91	0x3e9f2180	0.31080246
92	0xbdeba538	-0.11506122
93	0x3e60c238	0.21949089
94	0x3e345b15	0.1761287
95	0xbd6ff481	-0.058582786
96	0x3f2639c6	0.64931905
97	0x3f310276	0.6914438
98	0xbea07634	-0.31340182
99	0x3df20ec1	0.1181922
100	0x3c33146d	0.010930163
101	0x3e8edb8d	0.2790188
102	0x3d132ad5	0.03592952
103	0x3dbee19e	0.09320377
104	0x3e2c840d	0.16847248
105	0xbdac9ce6	-0.084283635
106	0xbd9eeeac	-0.07760367
107	0x3ea3e713	0.32012233
108	0xbd93f022	-0.07223536
109	0x3e7edf84	0.24889952
110	0xbce214c6	-0.027597796
111	0x3eb569c1	0.35432246
112	0x3f9ed38a	1.2408307
113	0x3ecf5fec	0.4050287
114	0xbd3cdf1d	-0.046111215
115	0xbcb7a0a8	-0.022415474
116	0xbf284c46	-0.65741384
117	0x3e9985fe	0.2998504
118	0xbeb001ec	-0.34376466
119	0x3d6f2c77	0.058392014
120	0x3e23361a	0.15938607
121	0xbf09d614	-0.5384228
122	0xbed1688a	-0.4090007
123	0x3eb35cad	0.35031644
124	0x3e8bbc5a	0.27292138
125	0x3f559f7b	0.8344647
126	0xbe9920b4	-0.29907763
127	0xbf64b643	-0.8934061
128	0x3ddb78f9	0.10716433
129	0xbed13136	-0.40857857
130	0xbeca2107	-0.39478323
131	0x3db4f501	0.08835793
132	0xbe7e1949	-0.24814333
133	0x3ebe5d18	0.371804
134	0x3f0d8e26	0.55295026
135	0x3ee5a3d7	0.44851562
136	0x3dfd5d59	0.1237132
137	0xbe9b5fd7	-0.30346557
138	0x3e2cb50c	0.16865939
139	0xbe32bb46	-0.17454252
140	0xbe038035	-0.12841876
141	0x3e9390e8	0.28821492
142	0xbe4d4f1c	-0.20049709
143	0x3ec39efa	0.38207227

bias f4 [4]
0	0xbe6c7a59	-0.23093547
1	0xbe257952	-0.16159561
2	0xbf2f241e	-0.68414485
3	0x3e00412a	0.12524858

weight f4 [4, 4, 3, 3]
0	0x3d8367cd	0.06416283
1	0xbda0b1a0	-0.07846379
2	0xbec337fb	-0.38128647
3	0xbdcc989f	-0.09990048
4	0x3ea06da6	0.31333655
5	0x3e3dab1f	0.18522309
6	0x3d8e3bb3	0.069449805
7	0x3e37dab7	0.17954527
8	0x3e89ef21	0.26940253
9	0x3eace373	0.3376728
10	0xbf8b253e	-1.087074
11	0xbfd013fa	-1.6256096
12	0x3f042f9d	0.5163515
13	0x3f585719	0.845079
14	0xbc92731d	-0.017877156
15	0xbd9b75d0	-0.0759083
16	0x3d9fbffb	0.07800289
17	0x3f710c8f	0.9415979
18	0xbddd32b5	-0.10800687
19	0xbe837c20	-0.25680637
20	0x3ee7c9dc	0.45271194
21	0xbe3a7803	-0.18209843
22	0xbe2d46b7	-0.16921507
23	0xbd489674	-0.04897161
24	0xbe7ae977	-0.24503122
25	0xbe8c4d91	-0.27402928
26	0x3e5c0adf	0.21488522
27	0xbef0feda	-0.47069436
28	0xbe36210e	-0.17786047
29	0x3f0357c0	0.5130577
30	0xbed88c81	-0.42294696
31	0xbf4680f6	-0.7754053
32	0xbf331e88	-0.6996846
33	0x3e7f639f	0.24940346
34	0x3ee57887	0.44818518
35	0xbea2f130	-0.31824636
36	0xbef93321	-0.4867182
37	0xbe394fd8	-0.18096864
38	0x3e629fb7	0.22131239
39	0x3cbe7620	0.023249686
40	0x3def58d6	0.11686866
41	0x3e881b41	0.26583293
42	0x3d41cbdf	0.047313567
43	0x3f0115e5	0.50424033
44	0x3e939aac	0.28828943
45	0xbec3722e	-0.3817305
46	0xbe898851	-0.26861814
47	0x3c05a6aa	0.008157412
48	0xbebac2a7	-0.36476633
49	0xbde2e103	-0.11078074
50	0x3e9864a2	0.29764277
51	0x3ca82b2d	0.0205284
52	0x3f4b15c8	0.7933011
53	0x3dd20144	0.10254148
54	0x3ec3ca67	0.38240358
55	0x3dff8dfb	0.124782525
56	0xbe2b06cc	-0.16701812
57	0x3e0b0fc8	0.13580239
58	0xbef3a05e	-0.47583288
59	0xbc1fe4cd	-0.00975914
60	0xbf808fdc	-1.0043902
61	0xbee45949	-0.4459937
62	0x3f140cdf	0.5783214
63	0xbf9aace0	-1.2084007
64	0xbf45f843	-0.7733194
65	0xbdb5eaa9	-0.088826485
66	0xbf6076cd	-0.87681276
67	0x3eb1de66	0.3473999
68	0x3f336a49	0.70084053
69	0xbf091eb4	-0.53562474
70	0x3f2a9702	0.6663667
71	0x3e5b0982	0.21390346
72	0x3eea3647	0.45744535
73	0x3e2ad1b1	0.16681553
74	0x3e539437	0.20662008
75	0xbc98b485	-0.018640766
76	0xbc1bd549	-0.0095113
77	0x3e7b7a54	0.24558383
78	0xbf119d3e	-0.5688056
79	0xbcffc395	-0.03122119
80	0xbd2da861	-0.042396907
81	0x3f67a0d2	0.9047977
82	0xbec59b59	-0.38595083
83	0xbeb280fa	-0.34864026
84	0x3ebe0cca	0.37119132
85	0xbf045c29	-0.51703125
86	0xbbcc7142	-0.0062390873
87	0x3e6198b0	0.22030902
88	0xbdf16414	-0.117866665
89	0x3e6060e3	0.2191196
90	0x3ef2f791	0.47454503
91	0x3d8283df	0.06372809
92	0xbebcdeeb	-0.36888823
93	0x3f0229d1	0.50845057
94	0xbe5b87ab	-0.21438472
95	0xbf26bafe	-0.6512908
96	0x3ebc63e1	0.36794952
97	0xbeccbc79	-0.39987543
98	0xbe81678e	-0.25274318
99	0x3f0feb5d	0.5621851
100	0xbf0464c1	-0.5171624
101	0xbe04e54a	-0.12978092
102	0xbe07c99f	-0.13260506
103	0xbeb3aa47	-0.3509085
104	0x3e766dc7	0.24065314
105	0xbe2bba17	-0.16770206
106	0xbe685be3	-0.22691302
107	0x3e8baa4e	0.2727837
108	0x3eac67fd	0.33673087
109	0x3eeb5082	0.4595986
110	0x3e9151e1	0.2838278
111	0xbe5e8d23	-0.21733527
112	0x3d66229f	0.05618536
113	0x3db34d25	0.087549485
114	0x3d7d3c63	0.061825167
115	0xbe938b1c	-0.2881707
116	0xbeb3eeb2	-0.35143048
117	0x3f13d1de	0.57742107
118	0x3f08d00e	0.53442466
119	0x3f00aa7d	0.50260144
120	0xbe9c8a45	-0.3057424
121	0x3e0e63c5	0.13905247
122	0x3ece5e84	0.40306485
123	0xbea66c70	-0.32504606
124	0xbf1d3e02	-0.6142274
125	0xbf459247	-0.77176327
126	0x3d4330f5	0.04765411
127	0xbe641998	-0.22275388
128	0xbf077daf	-0.5292615
129	0xbe389a66	-0.18027648
130	0xbcc91b61	-0.024549188
131	0xbe25c04a	-0.16186634
132	0xbde9affa	-0.11410518
133	0x3e81a6df	0.25322625
134	0x3f0b8dbd	0.5451315
135	0xbe162b1d	-0.14664884
136	0xbe938234	-0.28810275
137	0xbf1f1dfc	-0.6215513
138	0x3eb2398f	0.3480954
139	0xbe251a55	-0.16123326
140	0xbdd70256	-0.104984924
141	0x3e9a5f4f	0.3015084
142	0x3f19dc67	0.6010193
143	0x3ea39ae7	0.3195412

bias f4 [4]
0	0xbf4f68da	-0.81019366
1	0xbf4f41de	-0.8095988
2	0xbec7caf7	-0.39022037
3	0xbe8dc38a	-0.27688247

weight f4 [42, 576]
0	0x3e7513f1	0.23933388
1	0xbef3108a	-0.47473556
2	0xbfce3ebc	-1.6112895
3	0xc000048f	-2.0002782
4	0x3efee8ee	0.49787086
5	0xbf088a81	-0.5333634
6	0x3f040a62	0.5157834
7	0xbfcac548	-1.5841455
8	0x3d81ebdc	0.06343815
9	0x3f57778a	0.8416678
10	0x3f951580	1.1647186
11	0xbf2dccaf	-0.6789045
12	0xbeeb042a	-0.45901614
13	0x3f6c5eb0	0.9233198
14	0x3ee4dbe8	0.44699025
15	0xbe86fc4d	-0.26364365
16	0x3fdb408c	1.7129073
17	0x400c81cb	2.195422
18	0x3fb44403	1.4083256
19	0x3fefb4f2	1.8727095
20	0x40051af9	2.0797713
21	0xbdb5d590	-0.088786244
22	0xbf5468fb	-0.8297269
23	0x3f3a1e5d	0.7270258
24	0xbf4f5211	-0.809846
25	0x3f99dbf7	1.2020253
26	0x3fe339cc	1.7752013
27	0x3f83f4c1	1.0309068
28	0x3f93b897	1.1540707
29	0x3f4fb538	0.8113589
30	0x3e6be24c	0.23035544
31	0x3edee19c	0.435315
32	0x3e04347c	0.12910646
33	0x3f92b53a	1.1461556
34	0x3f65c8f3	0.8975975
35	0x3f08bf4c	0.53416896
36	0x3e4e0cc3	0.20122056
37	0xbf2f53f9	-0.6848751
38	0xbf6c2dc4	-0.9225733
39	0xbea5afa1	-0.32360557
40	0xc0045c44	-2.0681314
41	0xbe077d44	-0.13231379
42	0x3f2b657a	0.66951716
43	0xbfa468bb	-1.2844461
44	0xbed62359	-0.41823843
45	0x3f9c1ef7	1.219695
46	0xbf49a0c0	-0.7876091
47	0x3ea4e9bf	0.32209584
48	0x3f6fced4	0.9367497
49	0x3de42fc6	0.111419246
50	0xbf69111f	-0.9104175
51	0xbfe99717	-1.8249234
52	0x404a3b72	3.1598783
53	0x4002e926	2.0454803
54	0xbfa15cee	-1.2606485
55	0xbe2cabb7	-0.16862379
56	0x3db0845b	0.08618995
57	0x3ee4291c	0.44562614
58	0x3eefa000	0.46801758
59	0xbf15dbb7	-0.58538383
60	0xbc49460e	-0.012284769
61	0x3f8660f4	1.0498338
62	0xbe31f7fb	-0.17379753
63	0xbfaa04ab	-1.3282675
64	0x400953ea	2.1457467
65	0x40ae9ab1	5.456383
66	0xbe2a1e3c	-0.16613096
67	0x3f36f891	0.7147303
68	0x3e870ad2	0.26375443
69	0xbe87e7ee	-0.26544136
70	0x3f8e8bfc	1.113647
71	0x3d8274a1	0.063699014
72	0xbdaa4548	-0.083139956
73	0x3ebbfc8d	0.36716118
74	0x3f6624bb	0.89899796
75	0xc03c2c8e	-2.9402194
76	0xc0bf846b	-5.9849143
77	0xc072efa3	-3.7958763
78	0x40edfc11	7.43702
79	0x3d4d9fd2	0.050201245
80	0xbf16b32f	-0.5886716
81	0xbed5993c	-0.4171847
82	0x400d4a4a	2.2076592
83	0xbefcdbe0	-0.493865
84	0xbe4b54e0	-0.19856596
85	0x3ec88f7c	0.3917197
86	0x3f6334c8	0.8875241
87	0xbe184882	-0.1487141
88	0xbe87fc96	-0.26559895
89	0xc00992e0	-2.1495895
90	0xbfa16424	-1.2608685
91	0x3fcbb7c2	1.5915453
92	0xbfe89bdb	-1.8172563
93	0xbfdb698a	-1.7141583
94	0x3f9e8fee	1.2387674
95	0x3f962bee	1.1732156
96	0xbf19a071	-0.6001044
97	0xbf41fc4c	-0.757756
98	0x3cceeb01	0.025258543
99	0xbe387132	-0.1801193
100	0x404e092e	3.2193103
101	0x40bf159d	5.9713883
102	0x3f64d3ab	0.8938548
103	0x3fe29b50	1.7703648
104	0x3d502c43	0.05082346
105	0xc0227487	-2.5383623
106	0x3f37956d	0.7171238
107	0x3fffbd7b	1.99797
108	0x3f491bfc	0.78558326
109	0xbe9b610c	-0.30347478
110	0xbf0d92ae	-0.5530194
111	0x3f004724	0.5010855
112	0x3fe3785b	1.7771105
113	0x3f7dc915	0.9913495
114	0x3fbe4a84	1.486649
115	0xbfa3cc6f	-1.2796763
116	0x3f9b7dcd	1.2147766
117	0x3fb3ae78	1.4037619
118	0x3fb2d8b8	1.3972387
119	0xbf92870d	-1.1447464
120	0x3f96a25e	1.17683
121	0xbcf63a80	-0.030057192
122	0x3ee2d37f	0.44301984
123	0x3e26e7e4	0.16299397
124	0x3e96eaf8	0.29476142
125	0x3f519c7a	0.8187939
126	0x3f281778	0.6566081
127	0xbe275dcc	-0.16344374
128	0x3f1563d1	0.5835543
129	0x3e0b0d29	0.13579239
130	0xbf3e5b3f	-0.7435798
131	0xbf5cd7c3	-0.86266726
132	0xbd9f3502	-0.07773782
133	0x3fd43ae6	1.6580474
134	0xbca9f618	-0.02074723
135	0x3e2d3bc4	0.1691733
136	0x3e835a7c	0.25654972
137	0x3e6a9b38	0.22910774
138	0xc007c875	-2.12161
139	0xbfc3516b	-1.5259222
140	0xbf4fea78	-0.81217146
141	0x3f27f3f1	0.656066
142	0x3f1bded2	0.6088687
143	0xbf0b5d5f	-0.5443935
144	0xbfcf64b7	-1.6202611
145	0xbfb72046	-1.4306724
146	0x3ef2046c	0.47269
147	0xbfb665d3	-1.4249824
148	0xbf76cf71	-0.9641028
149	0xbf531b2b	-0.8246333
150	0xbfce2841	-1.6106035
151	0xbc204392	-0.009781735
152	0xc01f334c	-2.487506
153	0xc0478f69	-3.118128
154	0xc00f1045	-2.235368
155	0xbf9a2a6a	-1.2044194
156	0x3f32dd9d	0.69869405
157	0xbeb7a976	-0.35871476
158	0x3f8b3727	1.0876206
159	0x3f42a403	0.7603151
160	0xbffab90f	-1.9587725
161	0xbe8c7fc4	-0.27441227
162	0xbfd0a744	-1.6301045
163	0xbf866aa6	-1.0501297
164	0xbf09b390	-0.53789616
165	0x3d99c403	0.075080894
166	0x3f9d4590	1.2286854
167	0xbceebc24	-0.029142447
168	0xbf62989b	-0.8851411
169	0x3f25def2	0.6479331
170	0x3e26ce49	0.16289629
171	0xbf92ef29	-1.1479236
172	0xbe8efd1e	-0.27927488
173	0xbd278944	-0.04090239
174	0xbf1aed41	-0.6051827
175	0x3b0cdf9d	0.0021495589
176	0x3ebca764	0.3684646
177	0xbf1594e6	-0.58430326
178	0x3f852e7c	1.0404811
179	0x3eb5ea14	0.3553015
180	0x3f1fde16	0.6244825
181	0xbe9c3443	-0.30508623
182	0xbfab6aea	-1.3392003
183	0xbf0411d0	-0.5158968
184	0xbeab9637	-0.33513042
185	0xbfe19b39	-1.7625495
186	0xbefe5c29	-0.49679688
187	0x3e53cec8	0.2068435
188	0xc0437b88	-3.0544147
189	0xbe9684ab	-0.29398093
190	0xbfd38279	-1.6524192
191	0xbf13ea50	-0.5777941
192	0xbe90d610	-0.28288317
193	0x3d53a8e3	0.051674735
194	0xbfbb6b8e	-1.4642198
195	0x3eed386c	0.4633211
196	0x3f518a7a	0.81851923
197	0xbf815d72	-1.0106642
198	0xc00de87d	-2.217315
199	0x3e318789	0.17336859
200	0xbfd85682	-1.69014
201	0x3e50a392	0.20374897
202	0xbf733db2	-0.95016015
203	0xbf0cd2d1	-0.5500918
204	0xbc8f4d29	-0.017492848
205	0xbe15f007	-0.14642344
206	0xbfd75f46	-1.682595
207	0xbf9117af	-1.1335353
208	0x3fa40c2a	1.2816212
209	0xbfe69861	-1.8015252
210	0xc07ec35a	-3.9806733
211	0x3fe9718f	1.823778
212	0xbf0da6c4	-0.5533259
213	0x4038a172	2.8848538
214	0xbd1c0c34	-0.038097575
215	0xbf7697a8	-0.9632516
216	0x3f6ef6fe	0.9334563
217	0x3f499a43	0.7875101
218	0xbf7f14c0	-0.99641037
219	0x3f9c508e	1.2212083
220	0xbe97fad2	-0.29683548
221	0x3ec6f139	0.38855913
222	0x404e7f6b	3.226527
223	0x4041c004	3.0273447
224	0x3f27c395	0.6553281
225	0x3f5c54af	0.86066717
226	0xbf851551	-1.039713
227	0xbf860a91	-1.0471975
228	0x3ec30863	0.38092336
229	0x3e85b791	0.26116613
230	0xbf22270c	-0.6334083
231	0x3ff94488	1.9474039
232	0x3f8305c4	1.0236135
233	0x409552ab	4.6663413
234	0xc03a52b7	-2.9112985
235	0xbf821312	-1.016207
236	0x3eb3120a	0.349747
237	0xbfad4230	-1.3535824
238	0xbfbc3e28	-1.4706469
239	0xbf59323a	-0.84842265
240	0x3c96b811	0.018398317
241	0x3e49e01d	0.19714399
242	0xbf51164b	-0.8167464
243	0xbf82aa88	-1.0208292
244	0x3fd0dc82	1.6317294
245	0x3ea6c28a	0.32570297
246	0x3f8f8867	1.1213502
247	0x3ecc5f05	0.39916244
248	0xbeafc6e9	-0.34331444
249	0x3dc3850e	0.095468625
250	0xbeac1ee8	-0.3361733
251	0xbf4fe061	-0.8120175
252	0x3e32558e	0.17415449
253	0x3eb3238c	0.34988058
254	0x3ec740bf	0.38916585
255	0x3f601ecc	0.8754699

bias f4 [42]
0	0xc045a252	-3.0880322
1	0x40761add	3.8453896
2	0x3fa6279f	1.2980841
3	0x3fa8c549	1.3185207
4	0x3f5dbbbf	0.866146
5	0x40196f8c	2.3974333
6	0x3efd5c76	0.49484605
7	0xbe80f892	-0.25189644
8	0x3ed17a58	0.40913653
9	0xbd2279d2	-0.03966696
10	0x4002420e	2.0352817
11	0x4005ba8f	2.0895116
12	0x4015bedf	2.3397748
13	0x40769c10	3.8532753
14	0x3f10c2af	0.56547064
15	0xbff7f963	-1.9372982
16	0xc04c90db	-3.1963413
17	0xbfbcf3df	-1.4761924
18	0x3fe24a56	1.7678936
19	0xbfdf1aab	-1.7430013
20	0x3e65ebe8	0.22453272
21	0xbf31086c	-0.69153476
22	0xc08f9f7c	-4.4882183
23	0x3f1fb213	0.62381095
24	0xbf02232c	-0.5083492
25	0x403b10e0	2.922905
26	0x3c39039c	0.011292364
27	0xc057e288	-3.3732014
28	0xbf9385f9	-1.152526
29	0xc090ef93	-4.529245
30	0xbe1d851b	-0.15382807
31	0xbe8ec2dd	-0.27883044
32	0xbfc9459b	-1.5724367
33	0xbda7d3ae	-0.081946716
34	0xc01ba2a3	-2.4318016
35	0x3e66b3b9	0.22529496
36	0xc003be92	-2.0585065
37	0xbff232b7	-1.8921727
38	0x3f441d90	0.7660761
39	0xc03f41d4	-2.9883928
40	0x3f93d9b0	1.1550808
41	0xc04503ad	-3.0783494
