trafficRecognitionModel.pt (torch, 37463 bytes, 6 tensors)

weight f4 [4, 1, 3, 3]
000000 63 ff a1 bf 75 dc 6e 3f fe f2 4b 3f 6a fd 00 be
       -1.2656063 0.9330514 0.7966765 -0.1259667
000010 68 3f 55 c0 93 98 50 3e ff e1 4e bf 03 9b 4e 3f
       -3.331995 0.20370702 -0.8081359 0.8070528
000020 86 72 76 bf 06 86 7c 3f dd 64 eb 3f e1 90 9c be
       -0.962685 0.98642004 1.8390156 -0.30579284
000030 41 8d 09 c0 c0 67 45 be 95 86 0e 40 c9 c5 8a 3f
       -2.1492465 -0.19277859 2.2269642 1.0841609
000040 98 b4 15 c0 1f 66 b5 bf c6 73 e0 bd 8e c2 dc bf
       -2.3391476 -1.417179 -0.10959582 -1.7246873
000050 36 1d e1 3f 29 fb 67 3f bf 29 68 bf a4 02 45 c0
       1.758704 0.90617615 -0.906887 -3.0782862
000060 82 90 37 40 9f 45 cb 3f d9 b6 9e 3f c7 04 81 bf
       2.868195 1.5880622 1.2399551 -1.0079583
000070 be f2 ff be 2e bd 15 3e 18 00 28 3d dc 2c fe be
       -0.49989885 0.14622948 0.041015714 -0.496436
000080 bc e0 16 3f e1 21 2f 3f 94 f2 de 3e d6 6d f9 be
       0.5893667 0.6841107 0.43544447 -0.4871661

bias f4 [4]
000000 e7 8e 33 3e a0 6f 99 3d c2 0d 1b 3c 55 4c 80 be
       0.17534982 0.07491994 0.009463729 -0.25058237

weight f4 [4, 4, 3, 3]
000000 19 71 e6 be 2e ff e9 3e 4e b6 e6 bd 1d ef b2 bf
       -0.45008162 0.457025 -0.112652406 -1.3979222
000010 42 84 4e be 07 86 b6 bf dc 70 11 c0 7f 3a 6c 3f
       -0.2016764 -1.4259652 -2.2725134 0.9227676
000020 7f 3a c2 3f 12 39 d8 bd 68 3e 56 3f f4 12 a0 3e
       1.5174102 -0.1055776 0.83688974 0.3126446
000030 ca e8 dd bf 77 24 01 c0 bf 2f a7 bf 0c 33 87 bf
       -1.7336667 -2.0178506 -1.3061446 -1.0562453
000040 ee 8b 70 bf 78 85 d5 bd 07 cc d4 bf 99 78 84 bf
       -0.93963516 -0.10425848 -1.6624764 -1.0349303
000050 82 6e df be c6 2f bb 3f 9d 0c d6 bf e3 32 33 c0
       -0.43638998 1.4623954 -1.6722599 -2.7999809
000060 c7 f8 db 3f 2d a8 11 40 f3 00 2b 3f 44 96 b7 bf
       1.7185296 2.2758896 0.66798323 -1.4342732
000070 18 54 81 3f 9d 39 ae be a2 5c be 3e 22 f5 ba be
       1.0103788 -0.3402833 0.37180048 -0.36515146
000080 2c 45 08 be 5b dc ea be ce aa 7a bc 4e f0 10 be
       -0.13307637 -0.45871243 -0.015299512 -0.14154169
000090 6e 28 a1 3f 81 df bf 3f 87 95 b7 bf 7f 30 c8 be
       1.2590463 1.4990083 -1.4342507 -0.390995
0000a0 da 49 27 bf 0e 2a 37 40 4a cb 2e bf 18 3b 5b be
       -0.65347064 2.8619418 -0.68278944 -0.21409261
0000b0 ec 1d fa 3b 3b 93 8d 3e a2 f0 73 3f f9 5d ef bf
       0.0076329615 0.2765139 0.9528905 -1.8700553
0000c0 22 d4 d8 bf 60 05 99 be ed 9a 9c 40 ae 55 bf bf
       -1.6939738 -0.29886913 4.893912 -1.4948022
0000d0 e1 6f c5 3c c0 3f f3 bf 45 dc dd 3d e9 5c 15 3f
       0.0241012 -1.900383 0.10833029 0.58344895
0000e0 66 55 32 c0 3a 57 e0 be 11 f9 49 40 2b 14 06 bf
       -2.7864623 -0.4381655 3.1558268 -0.52374524
0000f0 98 be 5e bf 01 2c e5 bf d0 1e 58 40 5a 58 32 3f
       -0.87009573 -1.7904054 3.3768806 0.69666064
000100 b6 33 40 3f ec 9c 7c bf 6b 58 19 bf f0 5f 56 be
       0.75078905 -0.98676944 -0.5990054 -0.20935035
000110 d3 18 04 40 41 82 1a 3d fa 79 30 3c 0f b3 01 c0
       2.0640152 0.037721876 0.010771269 -2.0265539
000120 66 94 f5 3f f7 04 47 c0 28 80 9a 3f 6c d0 8f bf
       1.9185913 -3.109678 1.207036 -1.123548
000130 1b 91 7e 40 73 e7 45 c0 f9 ce 1b c0 90 94 34 3f
       3.9776065 -3.0922515 -2.4345076 0.7053919
000140 df 21 97 bf 3a 0f 07 c0 fb 2c 44 bf 4c 7f 0f c0
       -1.1807212 -2.1103044 -0.76631135 -2.2421446
000150 ed cd 72 c0 15 f9 97 40 52 f4 25 c0 f2 ce 09 40
       -3.7938187 4.7491555 -2.5930371 2.153256
000160 85 e6 24 bf a2 d9 39 bf 54 af 09 40 c7 28 33 c0
       -0.64414245 -0.72597706 2.1513262 -2.7993639
000170 a0 99 a2 3f c2 40 0f 40 96 17 55 40 bc 54 ca bf
       1.2703133 2.2383275 3.3295646 -1.5807109
000180 75 10 87 c0 f0 aa 73 be 1c 5c e2 bf 72 80 c9 3f
       -4.220759 -0.23795676 -1.768436 1.5742323
000190 1f 33 02 c0 1b 05 b4 bf 52 b6 7c be 7b c9 91 3f
       -2.0343702 -1.4064058 -0.24678925 1.1389612
0001a0 67 95 84 bf 89 9d 29 c0 d0 bb b5 be 84 02 35 3f
       -1.0358094 -2.6502402 -0.35494852 0.70706964
0001b0 da 77 49 c0 69 36 0e bf 2d 92 ab 3f 71 0e 8c bf
       -3.1479402 -0.55551773 1.3403984 -1.0941907
0001c0 4c be 28 40 2a e2 5b be 27 e8 04 3e 51 8d 7b 3f
       2.6366148 -0.21472993 0.12979184 0.98262507
0001d0 80 5d 17 40 ac 26 04 c0 8f 0c 5d bf 2a 11 17 3e
       2.3650818 -2.0648603 -0.8634729 0.14752641
0001e0 05 e9 a1 3d 19 58 10 40 2b d9 4a 3f 3b fb de 3f
       0.07905773 2.255377 0.7923762 1.742042
0001f0 41 11 ed be d2 19 f8 bf ae 18 e2 bf ba 4a 9a bc
       -0.46302226 -1.938288 -1.7663782 -0.01883446
000200 86 f5 ab 3f a8 d9 a4 bc 18 5b b7 bf d4 34 73 c0
       1.3434303 -0.020123318 -1.4324675 -3.8000994
000210 53 ef 9d 3f 59 e9 a2 3f d2 1c 99 3e 71 b0 73 3f
       1.2338661 1.2727462 0.299048 0.95191103
000220 71 5d 2e bf 3d 58 59 3f 58 20 27 40 76 bb 30 3f
       -0.6811133 0.84900266 2.611349 0.6903604
000230 cd 19 14 c0 6b 61 ed bf ad da 6d 3f 07 db 44 3f
       -2.3140748 -1.8545355 0.929118 0.7689671

bias f4 [4]
000000 2f b0 7d bf d5 4d 03 c0 b4 57 f0 bf 69 c3 c5 bf
       -0.9909696 -2.0516255 -1.8776765 -1.545026

weight f4 [42, 196]
000000 6e 8e 59 c0 13 96 2d c0 c4 75 c2 c0 9b 74 c5 3f
       -3.3993182 -2.7122848 -6.0768757 1.542621
000010 e7 34 91 3f 3d 7f 90 c0 c5 20 1e 40 fb c6 cb 40
       1.134427 -4.515532 2.47075 6.3680396
000020 d1 23 5e c0 58 fd f5 3f 92 7c 25 40 48 09 c4 3d
       -3.470936 1.9217939 2.5857282 0.09572083
000030 4d fa ed 40 e5 10 a8 c0 9c 16 42 41 27 60 1e c1
       7.4368043 -5.2520623 12.13052 -9.898475
000040 b3 81 67 41 f5 56 5c 40 47 5d 01 3f 0a 39 c7 40
       14.469165 3.4428074 0.50532955 6.225713
000050 52 47 00 bf b1 be 06 41 94 ad d0 40 68 c3 81 c1
       -0.50108826 8.4215555 6.5211887 -16.220413
000060 57 6b 3d 3c 40 ed 1c c0 95 5c 93 be aa 84 ab 40
       0.011561236 -2.4519806 -0.28781572 5.3599443
000070 62 a0 c9 bf 5f ba 87 40 b8 34 8d 41 d5 08 15 c1
       -1.575207 4.2415004 17.650742 -9.314656
000080 90 45 ea 40 c4 08 6c c0 ee ed f9 bf f7 1c 0e 3f
       7.3209915 -3.688035 -1.9525735 0.55512947
000090 72 56 20 40 f1 c7 37 40 36 5f 78 40 32 79 90 bf
       2.5052762 2.8715785 3.8808112 -1.1286986
0000a0 9f ca cc c0 a0 22 54 c0 d5 0e 06 40 b2 e1 7a 3f
       -6.399734 -3.3146133 2.0946553 0.98000634
0000b0 4a 57 55 bf a1 19 05 41 1b c9 06 c1 2e e7 5b 40
       -0.8333632 8.318757 -8.424098 3.435985
0000c0 c4 e7 c3 c0 10 99 d2 40 ed a4 fc 40 4a 31 0c 41
       -6.1220417 6.5811844 7.8951325 8.762033
0000d0 81 35 72 40 cb c9 86 40 7f 01 16 41 b8 e5 a3 c0
       3.7845156 4.212133 9.375365 -5.121792
0000e0 0f 4a f7 bf 6e 57 8a 3d e6 d8 d2 c0 5d 5d df c0
       -1.9319476 0.06754957 -6.588977 -6.980147
0000f0 d5 f8 16 bf d5 50 3b c0 9b 2e da c0 5e 47 6b 3f
       -0.5897344 -2.9268086 -6.818189 0.9190577
000100 01 cc 17 c1 28 63 e5 41 a3 74 9f c0 0a 69 7d 41
       -9.487306 28.673416 -4.982988 15.838144
000110 b6 f6 a7 c0 d4 ff b6 bf d7 99 19 41 b0 16 69 c1
       -5.248866 -1.4296823 9.600059 -14.568039
000120 93 25 db c1 a4 10 a7 41 3c 1f fc c0 39 be a8 c0
       -27.393347 20.883125 -7.878813 -5.2732205
000130 6f 47 a9 bf cc 26 29 41 6c 4d 23 3f 0e 99 ef 40
       -1.3224925 10.571972 0.6379001 7.4874334
000140 00 fd 0c 41 74 a0 8e bf 49 93 fd c0 b5 b6 12 c1
       8.811768 -1.1142716 -7.924229 -9.169606
000150 4e eb f2 40 d1 b1 7a 40 08 a2 df 40 dc 7b 44 40
       7.5912237 3.917103 6.988529 3.0700598
000160 4e 5b 12 bf f9 0c 5a c0 6f b2 e6 be e7 2f d2 40
       -0.5717057 -3.4070418 -0.4505801 6.5683475
000170 5f c1 05 3f ba cf a4 3f 62 5d 05 c1 87 2e 66 c0
       0.52248186 1.2875893 -8.335299 -3.5965898
000180 37 7a 91 bb 1c 99 0b 40 b9 e5 10 40 6b d5 29 3f
       -0.004439618 2.18122 2.2640212 0.66341275
000190 62 d6 ac 40 bd b0 65 41 ed 88 17 40 ea 8f 02 41
       5.40117 14.355649 2.3677323 8.160135
0001a0 33 5d c8 40 3a 45 ed c0 81 d9 82 bf bc aa 8c 40
       6.261377 -7.4147005 -1.0222627 4.3958416
0001b0 a3 41 7c c0 a7 4f d6 c0 4d a0 d6 3f 15 34 94 3f
       -3.9415061 -6.697223 1.676767 1.1578394
0001c0 a4 04 95 40 81 76 18 c0 ea 12 3f c1 51 8f 10 41
       4.6568165 -2.382233 -11.942118 9.034989
0001d0 42 a0 7c bf 39 8e d5 bf 9f 40 1f c1 dc b6 4b 40
       -0.98682034 -1.6684028 -9.953277 3.1830359
0001e0 9d df a7 3f 16 22 bc c1 94 bb 58 41 d0 d4 d3 40
       1.3115116 -23.516644 13.545795 6.619728
0001f0 d1 a3 02 40 f8 0e a1 40 e1 79 88 3d 39 6b de 3e
       2.0412486 5.0330772 0.066638716 0.4344118
000200 49 46 87 bd 69 c0 6f 41 f6 ae 0f 41 57 5c d2 c0
       -0.06605203 14.984475 8.980215 -6.573772
000210 c6 c1 59 c0 09 77 92 40 76 80 bc 3f 3d d2 39 40
       -3.402452 4.5770307 1.4726703 2.903457
000220 47 13 53 3e 8f 95 52 41 d0 66 09 c1 c4 34 69 40
       0.20612822 13.161513 -8.587601 3.6438456
000230 44 6f 5d 41 15 10 86 40 a2 72 c9 40 c1 db 87 3f
       13.839664 4.189463 6.2952433 1.0613939
000240 0d 5c f8 c0 71 ff be be a2 90 fa c0 90 7a 1a 40
       -7.7612367 -0.3730426 -7.8301554 2.4137306
000250 e4 76 eb 40 bd b2 c1 3f 59 7c 43 40 46 9c 30 c0
       7.358263 1.5132672 3.0544646 -2.7595382
000260 b5 d2 c2 c0 fa 14 01 c1 ac fc 44 c0 6e 98 bf ba
       -6.088221 -8.067621 -3.0779219 -0.0014617571
000270 1b ce 88 bf 77 e0 0b c0 b8 98 0b c0 7d 9b db 40
       -1.0687898 -2.1855752 -2.1811962 6.8627305
000280 4a 99 c4 c0 99 46 b1 c0 4f 94 d3 c0 3f 08 3b 41
       -6.143712 -5.539868 -6.611854 11.689513
000290 0b ee db 40 41 8d 03 41 bd 57 35 40 34 99 29 40
       6.872808 8.221986 2.8334801 2.6499758
0002a0 ba a5 93 c0 52 e4 89 bf c9 15 83 c0 40 f9 55 c1
       -4.6139803 -1.0772803 -4.0964093 -13.373352
0002b0 d5 b9 9c be 89 d6 9e 3f 64 a3 4f c0 f2 94 70 c0
       -0.3061053 1.2409221 -3.2443476 -3.759091
0002c0 db 89 1e c0 fc 27 a8 40 2c 20 c4 40 47 12 f5 3f
       -2.477164 5.254881 6.128927 1.9146203
0002d0 fd 77 6d c0 ea b0 03 c1 af bc 18 c0 bd 35 b8 40
       -3.7104485 -8.230692 -2.3865163 5.75656
0002e0 8a 48 f4 3f e3 ca 75 3f 54 35 b9 c0 7e 37 de bf
       1.9084637 0.96012706 -5.78776 -1.7360685
0002f0 20 9c 6b be 54 5a 34 40 8a 88 1f 41 d9 2f 19 bf
       -0.23008776 2.8180132 9.970835 -0.59838635
000300 9e a6 d4 3f 8d 78 fd 3f 64 e1 a3 40 ad b0 66 c0
       1.6613348 1.9802414 5.1212635 -3.6045334
000310 fd 25 2f c0 72 e3 9c 40 f1 3a 3d 40 f1 c6 2b 3f
       -2.7366936 4.9027643 2.9567225 0.67100435
000320 f0 a0 ce 3f c0 26 38 40 e3 8b f1 40 8d 09 96 40
       1.6142864 2.877365 7.548326 4.688666
000330 e2 e8 96 40 db 7d f1 c0 36 cd dd 3f 7f 83 44 41
       4.715928 -7.546613 1.732825 12.282104
000340 be 21 6a 40 98 3f d5 3d 4f d3 17 c1 a7 59 3d be
       3.6583095 0.1041252 -9.489089 -0.18491231
000350 12 1b fc 40 59 7a ef c0 d5 e3 e5 c0 a3 45 54 bf
       7.8783045 -7.483685 -7.1840615 -0.8291876
000360 aa 52 34 c0 92 d6 a0 3f 19 24 0a 41 ed ec b6 40
       -2.8175454 1.2565482 8.633813 5.7164216
000370 9b 84 64 41 e7 32 23 c1 fe 28 6d c0 2e 23 9e 3f
       14.282374 -10.199927 -3.705627 1.2354486
000380 1f 7f e0 bf 65 49 a1 3f fb d1 a4 bf 0e ba 82 c0
       -1.7538794 1.2600523 -1.2876581 -4.0852118
000390 0f 9f 37 41 f5 55 40 c1 45 d1 08 40 dc d2 4a 40
       11.476333 -12.020986 2.1377728 3.1691198
0003a0 5a b5 84 c0 39 d6 ae 40 3e 43 79 c0 c1 8d 7a c0
       -4.1471376 5.46365 -3.8947291 -3.914902
0003b0 ce 8b ca 40 a2 5f a0 3f ae 54 90 c0 ba 84 4f be
       6.329566 1.2529185 -4.510337 -0.20265475
0003c0 bd ee 1e 40 b1 97 76 bf 43 8f 42 40 17 cd 0f c0
       2.4833214 -0.9632521 3.039994 -2.2468927
0003d0 7b 6d b7 3e 30 d7 82 40 05 10 6b c0 c4 4c db 3f
       0.35825714 4.088768 -3.6728528 1.7132802
0003e0 4e 74 e7 c0 33 f8 9e 40 cf be da 3d b8 fe 90 40
       -7.2329473 4.9677978 0.10680925 4.5310936
0003f0 5f 77 f3 3f a6 d7 24 be b9 72 23 40 35 f4 94 bf
       1.9020804 -0.16097888 2.553877 -1.1637026

bias f4 [42]
000000 54 64 71 c2 6b f6 07 c0 d4 0f 42 40 49 07 ad 41
       -60.347977 -2.1244152 3.032216 21.628557
000010 7f 5c 87 41 9f 35 8f 41 aa 29 a4 41 fb 85 48 41
       16.920164 17.901182 20.520344 12.53271
000020 dd 89 c6 41 c4 9f 23 c1 e2 2f e1 41 77 ed 2b 41
       24.817316 -10.226505 28.14838 10.745475
000030 fa cf 41 42 d6 ec 6b 41 6a 27 30 c1 be 1d e9 c1
       48.453102 14.745321 -11.009623 -29.139523
000040 af 86 0b c2 0b bb 52 41 5f a7 8a 41 d6 84 dc c1
       -34.881527 13.170665 17.331724 -27.564861
000050 2a 61 1e 41 c6 0b b1 c1 27 b2 05 c2 b0 60 9f c1
       9.898722 -22.130749 -33.423977 -19.92221
000060 01 53 df c1 ba 86 94 41 9f a2 fe 40 fd 07 df c1
       -27.91553 18.565784 7.957351 -27.8789
000070 fa 92 9d c1 19 11 bf c1 1d 6e 8f 40 79 af 86 c0
       -19.696766 -23.883348 4.4821916 -4.20892
000080 a8 81 03 c1 35 fc 15 3f 74 df 24 c2 f7 e1 42 c1
       -8.219154 0.5858796 -41.218216 -12.180167
000090 f6 0d 39 c0 44 29 08 c2 72 18 ca 41 ad 7c 4e c1
       -2.891477 -34.0403 25.261936 -12.905438
0000a0 b0 66 04 40 6a 3d ff c1
       2.0687675 -31.904987
