trafficRecognitionModel.pt (torch, 102799 bytes, 8 tensors)

weight f4 [4, 3, 3, 3]
0	0x3ef7b6f6	0.48381776
1	0x3e79531d	0.24348111
2	0x3dc84812	0.09779371
3	0x3cc703ea	0.024293859
4	0xbe301094	-0.17193824
5	0x3e834bab	0.25643668
6	0xbe904f8c	-0.2818569
7	0xbe199400	-0.14997864
8	0xbdb5b69b	-0.0887272
9	0x3ec5fef4	0.38671076
10	0x3e890367	0.26760408
11	0x3e71c97c	0.23612016
12	0xbda5ca73	-0.08095255
13	0xbea7f33a	-0.32802755
14	0x3e59040d	0.21192952
15	0xbe41899c	-0.1890015
16	0xbe52135e	-0.205152
17	0xbcd9a6ca	-0.026568789
18	0x3e39704e	0.18109247
19	0x3ec0052c	0.37503946
20	0x3eba22de	0.36354727
21	0x3ce07bfe	0.027402874
22	0xbdaa0339	-0.08301396
23	0x3e4f13fa	0.20222464
24	0x3d84cc93	0.06484332
25	0xbe903879	-0.28168085
26	0x3e44a0a9	0.19201912
27	0xbe6b9846	-0.23007306
28	0xbe99bb82	-0.3002587
29	0xbd462908	-0.048378974
30	0x3e3d4a40	0.18485355
31	0x3da7cfa7	0.081939034
32	0x3e3da64e	0.18520471
33	0x3f696c12	0.9118053
34	0x3f363aef	0.71183676
35	0x3eeaf28d	0.45888177
36	0x3dd59622	0.10429026
37	0xbed89dc1	-0.42307857
38	0xbe507714	-0.20357925
39	0xbe8a190a	-0.26972228
40	0xbcfdff50	-0.031005532
41	0xbecda62f	-0.4016585
42	0x3ca0447b	0.019563904
43	0x3e9ca120	0.3059168
44	0xbe5c87c1	-0.21536161
45	0xbe9ba8a5	-0.30402103
46	0xbeb24564	-0.34818566
47	0xbec5cfdf	-0.38635156
48	0xbe5e3a3d	-0.21701904
49	0xbe9094d0	-0.28238535
50	0xbeaa1b29	-0.33223847
51	0x3e52a2b7	0.20569883
52	0x3e28b96d	0.16476984
53	0xbe679624	-0.22615868
54	0xbe75162f	-0.23934244
55	0xbc04aed4	-0.008098323
56	0x3e8f85ee	0.28031868
57	0xbf232968	-0.63735056
58	0xbf2cbf52	-0.6747943
59	0xbe423f9e	-0.1896958
60	0xbe9984ba	-0.29984075
61	0xbf306f71	-0.68920046
62	0xbe5b743f	-0.21431063
63	0xbe8a180c	-0.2697147
64	0xbe1190ae	-0.14215347
65	0xbcae3125	-0.021263668
66	0xbefdbbb1	-0.4955726
67	0xbf29da34	-0.66348577
68	0xbce0fe84	-0.027465113
69	0xbe0c2546	-0.13686094
70	0xbee62c73	-0.44955787
71	0x3e8f63b7	0.28005764
72	0x3ef1fca3	0.4726306
73	0x3e5fa5b8	0.2184056
74	0x3f0e0312	0.55473435
75	0x3e8ad483	0.2711526
76	0x3d5dae82	0.0541215
77	0x3dac46e0	0.08411956
78	0x3f55494b	0.8331496
79	0x3e811431	0.25210717
80	0x3efa0549	0.48832157
81	0x3ee6b39e	0.45058912
82	0x3e71fb97	0.2363113
83	0x3e71bbea	0.2360684
84	0x3f06c4e0	0.5264416
85	0xbd771b1c	-0.060328588
86	0xbb800378	-0.0039066635
87	0x3ea5f54c	0.3241371
88	0xbdb6fa2a	-0.08934434
89	0x3d664c30	0.056225
90	0x3ea52ec8	0.32262254
91	0x3d793dbd	0.060849894
92	0x3d9cc805	0.07655338
93	0x3ecc6326	0.39919394
94	0x3d4478ee	0.04796689
95	0xbe3072aa	-0.17231241
96	0x3e2d70b6	0.16937527
97	0xbe1c0669	-0.1523682
98	0xbeba6660	-0.3640623
99	0x3e53cceb	0.20683639
100	0xbf03be92	-0.5146266
101	0xbe7bd9fa	-0.2459487
102	0xbe0ebfa0	-0.13940287
103	0xbf033bf4	-0.51263356
104	0xbf18f231	-0.59744555
105	0xbd0df9dd	-0.034662116
106	0xbed1db08	-0.4098742
107	0xbf0116ad	-0.50425225

bias f4 [4]
0	0xbeff8b2b	-0.49910864
1	0x3e29f038	0.16595542
2	0x3f22d94e	0.6361283
3	0x3e8aef92	0.27135903

weight f4 [4, 4, 3, 3]
0	0x3e7be374	0.24598485
1	0xbde81a60	-0.11333156
2	0x3f5ce679	0.86289173
3	0xbf0850d6	-0.53248346
4	0xbf363ad0	-0.7118349
5	0x3f1332aa	0.5749918
6	0x3f1c501a	0.61059725
7	0xbe89f451	-0.2694421
8	0xbe555f40	-0.20837116
9	0x3ebddeb2	0.37083966
10	0xbd50cf84	-0.050979152
11	0xbebb1d38	-0.3654573
12	0x3e3f2767	0.18667375
13	0x3f15bcff	0.5849151
14	0xbed30896	-0.41217488
15	0x3d2adbcd	0.041713525
16	0x3e83b368	0.25722814
17	0x3e2c1cf2	0.16807917
18	0x3f1407db	0.57824486
19	0x3f00931f	0.5022449
20	0xbf77be75	-0.9677499
21	0x3f4910b1	0.78541094
22	0x3f877c55	1.0584818
23	0x3e0ea3a0	0.13929605
24	0xbf72a665	-0.9478515
25	0xbecce9d3	-0.40022144
26	0xbefd09bc	-0.4942149
27	0x3f1a9140	0.60377884
28	0x3e415acc	0.18882293
29	0xbf0ee902	-0.5582429
30	0x3e789f04	0.2427941
31	0x3e9c6923	0.30548963
32	0xbdf06b7d	-0.11739252
33	0xbe3cbc94	-0.18431312
34	0xbf2719ab	-0.6527354
35	0x3dc259b3	0.09489765
36	0x3e867309	0.2625964
37	0x3d074ed0	0.033034146
38	0x3eab22e9	0.33425072
39	0xbd1f3818	-0.038871855
40	0xbd7557ac	-0.059898064
41	0xbd80a871	-0.06282128
42	0x3ef33d0d	0.47507516
43	0xbe23502d	-0.15948553
44	0xbe96661c	-0.29374778
45	0x3f11c19f	0.5693607
46	0xbe0b909a	-0.1362938
47	0xbeb9a106	-0.36255664
48	0xbdde3892	-0.10850634
49	0x3e955aa0	0.29170704
50	0x3e832b60	0.2561903
51	0xbe954d1a	-0.29160386
52	0xbe25a0fe	-0.16174695
53	0x3e04dc6d	0.12974711
54	0x3e0c6840	0.13711643
55	0x3e3eb80d	0.18624897
56	0xbd9b7095	-0.07589833
57	0xbf36a951	-0.71352106
58	0xbe83ee2b	-0.25767645
59	0x3e80aa2f	0.2512984
60	0xbf2848e4	-0.6573622
61	0xbe905878	-0.28192496
62	0x3f14eb13	0.58171195
63	0x3eb21f25	0.34789386
64	0xbca430e5	-0.020042846
65	0xbe959bac	-0.2922033
66	0xbe90e4ab	-0.2829946
67	0x3d00ffbf	0.0314939
68	0xbc1426eb	-0.009042482
69	0xbe2d45c2	-0.16921142
70	0x3e3bd6e0	0.18343687
71	0x3ed13049	0.4085715
72	0x3eae06f7	0.3398969
73	0xbc0fde0f	-0.00878097
74	0x3e068299	0.13135757
75	0x3dde10ca	0.10843046
76	0xbf15f1be	-0.58571994
77	0xbe113701	-0.14181139
78	0x3c39bcfa	0.011336559
79	0xbe8c46a4	-0.27397645
80	0xbb2f88e2	-0.002678447
81	0xbe0b6847	-0.13613997
82	0x3e57ebb3	0.21086006
83	0x3ea4768f	0.32121703
84	0x3ed5bb1e	0.41744322
85	0x3e78085c	0.24221939
86	0x3e213270	0.15741897
87	0x3cc89652	0.02448574
88	0xbd28f250	-0.041246712
89	0x3e120d82	0.14262965
90	0xbeeeb831	-0.46624902
91	0xbf00b1df	-0.5027141
92	0xbef69938	-0.48163772
93	0x3d8ff601	0.070293434
94	0x3ed6ffca	0.41992027
95	0x3d650465	0.055912394
96	0xbe3c2423	-0.1837316
97	0x3f02d941	0.51112753
98	0xbde55a32	-0.11198844
99	0xbeab8359	-0.33498648
100	0x3d7a3f30	0.061095417
101	0xbe421746	-0.1895419
102	0x3e858954	0.26081336
103	0x3efbab54	0.4915415
104	0xbdf82182	-0.12115766
105	0x3ed88642	0.4228993
106	0x3eeaa51f	0.45829102
107	0xbe88d042	-0.26721388
108	0xbe1aaf1d	-0.15105863
109	0x3ecf2a23	0.40461835
110	0x3ed2624f	0.41090629
111	0x3ed72f46	0.42028254
112	0x3e858aff	0.26082608
113	0x3e3fe0e5	0.18738134
114	0xbe8bf068	-0.27331853
115	0xbeddc99c	-0.43317878
116	0xbea55287	-0.32289526
117	0xbdd1d7dc	-0.1024625
118	0xbf0b5832	-0.5443145
119	0xbe18550b	-0.14876191
120	0x3e8b2c61	0.27182296
121	0x3e702606	0.23452005
122	0x3e761216	0.24030337
123	0x3eadeb02	0.3396836
124	0xbde5cf0c	-0.11221132
125	0xbc0400eb	-0.0080568595
126	0xbea75d52	-0.32688385
127	0xbeae78d8	-0.3407657
128	0xbe5d423f	-0.21607302
129	0xbe7a3e56	-0.24437842
130	0xbe0a8d0e	-0.1353037
131	0xbd96513d	-0.07339714
132	0x3ea6b84d	0.32562485
133	0x3e859b53	0.26095065
134	0x3ecc50b5	0.39905325
135	0xbe3b166b	-0.1827027
136	0xbefbe2ff	-0.49196622
137	0xbd0b8883	-0.034065735
138	0xbbe120f6	-0.0068703843
139	0x3d89171c	0.06693861
140	0x3e315f58	0.17321527
141	0x3e6f4621	0.23366596
142	0x3ec0d9dc	0.37666214
143	0xbe7c4e2b	-0.24639194

bias f4 [4]
0	0x3a209b66	0.0006126672
1	0x3eac84d8	0.33695102
2	0xbe0942e7	-0.13404427
3	0x3de117a8	0.1099084

weight f4 [4, 4, 3, 3]
0	0xbe9a5a0a	-0.3014682
1	0xbd78c2fb	-0.060732823
2	0x3f05084d	0.5196579
3	0xbe3bd7e2	-0.18344072
4	0xbe2650df	-0.16241787
5	0xbea8bd01	-0.329567
6	0xbd97c7b4	-0.07411137
7	0xbf7e46b7	-0.9932665
8	0xbc5ff222	-0.013668569
9	0xbf06c45d	-0.52643377
10	0x3db8d973	0.0902585
11	0x3e791c1e	0.24327132
12	0xbebdbae4	-0.3705665
13	0x3eb3a93a	0.35090047
14	0x3d08c0d2	0.033387013
15	0xbe2d92a4	-0.1695047
16	0x3ea379a3	0.3192874
17	0xbea9fd1f	-0.3320093
18	0xbf297282	-0.6619035
19	0xbe54aacb	-0.20768277
20	0x3eb9cab9	0.36287478
21	0xbe81d164	-0.25355065
22	0x3dbd3430	0.092384696
23	0x3f2cf812	0.67566025
24	0xbeb64c74	-0.35605204
25	0x3eacdc28	0.33761716
26	0x3f5ff758	0.8748679
27	0xbf8667c7	-1.050042
28	0xbf00aef7	-0.50266975
29	0xbd29eec4	-0.04148747
30	0x3ec1049d	0.37698832
31	0x3ea0e994	0.31428206
32	0xbda976ac	-0.08274588
33	0x3cd30cdf	0.025762973
34	0x3ebdd79c	0.3707856
35	0xbe6477c0	-0.22311306
36	0x3e0f6b3e	0.14005753
37	0x3f2e8fa7	0.68187946
38	0x3f1c0e3c	0.6095922
39	0x3eb00d98	0.3438537
40	0x3d96f1fd	0.07370374
41	0xbef7b4bc	-0.48380077
42	0x3ea25dd5	0.31712213
43	0xbede1efa	-0.43383008
44	0xbf231e71	-0.63718325
45	0xbe5490f5	-0.20758422
46	0xbec5ff84	-0.38671505
47	0x3dbfb32e	0.09360348
48	0xbc7d3b22	-0.015455993
49	0xbd79345a	-0.060840942
50	0x3e84a217	0.25904915
51	0xbeefb435	-0.46817175
52	0x3e9ac148	0.30225587
53	0xbda8ff1c	-0.08251783
54	0x3f55f87b	0.83582276
55	0x3e43ddca	0.19127575
56	0x3ea53b1e	0.32271665
57	0x3d50b6a2	0.050955422
58	0xbe737b2e	-0.23777458
59	0x3cac9ad5	0.021069923
60	0xbf2cd595	-0.675134
61	0xbf538f11	-0.82640177
62	0xbef0612e	-0.46949142
63	0x3c96cff5	0.018409709
64	0xbf407684	-0.7518084
65	0xbdbe46f6	-0.092908785
66	0xbead1c43	-0.33810624
67	0xbec46a72	-0.3836246
68	0x3eca7ff5	0.39550748
69	0xbeacf1ae	-0.33778137
70	0x3e1e1b92	0.15440205
71	0x3edd5edb	0.4323643
72	0x3e1ed8ca	0.15512386
73	0x3eb1f70d	0.34758797
74	0xbf2dec89	-0.6793905
75	0x3e86fcb8	0.26364684
76	0x3f5736c9	0.8406797
77	0xbf05ed68	-0.5231538
78	0xbed555ff	-0.41667172
79	0x3f0d3064	0.55151963
80	0xbd01a3c8	-0.031650335
81	0x3da6b82e	0.08140598
82	0xbf5eaeb9	-0.86985356
83	0xbef986c5	-0.48735633
84	0x3ea6dac8	0.32588792
85	0x3e75e600	0.2401352
86	0xbf111b35	-0.5668214
87	0x3f322270	0.695838
88	0x3ec7a22a	0.3899091
89	0xbf10a276	-0.56497896
90	0x3c03dd7c	0.008048411
91	0x3d92eb53	0.07173791
92	0xbe464003	-0.19360356
93	0x3e1c3a8d	0.1525671
94	0x3df24f4f	0.11831533
95	0xbc9630fe	-0.018333908
96	0xbe064ca9	-0.13115181
97	0x3df27048	0.11837822
98	0xbd2d354b	-0.042287152
99	0x3e52cdd7	0.20586334
100	0xbd405d92	-0.046964236
101	0xbde8623d	-0.113468625
102	0xbe1ab9fe	-0.15110013
103	0x3ea9613b	0.33081993
104	0x3e040e3f	0.1289606
105	0xbf0f7302	-0.56034863
106	0xbd80cf77	-0.06289571
107	0xbf16be49	-0.588841
108	0xbf14b595	-0.5808957
109	0xbec1b275	-0.37831464
110	0x3efaf515	0.49015108
111	0x3e4e9770	0.20174956
112	0xbed3bd8e	-0.41355556
113	0xbf9bffc1	-1.2187425
114	0x3f1fe6a0	0.6246128
115	0x3f706c03	0.9391481
116	0x3edfe611	0.43730214
117	0xbd79fc66	-0.06103172
118	0x3de7539c	0.11295244
119	0x3f12265b	0.57089776
120	0xbf2f2de9	-0.6842943
121	0x3dd73aed	0.10509286
122	0xbea50947	-0.3223364
123	0xbeba7252	-0.36415344
124	0x3f083edf	0.53220934
125	0xbf01f832	-0.5076934
126	0xbe971b05	-0.29512802
127	0xbeaa6257	-0.33278152
128	0xbd512819	-0.05106363
129	0x3ea1d8e0	0.31610775
130	0xbd89febf	-0.06738042
131	0xbd287c96	-0.04113444
132	0x3ecfc377	0.40578815
133	0x3e9f4ca3	0.31113157
134	0x3e079493	0.1324027
135	0xbe2c82fe	-0.16846845
136	0xbd2e7aaa	-0.04259745
137	0xbdc8072c	-0.09766993
138	0x3dedd72c	0.116133064
139	0x3e6b4601	0.22975923
140	0x3d598556	0.053105675
141	0xbdef359c	-0.11680147
142	0x3e5361c5	0.20642765
143	0xbea77013	-0.32702693

bias f4 [4]
0	0xbf426100	-0.7592926
1	0xbf1e51b0	-0.61843395
2	0xbf3e0c6a	-0.7423769
3	0xbf7870df	-0.9704723

weight f4 [42, 576]
0	0xbd1cc61c	-0.03827487
1	0x3d7228a1	0.059120778
2	0xbdcd0c0d	-0.10012064
3	0xbdedd2d7	-0.1161248
4	0xbd3c9d32	-0.04604835
5	0xbd41ade7	-0.047284987
6	0x3c9e393f	0.019314406
7	0xbd7a481f	-0.061103936
8	0x3caee9e8	0.02135177
9	0x3de892bd	0.11356113
10	0xbd8401b6	-0.06445639
11	0xbe930a31	-0.28718713
12	0x3dfb1341	0.12259532
13	0x3e0d8fc9	0.13824381
14	0x3d93e2d2	0.07220997
15	0xbd606f57	-0.054793682
16	0xbcab7d56	-0.020933788
17	0x3bf70225	0.0075380974
18	0x3dea8fe8	0.11453229
19	0xbd79961f	-0.060934182
20	0xbd92560d	-0.07145319
21	0xbc2401d2	-0.0100102
22	0xbd632cae	-0.05546253
23	0xbe2ca664	-0.16860348
24	0xbe063ff4	-0.13110334
25	0x3d51ca5d	0.05121838
26	0xbd60b750	-0.05486232
27	0xbbd36973	-0.0064517795
28	0xbd9d9d7d	-0.07696054
29	0x3d86cb75	0.06581775
30	0x3db2aaa7	0.087239556
31	0x3c9a82ff	0.018861292
32	0x3c880f68	0.016608909
33	0xb9e6c6fe	-0.0004401728
34	0xbde34a13	-0.11098113
35	0x3d94db61	0.07268406
36	0xbe78c85a	-0.24295178
37	0x3b630eaa	0.0034646192
38	0xbd2b1edb	-0.041777473
39	0xbd94ba38	-0.07262081
40	0x3d2c1e90	0.042021334
41	0x3d5e1182	0.054215916
42	0xbc1fd3d7	-0.009755096
43	0x3e112800	0.14175415
44	0xbc755558	-0.014973961
45	0x3cdd8596	0.027041238
46	0xbc91ff00	-0.017821789
47	0xbc0a4599	-0.008439445
48	0xbe177721	-0.14791538
49	0xbd702cb6	-0.05863639
50	0x3d4a7158	0.0494245
51	0x3b7d3544	0.0038636485
52	0xbe12ca5f	-0.14335011
53	0xbd69796c	-0.057000563
54	0x3eb77602	0.3583222
55	0x3e57f076	0.21087822
56	0xbda66df3	-0.0812644
57	0xbd3a61e6	-0.04550352
58	0xbe08123f	-0.1328821
59	0xbd8c594a	-0.06852968
60	0xbc7001b3	-0.014648843
61	0x3dededdf	0.11617636
62	0xbcf227e4	-0.029560037
63	0xbd1703a1	-0.036868695
64	0x3e080a62	0.1328521
65	0x3edff49a	0.43741304
66	0xbe7463a0	-0.23866129
67	0x3d52eed2	0.051497288
68	0x3c9bc30d	0.019013906
69	0xbdefe035	-0.11712686
70	0xbcd6b458	-0.026209041
71	0xbe1387a5	-0.14407213
72	0xbd9fdf80	-0.07806301
73	0x3e26257a	0.16225234
74	0x3da85859	0.08219976
75	0x3db2cf43	0.08730938
76	0x3f0653f2	0.5247184
77	0x3eabddd7	0.33567688
78	0x3dd304dc	0.10303661
79	0x3e91c7c8	0.28472733
80	0x3e3bfecd	0.18358918
81	0x3dff0a7a	0.1245317
82	0xbd9aa111	-0.07550252
83	0xbdb8d4e1	-0.090249784
84	0xbe031940	-0.12802601
85	0x3df3a426	0.11896543
86	0x3d36a926	0.044594906
87	0x3dedb1aa	0.11606152
88	0xbd6492cb	-0.055804055
89	0xbe6477a8	-0.2231127
90	0x3f3bf531	0.7342101
91	0xbb9b612a	-0.0047418075
92	0xbaeda8fa	-0.0018132024
93	0x3de3b531	0.11118544
94	0xbdb641f8	-0.08899301
95	0xbd25e81b	-0.040504556
96	0xbdee9238	-0.11648983
97	0x3d2c0a2f	0.0420019
98	0xbcb9a83a	-0.022663224
99	0xbd963eef	-0.073362224
100	0xbe3f45f3	-0.18679027
101	0xbea5b0d0	-0.3236146
102	0x3e2ee483	0.17079358
103	0xbe1ac3a7	-0.15113698
104	0xbda151eb	-0.07876953
105	0xbd8f217d	-0.06988809
106	0xbd019727	-0.03163829
107	0x397f3ef5	0.00024342148
108	0xbe15451b	-0.14577143
109	0x3dbc2487	0.091866545
110	0xbcdbc195	-0.026825706
111	0x3dd40f5f	0.10354494
112	0x3e08578b	0.13314645
113	0x3e9297ee	0.28631538
114	0x3e7baf67	0.2457863
115	0x3db0b1e7	0.08627682
116	0xbe343121	-0.17596866
117	0xbe703402	-0.2345734
118	0xbe3b82e2	-0.18311647
119	0x3dbc4723	0.09193256
120	0xbe39b3d0	-0.18135
121	0xbcc4ead5	-0.024037758
122	0xbdb77c52	-0.08959259
123	0x3ded4135	0.11584703
124	0x3e5aee07	0.21379863
125	0x3ccf81a4	0.025330372
126	0xbd24503d	-0.040115584
127	0xbdab4bd7	-0.08364075
128	0x3d3a4c48	0.045482904
129	0xbe3084d9	-0.17238177
130	0xbe06f435	-0.13179095
131	0x3dae90ea	0.08523734
132	0xbdd016da	-0.101606086
133	0x3c5b3189	0.013378509
134	0x3dc3a874	0.09553614
135	0x3d66a00c	0.056304976
136	0x3d667419	0.056263063
137	0xbb92a737	-0.0044755
138	0xbe331a47	-0.17490493
139	0x3c992a0d	0.01869681
140	0xbe1fd3df	-0.15608166
141	0xbd82236a	-0.06354411
142	0x3d0ba846	0.034096025
143	0xbcada9f0	-0.021199197
144	0xbda3037d	-0.0795965
145	0xbe6f1f76	-0.23351845
146	0xbdda0f07	-0.106473975
147	0x3a68593e	0.0008863396
148	0xbc92d43e	-0.01792347
149	0x3cbf1257	0.023324175
150	0xbc8c6ea2	-0.017142598
151	0x3d92d260	0.07169032
152	0xbcd285e0	-0.025698602
153	0xbe4cd37b	-0.20002548
154	0xbe8eb310	-0.2787099
155	0xbe38f19f	-0.18060921
156	0xbd5e4f85	-0.054275054
157	0xbcf64ac7	-0.030064953
158	0x3e2669fd	0.16251369
159	0x3d8daa69	0.06917269
160	0xbbd612c0	-0.006532997
161	0xbc19c365	-0.009384965
162	0x3d33b11c	0.043870077
163	0x3c8e0362	0.017335597
164	0xbd4f7740	-0.050650835
165	0xbdcdd481	-0.100502975
166	0xbc8369eb	-0.016041717
167	0xbd88bfc2	-0.066772
168	0x3c44441c	0.011979129
169	0x3e35e649	0.17763628
170	0x3d0f1777	0.034934487
171	0xbdcce16e	-0.10003935
172	0xbdd344ed	-0.10315881
173	0x3d0329cd	0.032022286
174	0xbdb2886a	-0.08717425
175	0xbca73f75	-0.020416
176	0x3d92f8ee	0.07176386
177	0x3cc19642	0.023631219
178	0x3ddeee12	0.10885252
179	0x3d1a0241	0.037599806
180	0xbdb60479	-0.08887572
181	0x3da7bd41	0.08190394
182	0xbd23d447	-0.039997365
183	0xbdad6a78	-0.08467573
184	0xbda5c391	-0.08093942
185	0xbe4abc82	-0.19798473
186	0xbd16aab3	-0.036783885
187	0x3ccfb259	0.025353597
188	0xbd2d7cf5	-0.042355496
189	0xbdde1f6c	-0.10845837
190	0xbd148e81	-0.036268715
191	0xbd43dee8	-0.04782
192	0xbd0f6cb1	-0.035015766
193	0x3dd8aabb	0.10579439
194	0xbb96629a	-0.004589391
195	0x3d963b27	0.07335501
196	0xbe3d897a	-0.18509474
197	0xbde051ec	-0.10953125
198	0x3c345d9a	0.0110086445
199	0xbd5ff295	-0.054674704
200	0xbe6de63c	-0.23232359
201	0xbddc7a57	-0.10765522
202	0xbe1dc22b	-0.154061
203	0xbd558840	-0.05213189
204	0x3d572381	0.052524094
205	0x3cde70c1	0.027153375
206	0x3d3fb060	0.046799064
207	0xbd8c2ac3	-0.06844094
208	0x3eb81730	0.3595519
209	0xbd8e25a6	-0.069407746
210	0xbedf86ea	-0.4365762
211	0x3e22fcec	0.15916795
212	0xbe16f03c	-0.1474008
213	0x3d6cf279	0.057848427
214	0xbccca5ce	-0.024981406
215	0xbd816c56	-0.063194916
216	0x3df4d312	0.11954321
217	0x3da44af2	0.08022107
218	0x3c17e2b7	0.009270362
219	0x3dc734a5	0.09726838
220	0xbd82adc3	-0.06380799
221	0xbd236c25	-0.039898057
222	0x3eb494d0	0.35269785
223	0x3ec48020	0.38379002
224	0xbdd09288	-0.101841986
225	0x3e8c2890	0.27374697
226	0x3ce931f0	0.028466195
227	0x39b6b59c	0.00034849055
228	0x3dc3fd58	0.09569806
229	0x3e027ab3	0.12742119
230	0xbd8c18d0	-0.0684067
231	0xbd477da0	-0.04870379
232	0xbf0209c8	-0.50796175
233	0x3e5cbeb7	0.21557127
234	0xbc8d7a74	-0.017270304
235	0xbe5f55ce	-0.21810076
236	0x3cd2da06	0.025738727
237	0x3e3d7f68	0.18505633
238	0xbc2efeed	-0.010680896
239	0xbd574ef0	-0.052565515
240	0x3e180f96	0.14849696
241	0x3dc50adf	0.09621214
242	0x3d17fe3e	0.0371077
243	0xbe2c22e5	-0.16810186
244	0x3e1faf15	0.15594132
245	0x3eae7331	0.3407226
246	0x3d745da9	0.059659634
247	0xbd8e48a0	-0.06947446
248	0x3b6b4760	0.0035900697
249	0xbde383c2	-0.11109115
250	0x3d85037c	0.06494805
251	0xba7919ba	-0.000950243
252	0x3e3d03c3	0.18458466
253	0x3d4ba0a3	0.049713742
254	0x3c89ed14	0.01683668
255	0x3de5a396	0.11212842

bias f4 [42]
0	0xbe612367	-0.21986161
1	0x3dd88901	0.105730064
2	0x3d604b90	0.054759562
3	0x3dae4f19	0.085111804
4	0xbe0f9033	-0.14019851
5	0xbc338479	-0.010956877
6	0x3ca28230	0.019837469
7	0x3cd83057	0.026390238
8	0xbd57de3b	-0.05270217
9	0x3e57abe2	0.21061662
10	0x3e65282f	0.2237861
11	0x3d8f16ef	0.06986796
12	0x3e9d9249	0.3077567
13	0x3e81d395	0.25356737
14	0x3d09fec6	0.033690237
15	0xbe0f029e	-0.13965842
16	0xbdb57de5	-0.08861903
17	0x3e1b6095	0.15173562
18	0x3dd61737	0.10453647
19	0xbe1fa6fd	-0.15591045
20	0x3d364c0c	0.044506118
21	0xbcfcf242	-0.030877236
22	0xbdc9cb29	-0.09853203
23	0xbce6e45e	-0.028185066
24	0xbc3ef701	-0.01165557
25	0x3edaac54	0.427096
26	0xbc5e6404	-0.01357365
27	0xbe14db79	-0.14536847
28	0xbbea1476	-0.0071435524
29	0xbdb7f3e8	-0.08982068
30	0xbdda8be7	-0.106712155
31	0xbd5adde8	-0.053434283
32	0xbd545490	-0.051838458
33	0xbd9a1835	-0.075241484
34	0xbe515286	-0.20441636
35	0xbc2fd8e0	-0.010732859
36	0xbde6c423	-0.11267879
37	0xbe13d741	-0.14437582
38	0x3e2ca37e	0.16859242
39	0xbde2396f	-0.11046111
40	0xbcb6d195	-0.022316733
41	0xbe0b96c2	-0.13631728
